models/breast_mnist.pt (torch, 427331 bytes, 14 tensors)

prototypes f4 [8, 576]
0.22862801 0.22384219 0.20417203 0.33274823 0.3320409 0.3241259 0.34441677 0.43038568
0.6827085 0.040289413 0.084041856 0.75257915 0.49501893 0.15427499 0.67740875 0.40317023
0.32060033 0.28504422 0.35086763 0.6491053 0.67066824 0.38276187 0.46272606 0.53642243
0.3085073 0.3568223 0.58163226 0.7218717 0.48619393 0.52353626 0.5008342 0.41887912
0.56378496 0.37872475 0.34953094 0.41514337 0.5841542 0.44438052 0.6056455 0.6037143
0.6345581 0.67849696 0.39006484 0.33981168 0.3719101 0.2812116 0.46348548 0.5991365
0.5597522 0.27967283 0.5801417 0.4927147 0.24575439 0.2882427 0.32481754 0.08861402
0.049223438 0.3615409 0.101942204 0.2894585 0.6487426 0.5726717 0.5158014 0.3601789
-0.032821253 0.12672351 0.39400244 0.15699872 0.44035402 0.3044295 0.33873767 0.5643125
0.3055643 0.47617254 0.272989 0.45214012 -0.015443249 0.03877734 0.36692277 0.32739842
0.19706623 0.24118562 0.14005268 0.17104082 0.3125309 0.2155355 0.31169668 0.3342462
0.46604365 0.47054967 0.4561141 0.49111632 0.18811819 0.46284303 0.42185444 0.15447086
0.44991928 0.3941786 0.31152195 -0.026975166 0.2094732 0.34474188 0.11123647 0.3759708
0.59688705 0.40875334 0.60923123 0.4623324 0.609627 0.31498685 0.25017512 0.60848683
0.5289418 0.28249556 0.5362742 0.3279162 0.27258378 0.83189684 0.80750006 0.38010374
0.47609478 0.17078088 0.14324354 0.56421953 0.4340103 0.30186206 0.34738815 0.14065054
0.16709045 0.34622717 0.24407363 0.3188175 0.40615398 0.32449308 0.570966 0.17036001
-0.015765654 0.15178657 0.5003332 0.39502674 0.29375994 0.6673249 0.38724703 0.5908757
0.1681655 0.2677047 0.7091708 0.15746884 0.30740502 0.65567535 0.33783716 0.27629423
0.22019395 0.44649026 0.22388507 0.15513569 0.52593005 0.17429481 0.5099497 0.34218785
0.33830795 0.36171907 0.77319914 0.27011922 0.23797078 0.70942813 0.23699328 0.2931134
0.41187617 0.17659396 0.29608566 0.33745173 0.6489114 0.5735809 0.4596381 0.35108143
0.43944985 0.41419694 0.28066388 0.31711233 0.35497692 0.1970867 0.23800312 0.15869685
0.079210274 0.107014835 0.3759168 0.5233772 0.43512854 0.11012548 0.1310701 0.40486753
0.27439976 0.31181735 0.58586735 0.6291726 0.57980037 0.4663429 0.24015991 0.22337368
0.25747538 0.2509251 0.5639595 0.44168052 0.27003714 0.2803783 0.31084588 0.2588815
0.264153 0.47128326 0.64907265 0.7210125 0.69297504 0.47467142 0.43369144 0.58471084
0.2981524 0.26299655 0.5041528 0.22341272 0.18241069 0.22071987 0.30250815 0.30005425
0.281566 0.62120986 0.7489139 0.78442246 0.2740209 0.15331906 0.17561334 0.19848892
0.16221996 0.5567431 0.60538965 0.65651065 0.40608886 0.3955343 0.30625963 0.47767815
0.47856808 0.49030828 0.27758816 0.47067454 0.54679567 0.4713269 0.66897005 0.26842552
0.22700702 0.45322248 0.26533806 0.25553766 0.106813736 0.074403696 0.32483402 0.2933128
00000000: 761d 6a3e e336 653e 7912 513e fa5d aa3e
00000010: 4401 aa3e d4f3 a53e 6557 b03e 835b dc3e
00000020: fcc5 2e3f 8306 253d 231e ac3d 07a9 403f
00000030: 1f73 fd3e 43fa 1d3e a96a 2d3f 546c ce3e
00000040: ba25 a43e 51f1 913e eca4 b33e c42b 263f
00000050: eab0 2b3f 5df9 c33e 6eea ec3e fb52 093f
00000060: abf4 9d3e 6ab1 b63e dae5 143f 95cc 383f
00000070: 69ee f83e 7906 063f ac36 003f 5377 d63e
00000080: 3654 103f 36e8 c13e b8f5 b23e ac8d d43e
00000090: 218b 153f d885 e33e 950b 1b3f 058d 1a3f
000000a0: 6672 223f fab1 2d3f 94b6 c73e ccfb ad3e
000000b0: 006b be3e f8fa 8f3e f84d ed3e 0261 193f
000000c0: ec4b 0f3f 4731 8f3e 2b84 143f 1a45 fc3e
000000d0: 0aa7 7b3e 8c94 933e 7c4e a63e 447b b53d
000000e0: 849e 493d e41b b93e 13c7 d03d e833 943e
000000f0: ff13 263f 9d9a 123f 900b 043f 5e69 b83e
00000100: 946f 06bd cfc3 013e b0ba c93e 46c4 203e
00000110: 1576 e13e 2fde 9b3e 066f ad3e c976 103f
00000120: ed72 9c3e e3cc f33e 37c5 8b3e e97e e73e
00000130: ae05 7dbc fdd4 1e3d 4ddd bb3e c4a0 a73e
00000140: bbcb 493e 5df9 763e f869 0f3e 5325 2f3e
00000150: 0d04 a03e 57b5 5c3e b596 9f3e 5122 ab3e
00000160: 469d ee3e e3eb f03e ca87 e93e 9973 fb3e
00000170: 0ea2 403e c3f9 ec3e 4efd d73e 9c2d 1e3e
00000180: d25b e63e c7d1 c93e ce7f 9f3e 06fb dcbc
00000190: 2480 563e 0282 b03e f2cf e33d 3f7f c03e
000001a0: 97cd 183f 1e48 d13e 94f6 1b3f d5b6 ec3e
000001b0: 8410 1c3f f545 a13e f416 803e cbc5 1b3f
000001c0: bb68 073f 42a3 903e 4449 093f a2e4 a73e
000001d0: 1a90 8b3e 31f7 543f 53b8 4e3f f59c c23e
000001e0: b2c2 f33e 2fe1 2e3e 6fae 123e b170 103f
000001f0: 9936 de3e aa8d 9a3e dcdc b13e b206 103e
00000200: c219 2b3e b044 b13e 70ee 793e 0c3c a33e
00000210: 6af3 cf3e f523 a63e d42a 123f db72 2e3e
00000220: f926 81bc f06d 1b3e d615 003f f240 ca3e
00000230: b467 963e ced5 2a3f 3e45 c63e a143 173f
00000240: 9433 2c3e 9710 893e 388c 353f 833f 213e
00000250: 3164 9d3e 57da 273f fef8 ac3e 7076 8d3e
00000260: 867a 613e 5f9a e43e 2142 653e e4db 1e3e
00000270: 5aa3 063f 577a 323e 108c 023f 3f33 af3e
00000280: b336 ad3e 3e33 b93e 61f0 453f 114d 8a3e
00000290: 9dae 733e 159d 353f 5eae 723e f612 963e
000002a0: 6fe1 d23e 0cd5 343e 8a98 973e 79c6 ac3e
000002b0: 0f1f 263f 33d6 123f af55 eb3e f2c0 b33e
000002c0: 92ff e03e 9f11 d43e 2db3 8f3e 8c5c a23e
000002d0: 89bf b53e 19d1 493e 17b7 733e 6d81 223e
000002e0: ff38 a23d 982a db3d 2b78 c03e 0cfc 053f
000002f0: 2bc9 de3e 7889 e13d 3e37 063e cc4a cf3e
00000300: 207e 8c3e 86a6 9f3e 67fb 153f 7511 213f
00000310: cc6d 143f 7fc4 ee3e 7bec 753e 12bc 643e
00000320: d0d3 833e 4179 803e a65f 103f f323 e23e
00000330: 4f42 8a3e bf8d 8f3e 3127 9f3e 1e8c 843e
00000340: 103f 873e 0a4c f13e a029 263f 4694 383f
00000350: d066 313f 2208 f33e ce0c de3e 9caf 153f
00000360: 6ea7 983e 7ca7 863e 2810 013f 4ec6 643e
00000370: dec9 3a3e 6404 623e 59e2 9a3e b6a0 993e
00000380: 6b29 903e 9c07 1f3f d2b8 3f3f e9cf 483f
00000390: 784c 8c3e acff 1c3e fcd3 333e ae40 4b3e
000003a0: fd1c 263e b786 0e3f d1fa 1a3f 1511 283f
000003b0: e1ea cf3e 7983 ca3e 10ce 9c3e 3b92 f43e
000003c0: e006 f53e b009 fb3e 0920 8e3e 41fc f03e
000003d0: cdfa 0b3f c251 f13e 9f41 2b3f 126f 893e
000003e0: 8774 683e c70c e83e 64da 873e d5d5 823e
000003f0: 29c1 da3d f760 983d a550 a63e 182d 963e

encoder.0.weight f4 [32, 1, 3, 3]
-0.008440262 0.33066946 -0.15106963 -0.17824516 -0.04831323 0.31521115 -0.24954708 -0.3265785
-0.08819611 0.13183805 0.11971281 -0.15360843 0.014605912 0.23736642 -0.22197132 -0.011429215
0.28161585 -0.18431275 -0.12778866 0.31600738 -0.12400593 0.27167687 -0.1117537 0.34801328
-0.40510052 -0.27983284 0.20177208 -0.22177736 -0.027292922 0.2868792 -0.106157444 -0.122300126
-0.21618593 0.33360338 0.10140982 -0.04665159 0.06386287 -0.29110625 0.19774155 -0.059455186
0.100073405 -0.3327901 0.45592618 0.37535432 -0.23001277 0.010314592 0.29913875 -0.36532897
0.07648468 0.085068956 -0.16307272 0.1008684 0.28991118 -0.34961328 -0.19068974 -0.3244118
0.34729987 0.15308148 -0.2693859 0.10805962 -0.033110663 -0.1506006 -0.08086777 -0.22363375
-0.2741498 -0.100742295 0.030605046 -0.045353346 0.10272371 0.33673882 0.09689212 -0.025175998
-0.21212135 0.26232052 -0.005864763 -0.19264472 -0.24279346 -0.3341972 -0.23049772 0.15282293
-0.17905787 -0.00077115954 -0.00075492845 -0.000686158 -0.0006837872 -0.0006885419 -0.0006324423 -0.0006765729
-0.00065477705 -0.00060817756 -0.20975776 0.22777987 0.29016975 -0.0029733141 0.13650157 -0.16749154
0.179258 0.082450196 0.062091686 0.059395064 0.06726923 0.016394174 0.018956983 0.016620727
-0.0027615137 -0.081538156 -0.05079526 -0.08085804 0.20707798 -0.08937355 0.32858956 -0.18069126
0.027166322 0.35694438 -0.12253537 -0.43042263 -0.28497034 -0.075611226 0.31269708 0.33157244
-0.22965688 0.33934674 0.44938353 -0.055388346 -0.44219735 -0.023576053 -0.048192263 -0.1672559
-0.09867722 -0.23450106 0.32905012 -0.18971138 0.2333283 0.085200235 0.05774303 -0.019132104
-0.1623584 0.015862266 0.19589403 0.27692562 0.18548171 -0.13282196 -0.028006805 0.054752648
-0.15923977 -0.18126686 -0.25496703 -0.21203424 -0.120789915 0.073678344 0.039845858 0.2919181
0.28791326 -0.0020636236 0.0807754 0.17734332 -0.29932848 0.13989651 -0.16676773 -0.12760817
-0.3230125 0.13103886 0.11135872 -0.24586996 0.17977767 0.00407222 0.3126394 0.28171885
-0.20186187 -0.45763272 -0.069246836 -0.09127489 0.21861999 0.32660204 0.057597194 0.22241361
-0.021599142 -0.03173088 0.2759519 -0.2664588 -0.31549364 -0.40044186 0.14051329 0.21779664
0.33455044 -0.13375026 0.026608668 0.19958119 -0.040520225 0.3142807 0.34286982 -0.27343503
0.22643015 -0.10709373 -0.17132756 -0.13863795 0.23179656 -0.1679179 0.2194981 -0.3324323
-0.30180442 0.042097133 0.07090986 -0.013630716 0.25898913 0.06131776 0.13568547 -0.1319662
0.2705334 0.30479634 0.23269944 -0.16176371 -0.1831215 0.34667894 -0.3127353 0.09701176
0.31604177 0.1778131 0.02577702 -0.36004034 -0.10457997 -0.22536281 -0.34036 0.15884872
0.2187935 0.3248896 -0.06463527 -0.024035657 0.019357756 0.05671333 -0.31562412 -0.08622047
-0.11429567 0.11603254 -0.13747832 -0.33966506 -0.27891892 0.36417383 -0.30458033 0.23342936
-0.02705568 0.36365914 -0.08247315 -0.07864238 0.13876098 -0.05364102 0.035810202 -0.012855128
0.31806055 -0.073972434 0.15671398 -0.37786192 -0.16460837 0.16430932 0.25789905 0.24466088
00000000: 0649 0abc 824d a93e ffb1 1abe e685 36be
00000010: 18e4 45bd 5b63 a13e 4589 7fbe 4c35 a7be
00000020: 2aa0 b4bd 8e00 073e fd2b f53d 874b 1dbe
00000030: a34d 6f3c 2f10 733e 734c 63be 9a41 3bbc
00000040: f42f 903e 7bbc 3cbe 08db 02be b8cb a13e
00000050: d2f6 fdbd 3b19 8b3e 20df e4bd cc2e b23e
00000060: 5669 cfbe 4046 8fbe 579d 4e3e 9b19 63be
00000070: 6895 dfbc d5e1 923e 1369 d9bd 7d78 fabd
00000080: d85f 5dbe 10ce aa3e f4af cf3d bd15 3fbd
00000090: 89ca 823d e10b 95be c37c 4a3e 4887 73bd
000000a0: 49f3 cc3d 7763 aabe 286f e93e 712e c03e
000000b0: 7888 6bbe 89fe 283c b728 993e 660c bbbe
000000c0: 00a4 9c3d a238 ae3d 89fc 26be 1794 ce3d
000000d0: 3d6f 943e 8300 b3be 2c44 43be 4e19 a6be
000000e0: 4ad1 b13e 64c1 1c3e f3ec 89be 5d4e dd3d
000000f0: 0c9f 07bd 0b37 1abe 009e a5bd 3f00 65be
00000100: 5d5d 8cbe fa51 cebd 6fb7 fa3c 6ec4 39bd
00000110: cf60 d23d 0869 ac3e 606f c63d e53d cebc
00000120: 5736 59be e04e 863e 332d c0bb a844 45be
00000130: d99e 78be e51b abbe 9807 6cbe 9d7d 1c3e
00000140: f25a 37be a427 4aba 64e6 45ba 49df 33ba
00000150: 2f40 33ba 447f 34ba 7cca 25ba 0a5c 31ba
00000160: 58a5 2bba 1b6e 1fba bdca 56be 203f 693e
00000170: 2191 943e efdb 42bb 11c7 0b3e e782 2bbe
00000180: 698f 373e a6db a83d da53 7e3d 3d48 733d
00000190: 73c4 893d 134d 863c ad4b 9b3c 3128 883c
000001a0: 83fa 34bb 7afd a6bd b10e 50bd e698 a5bd
000001b0: 400c 543e 7b09 b7bd e43c a83e 2107 39be
000001c0: e88b de3c 6ac1 b63e d3f3 fabd 5b60 dcbe
000001d0: a2e7 91be 0fda 9abd d519 a03e ddc3 a93e
000001e0: 2c2b 6bbe dbbe ad3e 9915 e63e e4de 62bd
000001f0: b167 e2be 9122 c1bc 4065 45bd 2145 2bbe
00000200: 4817 cabd 0c21 70be 4279 a83e b343 42be
00000210: 9ded 6e3e 767d ae3d f583 6c3d eeba 9cbc
00000220: 4841 26be 95f1 813c 7298 483e 32c9 8d3e
00000230: ebee 3d3e 7b02 08be 876e e5bc 5044 603d
00000240: c00f 23be 059e 39be 0a8b 82be 811f 59be
00000250: b460 f7bd ace4 963d 6935 233d 4a76 953e
00000260: 5e69 933e dc3d 07bb 936d a53d 7d99 353e
00000270: 9541 99be 0841 0f3e 29c5 2abe b7ab 02be
00000280: e561 a5be 0d2f 063e 0a10 e43d 56c5 7bbe
00000290: a317 383e 4270 853b 4512 a03e 743d 903e
000002a0: e1b4 4ebe d64e eabe 49d1 8dbd 54ee babd
000002b0: ebdd 5f3e 6238 a73e 09eb 6b3d 65c0 633e
000002c0: aff0 b0bc 3df8 01bd 9149 8d3e 4a6d 88be
000002d0: 6288 a1be b706 cdbe b7e2 0f3e 1506 5f3e
000002e0: 324a ab3e d4f5 08be 6cfa d93c 035f 4c3e
000002f0: 89f8 25bd 66e9 a03e a28c af3e adff 8bbe
00000300: 4edd 673e f553 dbbd 7e70 2fbe 1bf7 0dbe
00000310: 145c 6d3e acf2 2bbe 1cc4 603e 9134 aabe
00000320: 1c86 9abe 0b6e 2c3d 3039 913d 5e53 5fbc
00000330: 399a 843e 5528 7b3d 22f1 0a3e 2622 07be
00000340: 5b83 8a3e 440e 9c3e c348 6e3e 63a5 25be
00000350: 3484 3bbe e77f b13e d71e a0be 1aae c63d
00000360: 3ad0 a13e a314 363e 542a d33c 3557 b8be
00000370: 062e d6bd 82c5 66be aa43 aebe 3da9 223e
00000380: 670b 603e ee57 a63e 7f5f 84bd 6de6 c4bc
00000390: 2894 9e3c 3d4c 683d 7c99 a1be 5c94 b0bd
000003a0: d913 eabd 78a2 ed3d 1ec7 0cbe 94e8 adbe
000003b0: 76ce 8ebe fe74 ba3e f4f1 9bbe 1b08 6f3e
000003c0: e0a3 ddbc 8831 ba3e afe7 a8bd 420f a1bd
000003d0: 5c17 0e3e b0b6 5bbd b8ad 123d 519e 52bc
000003e0: d5d8 a23e dc7e 97bd a179 203e 1e77 c1be
000003f0: 198f 28be b440 283e 580b 843e 6288 7a3e

encoder.0.bias f4 [32]
0.2343594 -0.09066544 -0.005519248 -0.012428677 -0.08648334 0.017962215 0.21045592 0.057134517
0.36645257 -0.0022629907 -0.34160763 0.003976757 0.13659489 -0.14718428 -0.0019509275 -0.10519871
0.15293272 0.21136783 0.10862136 0.08012193 0.07275444 -0.067259446 -0.05355943 -0.19820796
0.068983644 0.05180205 0.12547001 0.19195272 0.04126412 -0.1855952 0.19609785 -0.06265521
00000000: e9fb 6f3e cdae b9bd cfda b4bb a6a1 4bbc
00000010: 2d1e b1bd 7f25 933c c281 573e e205 6a3d
00000020: ac9f bb3e af4e 14bb 32e7 aebe 754f 823b
00000030: 88df 0b3e 7ab7 16be 44b6 ffba 6c72 d7bd
00000040: 659a 1c3e cf70 583e e074 de3d f716 a43d
00000050: 4800 953d 52bf 89bd 2261 5bbd 07f7 4abe
00000060: 4c47 8d3d 632e 543d 367b 003e 418f 443e
00000070: 9104 293d ab0c 3ebe e0cd 483e 6051 80bd

encoder.4.weight f4 [64, 32, 3, 3]
-0.006122826 0.038385294 0.0546801 -0.041177407 -0.07406531 -0.02310901 -0.03635634 0.014662327
0.076380216 -0.08256865 -0.09810062 -0.041620217 -0.14602774 0.0070538507 -0.019840559 -0.011680603
0.055776756 -0.007993157 -0.034862343 0.0045722695 0.09820108 -0.093270205 -0.039556254 -0.084347926
-0.16148725 -0.01114572 -0.01147347 -0.23865229 -0.21856807 -0.061164346 -0.07861887 0.14589255
0.25597444 0.06719434 -0.03457442 -0.12732878 -0.088916145 -0.08429538 -0.03430298 -0.07014129
0.047667447 0.036977034 0.06501896 0.09467942 -0.00883046 0.05281981 -0.12570728 -0.021684676
-0.100668706 0.0338033 0.11733368 -0.03933039 0.08461832 0.00086905435 -0.013350572 0.031160027
-0.012663811 -0.029606804 -0.056204874 0.051269773 0.056608185 -0.006588686 0.022443023 0.021831814
0.01817648 0.07973492 -0.07991751 0.11777269 0.13078092 0.042124912 0.049511075 0.04009056
0.018028866 0.026919132 0.031830896 -0.025584169 0.03692561 0.015981257 0.028037885 0.036076937
-0.04261151 3.0656788e-09 5.1340317e-11 1.0881632e-10 1.79247e-09 9.9027266e-11 5.2884672e-11 8.663824e-09
1.3680109e-09 2.5125424e-10 -0.10276401 -0.11330104 0.039617922 0.009728478 -0.032076493 0.0330679
0.07534308 0.053661916 -0.06176 0.13292013 0.090140134 0.090674795 -0.033830952 -0.052929755
-0.0012778884 -0.021550985 0.0023669424 -0.054086886 0.03784922 0.09942695 0.014479369 -0.032912012
-0.105562456 0.05758311 -0.033619456 0.0388725 -0.06830548 0.019213675 0.06121563 0.11326104
-0.01861475 -0.037141725 -0.020833008 -0.07383067 -0.005771337 0.014835684 -0.00040337432 0.0065511675
0.03086056 -0.09358684 0.11373703 0.024178661 0.089722194 0.091403745 -0.013444888 -0.027903577
0.08810751 0.07738467 -0.05305739 -0.017366773 -0.07045564 -0.010231689 -0.024267286 -0.023776514
-0.057846267 -0.024818107 0.04852503 -0.04682403 0.0021389672 0.024766173 0.009847942 0.066245265
0.022182839 0.03217552 -0.023420224 -0.013865916 0.02998398 -0.0016846497 0.039692663 0.0009745147
-0.05829256 -0.053841796 -0.023257349 0.062212307 0.05830379 -0.051166 0.008187789 -0.034694064
-0.023641389 -0.019078169 -0.0014021124 0.022530036 0.028608972 -0.016316297 0.023732064 -0.011689977
-0.042914208 -0.018754141 -0.018530436 0.008471604 -0.039666656 0.046344727 0.052692346 -0.08795715
-0.0023206829 -0.014524194 0.024880998 0.015480402 -0.024923984 0.115550905 -0.039313976 0.031352736
-0.058475167 -0.0103529785 -0.049404856 -0.039576154 0.02569316 0.022237774 0.0096496325 0.0074466593
-0.011985281 -0.093194745 -0.017127274 -0.038515486 0.09267287 -0.00033761223 0.11833036 0.09630858
-0.043133546 0.01690194 -0.0016916422 0.032061886 0.087163776 0.09871276 0.036343995 -0.101541355
0.08471471 0.08721995 0.03030269 0.027444711 -0.010387265 0.033703018 0.003907722 -0.023421353
-0.13031277 0.06718631 0.031949934 0.0026923332 0.036140464 -1.1660785e-05 -0.038115446 -0.039330076
-0.034943145 -0.028976688 0.047752287 0.095309064 0.007261204 -0.027228206 0.06732954 0.030125834
0.058211293 -0.08950806 0.016795339 -0.0182013 -0.035940927 -0.01809132 0.0099142315 -0.034412704
-0.030808724 -0.009082113 0.062481172 -0.036761183 0.014896888 0.03173489 0.059982713 -0.0051954607
00000000: fda1 c8bb e639 1d3d 3ef8 5f3d a4a9 28bd
00000010: 8eaf 97bd 1b4f bdbc 63ea 14bd 423a 703c
00000020: 3b6d 9c3d c119 a9bd fae8 c8bd f679 2abd
00000030: 4c88 15be fd23 e73b ab88 a2bc 0060 3fbc
00000040: 2b76 643d bbf5 02bc d1cb 0ebd fad2 953b
00000050: a61d c93d 7304 bfbd bd05 22bd 9bbe acbd
00000060: ea5c 25be 8a9c 36bc 39fb 3bbc 4461 74be
00000070: 4fd0 5fbe 7787 7abd ee02 a1bd db64 153e
00000080: 150f 833e 309d 893d e89d 0dbd 7a62 02be
00000090: ab19 b6bd 0ea3 acbd 4881 0cbd 3da6 8fbd
000000a0: f13e 433d 3b75 173d a928 853d 49e7 c13d
000000b0: a2ad 10bc 9659 583d 69b9 00be 10a4 b1bc
000000c0: 652b cebd 5475 0a3d a44c f03d e718 21bd
000000d0: 5f4c ad3d 40d1 633a 5cbc 5abc 5043 ff3c
000000e0: e07b 4fbc f889 f2bc 1537 66bd 4100 523d
000000f0: fcdd 673d e7e5 d7bb 6eda b73c a2d8 b23c
00000100: d7e6 943c 104c a33d cbab a3bd cf32 f13d
00000110: 6feb 053e 2c8b 2c3d 20cc 4a3d 0036 243d
00000120: 46b1 933c 8385 dc3c 1d61 023d e495 d1bc
00000130: 4f3f 173d 20eb 823c b5af e53c 69c5 133d
00000140: 6889 2ebd feab 5231 0fcc 612e 244a ef2e
00000150: ee5a f630 65c3 d92e d996 682e e7d7 1432
00000160: 9b04 bc30 e420 8a2f f075 d2bd 600a e8bd
00000170: 6746 223d 3264 1f3c a462 03bd 3572 073d
00000180: 794d 9a3d 99cc 5b3d 0ef8 7cbd 371c 083e
00000190: 649b b83d b5b3 b93d 5392 0abd dfcc 58bd
000001a0: d27e a7ba b18b b0bc b41e 1b3b 368a 5dbd
000001b0: c907 1b3d 5ba0 cb3d e03a 6d3c bfce 06bd
000001c0: 2131 d8bd 44dc 6b3d 8eb4 09bd c538 1f3d
000001d0: bee3 8bbd ff65 9d3c 3ebd 7a3d 67f5 e73d
000001e0: f67d 98bc ec21 18bd fca9 aabc 8934 97bd
000001f0: 7c1d bdbb 5e11 733c fc7b d3b9 2dab d63b
00000200: 49cf fc3c 75aa bfbd f6ee e83d 5412 c63c
00000210: 45c0 b73d e331 bb3d f347 5cbc 0b96 e4bc
00000220: b671 b43d db7b 9e3d b552 59bd c344 8ebc
00000230: 0c4b 90bd d0a2 27bc 30cc c6bc f7c6 c2bc
00000240: 35f0 6cbd 584f cbbc 2fc2 463d 8eca 3fbd
00000250: ea2d 0c3b 6ee2 ca3c 4359 213c 99ab 873d
00000260: c9b8 b53c 7aca 033d c5db bfbc de2d 63bc
00000270: f7a0 f53c 77cf dcba c694 223d 9376 7f3a
00000280: 2ec4 6ebd 3789 5cbd 3286 bebc 55d2 7e3d
00000290: f4cf 6e3d 7193 51bd 1326 063c 5d1b 0ebd
000002a0: 96ab c1bc d249 9cbc 16c7 b7ba e990 b83c
000002b0: 5d5d ea3c c1a9 85bc bf69 c23c 5187 3fbc
000002c0: cfc6 2fbd 49a2 99bc 24cd 97bc 7ccc 0a3c
000002d0: 8179 22bd f8d3 3d3d eed3 573d e122 b4bd
000002e0: 9916 18bb e3f6 6dbc 3cd3 cb3c 83a1 7d3c
000002f0: 622d ccbc f4a5 ec3d b107 21bd ba6b 003d
00000300: a883 6fbd 8a9f 29bc bf5c 4abd 9b1a 22bd
00000310: 767a d23c fe2b b63c 7e19 1e3c 1b03 f43b
00000320: e95d 44bc e3dc bebd 7f4e 8cbc 6ac2 1dbd
00000330: 46cb bd3d 8c01 b1b9 3057 f23d 6f3d c53d
00000340: cdac 30bd f075 8a3c 18ba ddba 5353 033d
00000350: ec82 b23d ea29 ca3d 71dd 143d eaf4 cfbd
00000360: e87e ad3d 60a0 b23d 593d f83c bbd3 e03c
00000370: 592f 2abc 2d0c 0a3d 590c 803b 23de bfbc
00000380: b670 05be fa98 893d efdd 023d db71 303b
00000390: 0608 143d b1a2 43b7 f11e 1cbd 9318 21bd
000003a0: 8b20 0fbd 8560 edbc e797 433d 6631 c33d
000003b0: 65ef ed3b b00d dfbc 12e4 893d 74ca f63c
000003c0: f76e 6e3d 0050 b7bd 6196 893c e51a 95bc
000003d0: cb36 13bd 3f34 94bc 4d6f 223c 56f4 0cbd
000003e0: 9462 fcbc 25cd 14bc 42ec 7f3d e592 16bd
000003f0: 1412 743c 72fc 013d 6fb0 753d af3e aabb

encoder.4.bias f4 [64]
-0.02277877 0.0058489656 0.13613594 -0.04899977 -0.06875226 0.12388031 -0.0033453386 0.045226127
-0.05428677 -0.025122764 0.01965193 -0.019213464 0.07791038 0.016848503 0.013676291 -0.0526385
-0.057916634 0.10707467 0.07075378 0.01549183 0.03752885 -0.014832275 0.10891996 -0.06506923
0.07777769 0.020064162 0.047601778 0.105377264 0.043008223 0.13440205 0.07144023 0.067513816
-0.023862977 -0.061171435 0.05335198 0.107905224 0.06659001 0.06168285 -0.032105885 0.119970515
-0.019767843 -0.0007668605 0.0148898605 0.07920829 -0.020427354 0.031025425 -0.031599823 0.097135395
0.076302774 0.022696577 0.005986712 0.0670299 -0.035386633 -0.006640018 0.049251672 0.02608974
0.010623489 0.16513637 -0.004118847 0.050460145 0.054183736 0.017872058 0.11249084 0.030891713
00000000: 8b9a babc aea8 bf3b 3867 0b3e fcb3 48bd
00000010: fccd 8cbd f6b4 fd3d 783d 5bbb 083f 393d
00000020: ce5b 5ebd 41ce cdbc 16fd a03c 8e65 9dbc
00000030: 7a8f 9f3d df05 8a3c 8612 603c 789b 57bd
00000040: fe39 6dbd f749 db3d 5ce7 903d 72d1 7d3c
00000050: dab7 193d 1203 73bc 6e11 df3d 0443 85bd
00000060: e949 9f3d 995d a43c 15fa 423d 09d0 d73d
00000070: 6429 303d b1a0 093e 414f 923d af44 8a3d
00000080: 4a7c c3bc e68e 7abd 9b87 5a3d 6afd dc3d
00000090: 5860 883d 28a7 7c3d 7681 03bd 1ab3 f53d
000000a0: 2cf0 a1bc 2307 49ba 9af4 733c f537 a23d
000000b0: 4457 a7bc 0829 fe3c d16e 01bd ecee c63d
000000c0: a144 9c3d 2cee b93c 2e2c c43b f946 893d
000000d0: 93f1 10bd 8294 d9bb 1fbc 493d 27ba d53c
000000e0: 240e 2e3c 8219 293e 65f7 86bb 4caf 4e3d
000000f0: c4ef 5d3d 6c68 923c 9961 e63d 9e10 fd3c

encoder.8.weight f4 [64, 64, 3, 3]
0.02509547 -0.009016497 0.047046866 -0.0072186054 -0.03132191 0.026946764 -0.009223893 0.061866526
-0.008985968 0.008187958 0.030843012 0.009493992 -0.023104524 -0.016895676 -0.027574208 0.023683814
0.033522867 0.037638832 0.03796559 0.013220816 0.005114529 0.0054808366 0.057621535 -0.032683466
0.028013868 0.04798073 -0.01337301 -0.0074861 0.011859746 0.016346008 -0.09206208 0.0011497458
-0.013780687 -0.1262708 -0.034478504 -0.004464561 0.018526567 -0.0019244014 0.0052931467 -0.06573556
-0.03620406 -0.038117763 -0.033912048 0.014628282 0.04993254 -0.054387733 -0.052767105 0.04463932
0.040336523 -0.073350646 0.017815009 0.03935904 0.069206305 0.09256816 0.014897959 0.012231885
-0.0022787855 -0.0019439337 -0.030749613 0.025346946 0.027615368 -0.067236036 -0.039463103 0.035705816
0.030546533 0.009054262 -0.057780225 -0.0883782 -0.019097436 0.011338376 0.057015605 0.07561965
-0.023617445 0.014617973 0.02684249 0.009941367 -0.027625768 -0.062122338 -0.0734786 0.0004175675
0.012050597 0.008109586 -0.0027003873 -0.02862697 -0.017968208 -0.05846335 -0.02925469 0.0036296924
-0.013990688 -0.019635798 -0.022989808 0.00035471361 -0.024602033 0.04627557 -0.0029205375 -0.027317027
0.07565893 0.0615857 0.0069594486 0.0061676223 0.05586505 -0.002029442 0.0066440683 0.03633443
-0.07956315 0.011493828 0.0076822303 -0.07266829 -0.048373055 -0.047016215 -0.05036913 0.08109854
-0.063343056 -0.024173712 0.05582378 0.06338652 0.037150767 0.021166753 -0.035924993 0.04069295
0.015405915 0.016478341 0.018276135 0.008390936 -0.038520217 -0.027381923 0.04128033 0.024802333
0.042986084 -0.0057474743 -0.011568031 -0.004843743 0.018727565 0.0126096895 0.03060348 -0.008130621
-0.01105458 0.01771111 0.0070816856 -0.038239464 -0.030461263 0.0018288587 -0.04008325 -0.04314359
-0.029780945 0.031870544 0.038821217 0.023820003 -0.007821145 -0.04841218 -0.016397515 -0.06549192
-0.07446583 0.054531477 -0.003948432 0.06390801 -0.02476344 -0.020706143 0.031395 -0.008605652
0.08429045 -0.0028371122 0.015077359 -0.03421143 0.028280456 0.026493331 -0.024735387 0.019359138
0.052612558 -0.017368494 0.002585485 0.045970354 0.07087822 -0.015027305 0.0024834392 0.07187118
-0.031494483 0.22728047 0.19923615 0.035829198 -0.03643844 -0.070718266 -0.029943464 0.0059147542
-0.014749986 0.026866538 0.06659359 0.054044973 0.07070122 0.07373549 0.047187455 0.02487229
0.008016521 0.02867861 -0.055201914 0.04391888 -0.0014569792 -0.03283432 0.027826829 0.048301857
-0.0058122436 -0.064014174 0.015723659 0.0032082165 0.020468963 0.039530724 0.02997876 0.013592775
0.038942724 -0.03523456 -0.07494521 -0.09211135 -0.21384777 -0.00821948 -0.17410809 -0.19962114
0.029868513 0.04645584 0.051561955 -0.002675789 -0.025884286 0.03121663 -0.015191878 0.007774587
-0.03306803 0.029451817 0.009778707 0.024144437 -0.0025626956 -0.0009353208 -0.038359668 -0.016486876
-0.062419165 -0.07704774 0.058712717 -0.039965533 -0.029872477 0.03567315 -0.014796889 -0.012045716
0.06823931 0.048898418 0.02647437 -0.0061576106 -0.02647778 0.04696605 0.034864042 -0.0318362
0.039705906 0.032898862 0.019817049 0.048863593 0.015669381 0.018611383 0.017876813 -0.020691378
00000000: 0495 cd3c eeb9 13bc 37b4 403d 0d8a ecbb
00000010: 674b 00bd 76bf dc3c d01f 17bc c167 7d3d
00000020: e239 13bc c926 063c 7caa fc3c b08c 1b3c
00000030: b345 bdbc cd68 8abc 4ee3 e1bc 8f04 c23c
00000040: 464f 093d 2d2b 1a3d ce81 1b3d 1f9c 583c
00000050: c797 a73b 9798 b33b 8f04 6c3d 19df 05bd
00000060: 577d e53c 7187 443d 781a 5bbc f54d f5bb
00000070: 614f 423c 10e8 853c 0b8b bcbd 11b3 963a
00000080: 64c8 61bc 224d 01be 5539 0dbd 744b 92bb
00000090: 07c5 973c 323c fcba 2272 ad3b 5ea0 86bd
000000a0: b54a 14bd 5f21 1cbd 5ce7 0abd 76ab 6f3c
000000b0: 1086 4c3d acc5 5ebd 5222 58bd b8d7 363d
000000c0: e937 253d dd38 96bd c8f0 913c f236 213d
000000d0: 09bc 8d3d 6094 bd3d 9216 743c 3f68 483c
000000e0: ad57 15bb 97cb feba 9de6 fbbc 66a4 cf3c
000000f0: a039 e23c 0cb3 89bd 10a4 21bd 4340 123d
00000100: b93c fa3c 5458 143c f5aa 6cbd a1ff b4bd
00000110: 3a72 9cbc 99c4 393c 3289 693d 7ade 9a3d
00000120: 5f79 c1bc 3980 6f3c c8e4 db3c 1ee1 223c
00000130: 6f4f e2bc fe73 7ebd f37b 96bd f6ec da39
00000140: de6f 453c 12de 043c fbf8 30bb 1b83 eabc
00000150: 1032 93bc 4477 6fbd 88a7 efbc 22e0 6d3b
00000160: 3339 65bc 41db a0bc 1f55 bcbc dbf8 b939
00000170: 348a c9bc 748b 3d3d 7d66 3fbb f5c7 dfbc
00000180: 12f3 9a3d 4941 7c3d 160c e43b c419 ca3b
00000190: c0d2 643d 6300 05bb 7cb6 d93b 69d3 143d
000001a0: 01f2 a2bd 9c50 3c3c 38bb fb3b 1dd3 94bd
000001b0: d322 46bd 1394 40bd dc4f 4ebd fe16 a63d
000001c0: 01ba 81bd f307 c6bc 7aa7 643d cbd0 813d
000001d0: 672b 183d e665 ad3c 1626 13bd a7ad 263d
000001e0: 1769 7c3c 96fd 863c d5b7 953c 237a 093c
000001f0: 60c7 1dbd 0e50 e0bc 9015 293d 432e cb3c
00000200: 2d12 303d 4f55 bcbb d787 3dbc 43b8 9ebb
00000210: 8d6a 993c df98 4e3c 26b4 fa3c 4c36 05bc
00000220: 451e 35bc e416 913c 7c0d e83b fca0 1cbd
00000230: e689 f9bc 51b6 ef3a 552e 24bd 55b7 30bd
00000240: 2bf7 f3bc b08a 023d ff02 1f3d 2b22 c33c
00000250: 4224 00bc da4b 46bd 1554 86bc a120 86bd
00000260: 8b81 98bd 665c 5f3d d961 81bb 34e2 823d
00000270: b3dc cabc ee9f a9bc 0b98 003d b8fe 0cbc
00000280: 79a0 ac3d d8ee 39bb 0707 773c 4921 0cbd
00000290: 6aac e73c 8b08 d93c dea1 cabc 0e97 9e3c
000002a0: 4480 573d 5f48 8ebc 3e71 293b 694b 3c3d
000002b0: 9a28 913d 1635 76bc 32c1 223b 3231 933d
000002c0: 5c00 01bd 36bc 683e 9004 4c3e a3c1 123d
000002d0: 7940 15bd bdd4 90bd ff4b f5bc 8ed0 c13b
000002e0: eda9 71bc 3717 dc3c 3862 883d 435e 5d3d
000002f0: cdcb 903d a202 973d a247 413d f9c0 cb3c
00000300: ba57 033c 68ef ea3c 671b 62bd 49e4 333d
00000310: 1cf8 beba 487d 06bd 17f5 e33c 2bd8 453d
00000320: a274 bebb dd19 83bd e7ce 803c f140 523b
00000330: 87ae a73c f8ea 213d 0496 f53c 3bb4 5e3c
00000340: 6882 1f3d 1d52 10bd e07c 99bd e0a4 bcbd
00000350: e9fa 5abe ffaa 06bc 6449 32be 7c69 4cbe
00000360: d0ae f43c 7b48 3e3d a132 533d 4a5c 2fbb
00000370: 480b d4bc 05ba ff3c 5be7 78bc f6c1 fe3b
00000380: 5872 07bd f044 f13c df36 203c 8eca c53c
00000390: e6f2 27bb 5130 75ba 071f 1dbd 7c0f 87bc
000003a0: 3dab 7fbd 35cb 9dbd bf7c 703d e6b2 23bd
000003b0: 20b7 f4bc 021e 123d a76e 72bc 655b 45bc
000003c0: 0dc1 8b3d b549 483d c7e0 d83c c8c5 c9bb
000003d0: eee7 d8bc 795f 403d 99cd 0e3d ad66 02bd
000003e0: a9a2 223d f5c0 063d 5d57 a23c 3125 483d
000003f0: 135d 803c e676 983c 6572 923c f780 a9bc

encoder.8.bias f4 [64]
0.054552823 0.056158137 0.052053124 0.05710899 -0.005338564 0.04291722 0.043198273 0.0005894212
0.080922306 0.037458632 0.09613485 0.06469254 0.034972988 0.109801754 0.02247668 0.073463224
0.04108089 0.032080088 0.10055664 0.017779611 0.006914641 0.042774834 0.06881847 0.04497173
0.0141191995 0.095773675 -0.010405768 0.07733655 0.018104024 0.031358544 0.05213483 0.09313442
0.11217277 0.02705461 -0.008441973 0.03159625 0.06000664 0.088024415 0.08049719 0.0611724
0.029211424 0.032320842 0.1450272 0.06427336 -0.002281491 0.07611088 0.012967087 0.059470776
0.09770596 0.04531533 0.02825126 0.064579025 0.022878205 0.088432506 0.047432736 0.047665473
0.080431215 0.124787204 0.038325377 0.0611065 0.027173722 0.056230955 0.07251347 0.08388176
00000000: c872 5f3d 1306 663d a835 553d 1eeb 693d
00000010: 1fef aebb f8c9 2f3d acf0 303d 6383 1a3a
00000020: 98ba a53d 396e 193d 59e2 c43d 867d 843d
00000030: d63f 0f3d bedf e03d 0421 b83c e373 963d
00000040: 6f44 283d 6966 033d a4f0 cd3d 8ca6 913c
00000050: 3694 e23b aa34 2f3d b3f0 8c3d 4734 383d
00000060: 3754 673c fd24 c43d f47c 2abc a062 9e3d
00000070: e44e 943c d171 003d 558b 553d 42bd be3d
00000080: d6ba e53d a1a1 dd3c 3350 0abc 126b 013d
00000090: 86c9 753d 2546 b43d b6db a43d e98f 7a3d
000000a0: cc4c ef3c dc62 043d 0382 143e c0a1 833d
000000b0: 1185 15bb 05e0 9b3d e873 543c a197 733d
000000c0: 101a c83d 919c 393d 306f e73c 0242 843d
000000d0: 136b bb3c 1a1c b53d d448 423d df3c 433d
000000e0: 1fb9 a43d 6f90 ff3d 12fb 1c3d cf4a 7a3d
000000f0: 6d9b de3c 6e52 663d f181 943d 33ca ab3d

decoder.0.weight f4 [64, 64, 3, 3]
-0.0067405878 -0.039442193 0.001803747 -0.007182467 -0.04130034 0.0043738014 -0.007920056 0.005122231
0.021883557 0.014223248 0.041058663 0.009998436 0.016163632 0.04089993 0.0028510997 0.0076169055
0.0061528697 -0.0087698065 -0.010193997 -0.05883202 0.0070394226 -0.0020886324 -0.040398907 0.002311225
-0.004750815 0.0070634955 -0.0030402858 -0.003452212 -0.04837774 -0.0047225575 0.0041099056 -0.035343025
-0.0061530946 -0.0029830583 -0.0064229127 0.0060487967 0.027519822 0.07072923 0.009113658 0.0047619212
0.035067536 0.0027046097 0.013064118 0.010708268 -0.010025702 -0.0074292202 -0.04358526 -0.0021978545
-0.014561121 -0.05919164 -0.0011603935 -0.005621054 0.004895061 0.018798895 -0.0029586116 -0.026254995
-0.012499099 -0.0049747564 -0.03775678 -0.0059717633 -0.0049161115 0.006555171 0.015365029 0.023789477
0.027078513 0.014294216 -0.0013746865 -0.032233775 -0.007498584 -0.0064451364 -0.005547684 0.0044914284
-0.0079674125 -5.2767e-41 0.015433941 0.011630017 0.056748856 0.009830103 0.018234927 4.955e-41
-0.007105797 -0.014309091 -0.06274462 0.00068231305 -0.011191133 -0.029480536 0.022917653 -0.0003850676
0.0155454045 0.027101038 0.024950074 0.07161771 0.013393073 0.0055759205 0.040115885 -0.00012033444
0.013521147 0.009256603 -0.011991131 -0.03794843 -0.0059220535 0.03277893 0.0020674414 0.06018597
0.05613018 0.014083833 0.046466514 0.020819921 0.0014618536 -0.04306302 -0.011061006 0.018484138
-0.04796001 -0.018922264 -0.003549823 -0.00916846 0.021368628 0.008162783 -0.06763881 -0.027258143
0.03441369 0.0092408545 -0.0008845243 0.014288941 -0.00924707 0.016185075 -0.009971397 -0.04410288
-0.0049262214 0.008301522 -0.013830711 0.008414544 -0.00031090525 0.0013224834 0.015261595 -0.0016875408
-0.035826378 -0.007289383 -0.00022992946 -0.042867407 -0.004795415 -0.0036983169 -0.0050327047 0.012849318
0.0010875209 -0.042402472 -0.004485808 -0.004428945 -0.031951338 -0.009651182 -0.0034029505 -0.0126005085
0.014796389 0.016164765 0.04308228 0.007858944 0.0077062785 0.026389543 -0.0033163284 0.0005138747
-0.0020622935 -0.0015531741 0.017449154 0.035533722 -0.0011234564 0.025267554 0.041562147 0.0014120141
-0.003881742 0.0022366329 -0.010330574 0.01629201 0.049035203 0.0139993 0.01111012 0.050949033
0.006973822 0.009566575 0.0101269 -0.014019228 0.0046610553 -0.032934077 0.0021171372 -0.01050398
-0.05210625 -0.0048621055 -0.004623234 -0.003743758 0.016149677 0.026116963 0.06317074 0.010307793
0.0070440574 0.019212952 -0.008932649 0.0044349562 0.00047809616 -0.014547407 0.0025163847 0.021540357
0.0014929095 0.002993776 0.011951211 0.0017437285 0.0013945005 0.0052080206 -0.0013166335 0.012570867
-0.050534457 -0.022602836 0.01265173 -0.02744902 -0.008971767 -0.0048625013 -0.011479159 0.01899693
-0.027204169 -0.057083555 -0.0032929755 0.011137686 -0.0052252654 0.0131977955 -0.0030597094 0.016228952
0.019407256 -0.0049675433 -0.039889075 -0.000900229 -0.0018566604 -0.032994978 0.0052138413 -0.0050529502
-0.003987358 0.0155258095 -0.009169068 0.019029213 0.01969135 0.0078807175 0.040600054 0.025820402
0.009649835 0.0259152 0.007865895 0.013397994 -0.057303466 -0.0052955416 -0.0010413954 -0.043273907
-0.0035889354 -0.0031555917 -0.0026517282 -0.008522731 0.037781797 0.061899684 -0.024982654 0.027972985
00000000: 26e0 dcbb 238e 21bd b56b ec3a e65a ebbb
00000010: 8c2a 29bd 1b52 8f3b 1fc3 01bc 63d8 a73b
00000020: 2545 b33c a008 693c 212d 283d 7bd0 233c
00000030: 9869 843c af86 273d 84d9 3a3b 3c97 f93b
00000040: 039e c93b 3caf 0fbc b904 27bc d8f9 70bd
00000050: f5aa e63b 70e1 08bb 5379 25bd ec77 173b
00000060: baac 9bbb e574 e73b 883f 47bb 823e 62bb
00000070: bd27 46bd afbf 9abb 63ac 863b d9c3 10bd
00000080: e69f c9bb 6a7f 43bb 4c77 d2bb fc34 c63b
00000090: 4071 e13c 7dda 903d 7451 153c e409 9c3b
000000a0: faa2 0f3d d23f 313b e20a 563c bb71 2f3c
000000b0: d842 24bc d170 f3bb 7586 32bd e109 10bb
000000c0: c591 6ebc ef72 72bd 5818 98ba d230 b8bb
000000d0: bf66 a03b 2400 9a3c 44e5 41bb b714 d7bc
000000e0: 05c9 4cbc 4803 a3bb daa6 1abd c8ae c3bb
000000f0: 5517 a1bb c3cc d63b 9abd 7b3c 26e2 c23c
00000100: c2d3 dd3c 4a32 6a3c d32e b4ba 9007 04bd
00000110: afb6 f5bb b931 d3bb 59c9 b5bb d52c 933b
00000120: c089 02bc 1893 0080 a4de 7c3c d48b 3e3c
00000130: 7d71 683d 710e 213c 6a61 953c 208a 0000
00000140: bfd7 e8bb ad70 6abc 4080 80bd 41dd 323a
00000150: 045b 37bc 2a81 f1bc cdbd bb3c e6e2 c9b9
00000160: 27b2 7e3c ff02 de3c 1964 cc3c 4eac 923d
00000170: 9f6e 5b3c 36b6 b63b 8e50 243d 105c fcb8
00000180: cd87 5d3c 02a9 173c 7376 44bc d06f 1bbd
00000190: c90d c2bb 3343 063d e97d 073b 9085 763d
000001a0: c2e8 653d e1bf 663c ac53 3e3d 8a8e aa3c
000001b0: ab9b bf3a d962 30bd 3939 35bc 0c6c 973c
000001c0: b771 44bd dd02 9bbc 26a4 68bb 4f37 16bc
000001d0: 430d af3c 32bd 053c 3786 8abd 784c dfbc
000001e0: 5ff5 0c3d f466 173c 6cdf 67ba 2a1c 6a3c
000001f0: 0681 17bc 9096 843c 125f 23bc 39a5 34bd
00000200: 246c a1bb 1b03 083c 359a 62bc 28dd 093c
00000210: ff00 a3b9 2e57 ad3a c50b 7a3c 7930 ddba
00000220: aebe 12bd c7db eebb 3819 71b9 bc95 2fbd
00000230: db22 9dbb 765f 72bb 63e9 a4bb f285 523c
00000240: 258b 8e3a 37ae 2dbd affd 92bb af20 91bb
00000250: 68df 02bd fe1f 1ebc 0904 5fbb 5d72 4ebc
00000260: 8e6c 723c f86b 843c 0b77 303d cdc2 003c
00000270: f384 fc3b e22e d83c c256 59bb 8cb5 063a
00000280: 8b27 07bb e093 cbba 87f1 8e3c cf8b 113d
00000290: f140 93ba e7fd ce3c 123d 2a3d 5513 b93a
000002a0: d364 7ebb 7994 123b 9141 29bc d276 853c
000002b0: 23d9 483d 525d 653c 3907 363c efaf 503d
000002c0: a984 e43b 20bd 1c3c 4ceb 253c e7b0 65bc
000002d0: c4bb 983b e2e5 06bd abbf 0a3b e318 2cbc
000002e0: 5d6d 55bd 4c52 9fbb 7f7e 97bb d659 75bb
000002f0: 544c 843c 3ef3 d53c a95f 813d 04e2 283c
00000300: d6d1 e63b 7b64 9d3c 3f5a 12bc 1c53 913b
00000310: fba8 fa39 3f58 6ebc eee9 243b 6775 b03c
00000320: bbad c33a 3a33 443b 03cf 433c d28d e43a
00000330: acc7 b63a 0ba8 aa3b e492 acba 0af6 4d3c
00000340: 38fd 4ebd 9529 b9bc 3449 4f3c c4dc e0bc
00000350: 51fe 12bc 9e55 9fbb 1513 3cbc 739f 9b3c
00000360: 47db debc 72d0 69bd f6ce 57bb d77a 363c
00000370: b438 abbb 913b 583c 6885 48bb 94f2 843c
00000380: f7fb 9e3c c6c6 a2bb ba62 23bd 58fd 6bba
00000390: 2f5b f3ba be25 07bd dfd8 aa3b 3893 a5bb
000003a0: 62a8 82bb f75f 7e3c dc39 16bc 27e3 9b3c
000003b0: c14f a13c 201e 013c 3e4c 263d 4f85 d33c
000003c0: 571a 1e3c 1d4c d43c f4df 003c 4383 5b3c
000003d0: 0ab7 6abd 3986 adbb 6e7f 88ba fb3f 31bd
000003e0: 5834 6bbb 0bce 4ebb 9ec8 2dbb eda2 0bbc
000003f0: 16c1 1a3d 868a 7d3d 6ca8 ccbc 9a27 e53c

decoder.0.bias f4 [64]
0.033879545 0.05519144 -0.0006938755 0.05215099 0.05501756 0.037786484 0.058206536 0.14881599
-0.0047928127 0.06322939 0.004699258 0.13371323 0.011182913 0.01639521 0.022426726 0.05009167
0.0033603108 0.064039424 0.10638168 0.038879067 0.058912557 0.0084563615 0.0033460953 0.051021527
0.02843268 0.060677856 0.122033805 0.009528004 0.051612854 0.084151626 0.082148254 0.06050907
0.04042184 0.024263773 0.0058330973 0.07192068 0.07199047 -0.013081771 0.034502376 0.044230092
0.0407159 0.05021847 -0.0262028 0.028345319 0.043841425 0.00081340567 0.0056263353 0.017747937
0.05648991 0.056932263 -0.03477144 0.065738186 0.019008946 0.031991765 0.04946261 0.059469458
0.19146179 0.011923651 0.16936943 0.027735678 0.010625961 0.02835816 0.03176978 0.038108602
00000000: 47c5 0a3d 6b10 623d 32e5 35ba 479c 553d
00000010: 185a 613d 00c6 1a3d fa69 6e3d 3863 183e
00000020: 070d 9dbb 697e 813d 3cfc 993b 1fec 083e
00000030: 8938 373c 3f4f 863c 41b8 b73c ec2c 4d3d
00000040: a938 5c3b 1a27 833d a3de d93d a83f 1f3d
00000050: 4b4e 713d 8d8c 0a3c 2a4a 5b3b f3fb 503d
00000060: a7eb e83c 5889 783d dcec f93d 581b 1c3c
00000070: 0068 533d b057 ac3d 583d a83d 5cd8 773d
00000080: 5f91 253d d2c4 c63c 9123 bf3b 264b 933d
00000090: bd6f 933d ed54 56bc 5d52 0d3d 9d2a 353d
000000a0: b7c5 263d e2b1 4d3d 41a7 d6bc 7134 e83c
000000b0: 1193 333d bb3a 553a 1f5d b83b 1f64 913c
000000c0: f761 673d ce31 693d 7f6c 0ebd bea1 863d
000000d0: a6b8 9b3c cc09 033d 4e99 4a3d 3f96 733d
000000e0: 8f0e 443e 6b5b 433c 2e6f 2d3e ef35 e33c
000000f0: 8318 2e3c 5f4f e83c 0721 023d c417 1c3d

decoder.2.weight f4 [64, 32, 2, 2]
0.038736776 0.045049943 0.030231018 0.040603112 0.027142284 0.037017897 0.019153293 0.03150652
0.039218634 0.051472507 0.017000182 0.02994403 -0.0048189745 -0.0040735556 -0.005088597 -0.0042461604
-0.020295892 -0.026153097 -0.022606287 -0.03310365 0.034825332 0.04385295 0.025566177 0.036355224
0.03614881 0.04478424 0.02046886 0.042517547 0.04781813 0.061736513 0.03033457 0.056088004
0.0027993214 0.0032963115 -4.9128e-41 -4.9665e-41 -0.0346903 -0.04223831 -0.029074522 -0.042004578
0.0349873 0.043987256 0.021992156 0.035293613 0.055769406 0.06663441 0.031029642 0.05075167
-0.03475283 -0.047494132 -0.029357918 -0.043527093 0.04247979 0.049202275 0.036525358 0.051710043
-0.017609946 -0.027973048 -0.011788771 -0.025890509 0.033750314 0.043367904 0.019285345 0.031006394
0.045241848 0.059149202 0.040173333 0.041941427 0.07066054 0.10031204 0.06274109 0.09506644
-0.023088023 -0.02933222 -0.016447172 -0.022691516 -0.031345125 -0.044364803 -0.021687044 -0.03746113
0.033650193 0.0454926 0.021007106 0.03801283 0.019037452 0.025365023 0.012001776 0.025319139
0.05364502 0.063748464 0.04228414 0.05908497 0.043307945 0.0525813 0.03343608 0.047116596
-0.024727417 -0.036239464 -0.0101552205 -0.025330327 -0.034778174 -0.04546699 -0.022408402 -0.0403304
0.040199414 0.05202227 0.032330684 0.046335883 -0.03484069 -0.045548905 -0.027722802 -0.0459605
-0.02487878 -0.033392906 -0.017274242 -0.028502507 0.04306173 0.052978083 0.030882578 0.04366291
-0.029555185 -0.033992495 -0.02111886 -0.026329875 2.1183358e-05 -6.2555597e-07 4.959e-41 5.1828e-41
-0.029140852 -0.03229983 -0.014653002 -0.017944295 -0.01640156 -0.017645858 -0.010297995 -0.02217153
-0.0047712144 -0.007196755 -0.027420104 -0.029376362 0.007615027 0.0069812243 0.005334884 0.0038846026
0.060001284 0.059578456 0.023939159 0.027717968 -0.015574742 -0.018461062 -0.0108041065 -0.015309254
-0.032120995 -0.026234435 -0.024621582 -0.014601594 -0.022849413 -0.06640142 -0.02258459 -0.035109706
0.0008679109 0.00030508224 5.4567e-41 -4.9117e-41 0.07559133 0.07237899 0.059488486 0.06273755
-0.011477946 -0.020402541 -0.014414303 -0.02047945 0.00175127 -0.029525803 -0.037729196 -0.033657957
0.06355812 0.06636992 0.056838658 0.039234813 -0.048228636 -0.047846675 -0.019240053 -0.028670527
0.035306506 0.044140153 0.0207249 0.033598173 0.0007800231 -0.011790722 -0.008216208 -0.015710607
-0.020092856 -0.034497038 -0.021635821 -0.043021318 -0.030946992 -0.0042123566 -0.028254885 -0.046808064
0.028380867 0.02916514 0.03244786 0.035446383 0.06365967 0.038963895 0.026861824 0.043592647
-0.017538438 -0.01610631 -0.005052991 -0.020687308 -0.020064026 -0.02005369 -0.013967427 -0.010905948
-0.057037167 -0.03949388 -0.013197155 -0.029279402 -0.034393847 -0.033207472 -0.02175746 -0.015244277
0.030646097 0.02919606 0.04096612 0.04870176 0.07631637 0.06658906 0.041722465 0.05661118
-0.024548631 -0.02378446 -0.0015727582 -0.021701336 0.083749294 0.0860513 0.02644107 0.066432916
0.041873306 0.04348989 0.033558052 0.03694655 -0.0058477563 -0.018455768 -0.01105592 -0.018648708
0.032046266 0.03573259 0.042205807 0.04235482 -4.3636817e-05 -2.1163258e-05 -4.9292e-41 4.9113e-41
00000000: 74aa 1e3d 4a86 383d 0aa7 f73c 734f 263d
00000010: 7f59 de3c 14a0 173d 5ee7 9c3c fb0c 013d
00000020: b8a3 203d d6d4 523d f743 8b3c 2f4d f53c
00000030: 7de8 9dbb 767b 85bb 3fbe a6bb 6023 8bbb
00000040: 9243 a6bc 053f d6bc d230 b9bc b197 07bd
00000050: 02a5 0e3d 279f 333d 2970 d13c 37e9 143d
00000060: c610 143d ae6f 373d 50ae a73c e126 2e3d
00000070: f2dc 433d 6ddf 7c3d 3480 f83c 89bc 653d
00000080: d274 373b ee06 583b f388 0080 728a 0080
00000090: 6a17 0ebd 1402 2dbd b12d eebc fe0c 2cbd
000000a0: d84e 0f3d fb2b 343d e528 b43c 0990 103d
000000b0: 766e 643d 9f77 883d e031 fe3c fce0 4f3d
000000c0: fc58 0ebd 3589 42bd 0480 f0bc 7749 32bd
000000d0: 4aff 2d3d 5388 493d 9d9b 153d e9cd 533d
000000e0: bc42 90bc bc27 e5bc b025 41bc 5518 d4bc
000000f0: c53d 0a3d 8ba2 313d 4dfc 9d3c 1f01 fe3c
00000100: 844f 393d 6f46 723d cb8c 243d c6ca 2b3d
00000110: 79b6 903d 6670 cd3d 677e 803d 32b2 c23d
00000120: 1823 bdbc 204a f0bc 38bc 86bc 8fe3 b9bc
00000130: bf63 00bd deb7 35bd 07a9 b1bc d870 19bd
00000140: c9d4 093d 7356 3a3d 1817 ac3c 57b3 1b3d
00000150: 6ef4 9b3c 4fca cf3c 19a3 443c 156a cf3c
00000160: e1ba 5b3d 8e8e 823d 2232 2d3d 1503 723d
00000170: ac63 313d 7d5f 573d 45f4 083d 55fd 403d
00000180: 2791 cabc d56f 14bd 1562 26bc 8c81 cfbc
00000190: 8f73 0ebd 983b 3abd d391 b7bc 7d31 25bd
000001a0: 24a8 243d 4e15 553d 2e6d 043d b2ca 3d3d
000001b0: 1db5 0ebd 7d91 3abd ee1a e3bc 1441 3cbd
000001c0: 95ce cbbc 00c7 08bd b682 8dbc 177e e9bc
000001d0: 7f61 303d 8cff 583d 76fd fc3c e1d7 323d
000001e0: b71d f2bc b73b 0bbd 7601 adbc c0b1 d7bc
000001f0: eab2 b137 e1eb 27b5 3d8a 0000 7a90 0000
00000200: ccb8 eebc d44c 04bd 2513 70bc eaff 92bc
00000210: 905c 86bc 0c8e 90bc ecb8 28bc 12a1 b5bc
00000220: d957 9cbb c2d2 ebbb 20a0 e0bc b2a6 f0bc
00000230: 7a87 f93b c1c2 e43b 40d0 ae3b d194 7e3b
00000240: e8c3 753d 8a08 743d 0e1c c43c cb10 e33c
00000250: 342d 7fbc a73b 97bc b503 31bc aad3 7abc
00000260: 4e91 03bd 99e9 d6bc 33b3 c9bc 863b 6fbc
00000270: b12e bbbc 78fd 87bd 5103 b9bc 32cf 0fbd
00000280: 8484 633a 72f3 9f39 1c98 0000 eb88 0080
00000290: a1cf 9a3d 703b 943d 33aa 733d 8b7c 803d
000002a0: ff0d 3cbc 3b23 a7bc f829 6cbc 85c4 a7bc
000002b0: df8a e53a 19e0 f1bc ee89 1abd eddc 09bd
000002c0: c22a 823d f4ec 873d a7cf 683d afb4 203d
000002d0: 648b 45bd e0fa 43bd 519d 9dbc 74de eabc
000002e0: 8e9d 103d 4ecc 343d 44c7 a93c 3d9e 093d
000002f0: 777a 4c3a df2d 41bc 469d 06bc 88b3 80bc
00000300: c699 a4bc c44c 0dbd 9b3d b1bc 1f37 30bd
00000310: 8c84 fdbc cf07 8abb ca76 e7bc d0b9 3fbd
00000320: fe7e e83c bbeb ee3c 0ce8 043d 3a30 113d
00000330: 0060 823d 9b98 1f3d 540d dc3c 348e 323d
00000340: c5ac 8fbc 61f1 83bc 9093 a5bb 6e78 a9bc
00000350: 505d a4bc a347 a4bc a3d7 64bc dcae 32bc
00000360: ce9f 69bd 56c4 21bd e138 58bc 5bdb efbc
00000370: 90e0 0cbd 8f04 08bd b33c b2bc 22c3 79bc
00000380: 860d fb3c 932c ef3c 17cc 273d 7f7b 473d
00000390: c24b 9c3d d85f 883d 2de5 2a3d 20e1 673d
000003a0: 361a c9bc a1d7 c2bc 0225 ceba 00c7 b1bc
000003b0: c084 ab3d aa3b b03d f19a d83c fb0d 883d
000003c0: 5883 2b3d 7422 323d 2b74 093d 4455 173d
000003d0: 899e bfbb 8d30 97bc e423 35bc 2dc5 98bc
000003e0: f242 033d 565c 123d ffdf 2c3d 3f7c 2d3d
000003f0: ad06 37b8 c087 b1b7 6889 0080 e888 0000

decoder.2.bias f4 [32]
0.051206052 0.0498423 0.081226915 0.048611782 0.082556635 0.058624107 0.06907597 0.103270754
-0.009066419 0.09920955 0.07226351 0.08991328 0.09802975 0.08247738 0.062337905 0.030237177
0.074578345 0.10025902 0.05670538 0.12215787 0.03952154 0.05253294 0.07558038 0.08819982
0.06873295 0.0699571 0.060448956 0.10663429 0.06802518 0.042829737 0.08674266 -0.00019472705
00000000: 70bd 513d 7127 4c3d 4c5a a63d 261d 473d
00000010: 7413 a93d d51f 703d b477 8d3d 9e7f d33d
00000020: 518b 14bc 602e cb3d e4fe 933d 7424 b83d
00000030: d2c3 c83d e7e9 a83d 0856 7f3d f5b3 f73c
00000040: 88bc 983d 9a54 cd3d e743 683d e82d fa3d
00000050: 57e1 213d c82c 573d e3c9 9a3d 1ba2 b43d
00000060: dcc3 8c3d ab45 8f3d 5399 773d 1463 da3d
00000070: c950 8b3d 3c6e 2f3d 23a6 b13d a52f 4cb9

decoder.4.weight f4 [32, 1, 2, 2]
-0.27149323 -0.3733783 -0.23030712 -0.40972233 -0.24455675 -0.27353123 -0.3690634 -0.1697397
-0.16110344 -0.00097430253 -0.57726794 -0.56044424 -0.0037115545 0.07675467 -0.05214862 0.106524944
0.50014853 0.35600108 0.014629198 0.12801571 -0.17864902 -0.3665193 -0.37690666 -0.29466122
-0.37153763 -0.36004725 -0.24498433 -0.33758852 -0.5640221 -0.31182462 -0.5938176 -0.35145587
-0.03830465 -0.039608955 0.005051358 0.005043988 0.47346884 0.30037415 0.12512109 0.5027066
-0.3205226 -0.19939561 -0.36327463 -0.37765712 -0.27293462 -0.47210118 -0.5294601 -0.5663279
0.28920412 0.54744214 0.42696565 0.36665234 -0.48014712 -0.53608644 -0.22101818 -0.21144201
0.41817138 0.18166909 0.33182615 0.12515365 -0.1878345 -0.15318158 -0.38820907 -0.4236557
-0.4812042 -0.5123482 -0.31409666 -0.38226706 -0.72687626 -0.6971142 -0.5539153 -0.6666776
0.03595077 0.30452722 0.24772112 0.36097598 0.32090294 0.40022922 0.5541498 0.19902854
-0.42941248 -0.16342345 -0.40285027 -0.2982605 -0.2737349 -0.23932327 -0.17640029 -0.06433356
-0.46151155 -0.5279126 -0.39409575 -0.46470922 -0.29209378 -0.4613751 -0.3625079 -0.3985758
0.34855023 0.002445726 0.46702564 0.39759022 0.3502569 0.40883082 0.27887213 0.5158783
-0.36003935 -0.43869647 -0.40692466 -0.2750124 0.6303261 0.4649059 0.47771427 0.19320688
0.22216891 0.32778278 0.36442477 0.26307037 -0.31158718 -0.30962875 -0.34617302 -0.4941392
0.020504277 0.3152954 0.19831912 0.47901598 -0.0019767268 -0.0020132393 0.0022772532 0.002307102
00000000: 2901 8bbe 712b bfbe a1d5 6bbe 20c7 d1be
00000010: 166d 7abe 490c 8cbe e1f5 bcbe 3ed0 2dbe
00000020: 4df8 24be 5668 7fba d5c7 13bf 4679 0fbf
00000030: 8d3d 73bb 8d31 9d3d cb99 55bd c029 da3d
00000040: bc09 003f c645 b63e 4eaf 6f3c 8d16 033e
00000050: c5ef 36be 6ba8 bbbe e9f9 c0be d6dd 96be
00000060: 2e3a bebe 1d58 b8be 2cdd 7abe 67d8 acbe
00000070: c163 10bf 7aa7 9fbe 6e04 18bf 06f2 b3be
00000080: 56e5 1cbd 003d 22bd dd85 a53b 0a48 a53b
00000090: 826a f23e a4ca 993e be1f 003e 61b1 003f
000000a0: 8a1b a4be 5d2e 4cbe 22ff b9be 465c c1be
000000b0: 16be 8bbe 3fb7 f1be b28a 07bf defa 10bf
000000c0: 9012 943e 2b25 0c3f 3e9b da3e dbb9 bb3e
000000d0: d8d5 f5be f63c 09bf 9752 62be 4184 58be
000000e0: 8f1a d63e 7607 3a3e 1ee5 a93e 4728 003e
000000f0: b057 40be a2db 1cbe 57c3 c6be 66e9 d8be
00000100: 6660 f6be 4029 03bf 47d1 a0be 82b8 c3be
00000110: 9014 3abf 1476 32bf 65cd 0dbf 62ab 2abf
00000120: 1d41 133d feea 9b3e 9baa 7d3e d8d1 b83e
00000130: 644d a43e d8ea cc3e c3dc 0d3f 23ce 4b3e
00000140: f4db dbbe 7a58 27be 6442 cebe 9ab5 98be
00000150: fb26 8cbe 2911 75be 47a2 34be 50c1 83bd
00000160: 3e4b ecbe 4825 07bf ebc6 c9be 5eee edbe
00000170: 518d 95be 5b39 ecbe a39a b9be 2112 ccbe
00000180: 2d75 b23e 7948 203b fc1d ef3e f290 cb3e
00000190: df54 b33e 4652 d13e 54c8 8e3e 9a10 043f
000001a0: 1457 b8be d39c e0be 6e58 d0be 6dce 8cbe
000001b0: 0d5d 213f 2508 ee3e f796 f43e 06d8 453e
000001c0: 3f80 633e 25d3 a73e e295 ba3e 29b1 863e
000001d0: 5b88 9fbe a987 9ebe 973d b1be d0ff fcbe
000001e0: 96f8 a73c 666e a13e 2b14 4b3e 9541 f53e
000001f0: f98b 01bb 8df0 03bb f83d 153b c032 173b

linear.weight f4 [2, 8]
0.36601105 0.43782073 -0.49449113 -0.40320095 0.025752261 -0.48418286 0.22904055 -0.13230112
-0.55704457 -0.26371592 0.30326673 0.23190603 -0.44745395 0.52650803 0.029196937 0.5304791
00000000: cd65 bb3e 0a2a e03e f12d fdbe 5b70 cebe
00000010: 68f6 d23c d1e6 f7be 9b89 6a3e f279 07be
00000020: 799a 0ebf c605 87be c745 9b3e c678 6d3e
00000030: af18 e5be 3bc9 063f 6a2e ef3c 7acd 073f

linear.bias f4 [2]
-0.14752883 -0.19303384
00000000: cc11 17be aaaa 45be
