models/oct_mnist.pt (torch, 446946 bytes, 14 tensors)

prototypes f4 [16, 576]
0.0024156878 0.0016165104 -0.0006587099 0.0024221067 0.046801794 0.04351722 0.003017918 0.027878204
0.02066705 -0.00017440315 -0.00074132194 0.0026544267 0.14084868 0.05542801 0.11445987 0.057053983
0.030507565 0.06555829 0.06545848 0.05611384 0.059271947 0.02051427 0.025346119 0.01692755
0.03658026 0.032309532 0.035009038 0.0043422515 0.002507869 0.003604281 0.019679116 0.058545
0.030027192 -0.00032668447 -0.0066648093 -0.0032082642 0.00055859255 0.02390842 0.0094187 0.05415941
0.2741792 0.17817809 0.016243974 0.09731318 0.15550905 -0.0071368115 0.0031912045 0.0014186328
-0.03997288 -0.02001347 0.0013845426 -0.020659816 -0.021545334 -0.0057806903 -0.0040730154 -0.0129690645
0.0024544885 -0.036279213 -0.022165857 0.012496435 -0.023329431 0.00047488324 0.012769065 0.009662234
0.004152609 0.013684829 0.0065675797 0.010671117 0.009401834 0.038573187 0.03496385 0.03977639
0.0033967688 0.00244888 0.08663813 0.015759718 0.014318566 0.21952783 -0.008753249 0.015690738
0.22965036 0.00013655967 -0.0006051236 0.023849973 0.0008772051 0.01269957 0.1601332 -0.0026757803
0.006787267 0.11962755 0.0028894674 0.0009114922 0.0015104449 0.0036489882 0.07287881 0.0612295
0.00059035444 0.030455971 0.015744034 0.0015538716 0.0010639874 0.0040456406 0.100677915 0.087810345
0.2521643 0.047524903 0.045458816 0.1555643 0.003577421 0.0018937705 0.002464869 0.0011331363
0.073123194 0.03995608 -0.0038257947 -0.013631034 -0.0036045522 -0.00043623312 0.0014695764 0.002476618
0.0070908954 0.00931701 0.00072418875 -0.005501659 -0.011488885 -0.006490988 -0.0006550313 0.0064395694
0.1535277 0.007950224 0.009806218 0.19401853 0.0011983153 0.010337445 0.15542157 0.0006719186
-2.50679e-05 0.003144454 0.009694898 0.03334354 0.18209536 0.0011593325 0.020046437 0.13825913
0.031031098 0.002475711 6.201409e-06 0.24974921 0.015347664 0.0041686078 0.1740666 0.011673791
-0.001976836 0.005852862 -0.00027797124 0.0011068734 0.0075156335 0.036270164 0.04043856 -0.00082112715
-0.01982743 -0.005207488 -0.000251759 -0.0023888475 0.001449273 -3.6076784e-05 0.004498672 0.022370536
0.004494553 0.02194698 -0.00020195564 0.002447985 0.0011522649 0.0062636896 -0.0011089747 0.015800966
0.12723796 -0.018441364 -0.0033319658 0.11175457 0.0031926676 0.009454846 0.016233463 0.004111274
-0.023584723 -0.0062105693 0.0069424836 0.010274181 0.0033095898 0.00081439846 0.0024605617 0.0027181087
0.009225855 -0.039407838 -0.013780043 0.0077026705 0.004224551 -0.0032132901 -0.00020792645 9.309978e-05
0.0060033966 0.0055700648 0.009299017 0.19737251 -0.0034953114 0.010782611 0.17858897 0.03943061
0.03242839 0.02516553 0.055407345 0.03268182 0.035862178 0.10574018 0.08000749 0.07476933
0.014041319 0.030669512 0.055118594 0.027705118 0.036905006 0.052491374 0.008522708 0.00848751
0.00057639607 -0.00074259756 0.002074347 0.0043852567 0.006818525 -0.022749223 -0.014755699 0.0034862552
-0.0056060296 -0.0090793865 0.0029200537 0.009878274 -0.0056946506 0.002263277 0.0068669044 0.0011174588
-0.0005065459 -0.009840286 -0.0035676465 0.0048333127 -0.0015231699 -0.00079176656 -0.0007679685 0.025025243
0.015457994 -0.009156736 -0.00030102156 0.0069818944 0.07487627 0.048532728 0.057030458 0.020414831
00000000: 8450 1e3b 17e1 d33a 46ad 2cba 35bc 1e3b
00000010: 3db3 3f3d 1d3f 323d 43c8 453b d560 e43c
00000020: f24d a93c fddf 36b9 4655 42ba e4f5 2d3b
00000030: a33a 103e 7b08 633d f069 ea3d 70b1 693d
00000040: 00eb f93c 6d43 863d 180f 863d a0d7 653d
00000050: 24c7 723d 8b0d a83c aaa2 cf3c a5ab 8a3c
00000060: 2fd5 153d 0057 043d a365 0f3d 7249 8e3b
00000070: 0f5b 243b cd35 6c3b 1936 a13c e2cc 6f3d
00000080: 96fb f53c d946 abb9 7964 dabb be41 52bb
00000090: 836e 123a 97db c33c e450 1a3c 42d6 5d3d
000000a0: 3761 8c3e 5174 363e 1512 853c 224c c73d
000000b0: c43d 1f3e eadb e9bb 8723 513b 6bf1 b93a
000000c0: 9aba 23bd 4af3 a3bc 8a79 b53a c63e a9bc
000000d0: d77f b0bc f26b bdbb ee76 85bb 337c 54bc
000000e0: 7cdb 203b 8399 14bd 2c95 b5bc d9bd 4c3c
000000f0: 5d1d bfbc c0f9 f839 5735 513c 594e 1e3c
00000100: 9c12 883b 5536 603c da34 d73b e9d5 2e3c
00000110: 260a 1a3c ebfe 1d3d 4136 0f3d 91ec 223d
00000120: 539c 5e3b 647d 203b 556f b13d 861a 813c
00000130: 6b98 6a3c e7cb 603e ca69 0fbc dd89 803c
00000140: 7729 6b3e 7531 0f39 28a1 1eba 0561 c33c
00000150: 3df4 653a db11 503c f5f9 233e 255c 2fbb
00000160: b967 de3b 4aff f43d 385d 3d3b 35f1 6e3a
00000170: 1ffa c53a dd23 6f3b 7c41 953d c9cb 7a3d
00000180: 04c2 1a3a cd7e f93c a2f9 803c 47ab cb3a
00000190: 7e75 8b3a 4b91 843b 3930 ce3d e9d5 b33d
000001a0: ae1b 813e 79a9 423d 0633 3a3d 3f4c 1f3e
000001b0: 2a73 6a3b 6538 f83a a489 213b bf85 943a
000001c0: 9dc1 953d fda8 233d 2fba 7abb b354 5fbc
000001d0: 5a3a 6cbb 38b6 e4b9 cd9e c03a c14e 223b
000001e0: be5a e83b 5fa6 183c 7cd7 3d3a 4347 b4bb
000001f0: e03b 3cbc 5bb2 d4bb 68b6 2bba 0603 d33b
00000200: 5e36 1d3e a841 023c 42aa 203c cbac 463e
00000210: ca10 9d3a 635e 293c d526 1f3e b223 303a
00000220: e848 d2b7 2f13 4e3b 59d7 1e3c 3c93 083d
00000230: 3577 3a3e bef4 973a 6d38 a43c cd93 0d3e
00000240: ee34 fe3c 8a3f 223b b315 d036 42be 7f3e
00000250: c574 7b3c d198 883b 843e 323e 6e43 3f3c
00000260: ce8d 01bb 5dc9 bf3b abbc 91b9 8214 913a
00000270: b445 f63b 0690 143d e7a2 253d e940 57ba
00000280: 226d a2bc 93a3 aabb 85fe 83b9 368e 1cbb
00000290: 88f5 bd3a 2751 17b8 9969 933b 6a42 b73c
000002a0: 0b47 933b 27ca b33c 0ec4 53b9 606e 203b
000002b0: 9807 973a a33f cd3b 045b 91ba 0771 813c
000002c0: ab4a 023e 5812 97bc 1c5d 5abb 94df e43d
000002d0: 133c 513b 80e8 1a3c 0afc 843c deb7 863b
000002e0: c034 c1bc 0882 cbbb c67d e33b 0a55 283c
000002f0: b4e5 583b 5b7d 553a 6041 213b 4c22 323b
00000300: 0a28 173c 1d6a 21bd b1c5 61bc af66 fc3b
00000310: 1a6e 8a3b 1096 52bb d506 5ab9 903e c338
00000320: 24b8 c43b 1785 b63b e75a 183c 051c 4a3e
00000330: 9811 65bb 8ca9 303c 07e0 363e fe81 213d
00000340: a2d3 043d f127 ce3c d0f2 623d 5fdd 053d
00000350: 38e4 123d 4f8e d83d f8da a33d aa20 993d
00000360: 8f0d 663c a13e fb3c 09c4 613d d8f5 e23c
00000370: b429 173d 3201 573d d4a2 0b3c 320f 0b3c
00000380: 4919 173a e1aa 42ba c5f1 073b 33b2 8f3b
00000390: ef6d df3b 945c babc e3c1 71bc a879 643b
000003a0: c9b2 b7bb b5c1 14bc 5f5e 3f3b 7cd8 213c
000003b0: 319a babb 7d53 143b c503 e13b b277 923a
000003c0: b8c9 04ba 2739 21bc 2dcf 69bb c460 9e3b
000003d0: 1aa5 c7ba 8e8e 4fba 7e51 49ba bd01 cd3c
000003e0: 8743 7d3c 2206 16bc 6ed2 9db9 60c8 e43b
000003f0: bb58 993d 41ca 463d c598 693d 013d a73c

encoder.0.weight f4 [32, 1, 3, 3]
0.2059008 -0.19471887 0.2162643 -0.49755132 -0.46612436 0.6945673 -0.08775194 -0.5030751
0.70715016 -0.20845191 -0.5890714 -0.49726495 0.34734598 0.04555286 0.16768552 -0.21588945
0.0031983855 0.19483607 0.24137786 -0.029383583 -0.116846986 -0.19987871 -0.014114153 0.56063914
-0.4944041 -0.21316327 0.48900086 0.20536005 -0.31641287 -0.1257646 -0.22034803 -0.101971634
-0.11929123 0.31150454 0.42529097 0.15349568 0.054779693 -0.2471856 -0.24410164 0.5043925
0.20456268 -0.31158984 0.43559974 0.2634834 -0.4117479 0.3084611 0.14417979 0.3213838
-0.024232607 -0.18347375 0.11823201 0.17450929 0.12254687 0.024274101 -0.063476816 0.12548333
0.5435183 -0.04079555 -0.014605124 0.39455417 -0.13399339 0.21010882 0.04008768 -0.34547046
0.0142518105 0.15588892 -0.14801428 -0.2352387 -0.6275887 0.22342609 0.3549223 0.015251886
0.2691516 0.24918854 0.38287732 -0.0065869214 0.37035608 0.015915249 -0.46557212 -0.30245644
-0.42662796 0.280392 0.16121538 0.0220754 0.13308209 -0.027900817 -0.17086248 -0.0043930314
-0.1746544 -0.30614886 -8.4360096e-07 -1.0515852e-06 -1.2065435e-06 -6.734094e-07 -8.659591e-07 -9.437004e-07
-1.17002834e-07 -8.792721e-08 -1.2788084e-07 -0.4946276 -0.14670144 -0.6544739 0.19334668 0.25796357
0.189248 0.29493925 -0.017582342 0.18125452 -9.8292654e-27 -1.045372e-26 -1.05507866e-26 -7.14835e-27
-6.595885e-27 -6.723046e-27 -1.8365256e-27 -1.8986428e-27 -1.8944416e-27 -0.2308391 -0.06421311 0.2967095
-0.24847227 -0.04487576 0.30180874 -0.17554735 -0.003596367 0.21776439 0.0727797 -0.36671
-0.28324002 0.042079378 -0.49884674 0.03584009 0.36769778 0.17871737 0.11422749 -9.228138e-06
-1.04401915e-05 -1.0198347e-05 -1.6721722e-05 -1.8409555e-05 -1.9316643e-05 -8.080057e-06 -8.900803e-06 -8.623363e-06
-0.17740893 -0.39933082 0.45520857 0.48243454 0.37854323 0.09251968 0.53910214 -0.28986344
-0.7289169 0.0750804 0.36568832 0.12586677 -0.047551017 -0.4472301 0.30236503 0.15025908
-0.5041316 0.18295783 -0.053499807 0.36846012 0.3763572 -0.5481316 -0.35211465 -0.28486076
-0.04030831 -0.029565008 0.58688635 -0.21187478 -0.5840312 -0.4961502 0.3248007 0.07289582
-0.1699274 0.15811633 0.06944788 0.3662616 0.14426687 -0.31387576 -0.044425193 0.53234315
0.34347934 -0.49208027 -0.024190271 0.26920867 0.38752213 -0.2547632 -0.37348032 -0.414329
0.084376834 -0.33286852 0.3028933 0.21056464 0.4485795 0.037059955 -0.2053857 0.13683096
-0.44324723 0.228546 0.5474547 -0.030451959 -0.48178172 -0.16846064 0.355027 -0.36179122
0.36085448 0.00015200026 -0.2863758 0.48860866 -0.09313446 -0.16148633 0.49319842 -0.26321682
-0.07913296 -0.17751409 -0.1654243 0.13093594 0.3608665 0.24002774 -0.107383795 -0.17941946
-0.30530474 -0.12926483 -0.46494326 0.0907638 -0.5409225 -0.48538002 0.5120007 0.3584496
0.039518725 0.17065062 0.21466479 0.31348345 0.100044034 -0.097010575 -0.1875277 -0.3865074
-0.02391067 -0.30256253 -0.31229344 -0.53972816 0.05913474 0.37530428 -0.35205737 -0.083775975
0.51055294 -0.119272485 0.13462882 0.020095859 -0.18831736 -0.5375276 -0.03874321 -0.31094462
00000000: a9d7 523e 6264 47be 6374 5d3e 0cbf febe
00000010: daa7 eebe 2acf 313f 4ab7 b3bd 88c9 00bf
00000020: cb07 353f 6b74 55be 62cd 16bf 8399 febe
00000030: 55d7 b13e a395 3a3d c1b5 2b3e 2012 5dbe
00000040: 019c 513b 1b83 473e c22b 773e d7b5 f0bc
00000050: 794d efbd 01ad 4cbe 0c3f 67bc 0c86 0f3f
00000060: 8922 fdbe 7947 5abe 525e fa3e e849 523e
00000070: de00 a2be 6fc8 00be eaa2 61be 81d6 d0bd
00000080: f64e f4bd 867d 9f3e bdbf d93e f92d 1d3e
00000090: ac60 603d 391e 7dbe c8f5 79be de1f 013f
000000a0: e178 513e b488 9fbe ee06 df3e 4ce7 863e
000000b0: 9fd0 d2be 9dee 9d3e dea3 133e 6b8c a43e
000000c0: 7683 c6bc 8be0 3bbe a023 f23d 90b2 323e
000000d0: daf9 fa3d 7bda c63c 2200 82bd b47e 003e
000000e0: 0424 0b3f 3c19 27bd 544a 6fbc 0103 ca3e
000000f0: 9035 09be c426 573e fb32 243d 81e1 b0be
00000100: 6d80 693c 58a1 1f3e 0e91 17be 6ae2 70be
00000110: a7a9 20bf cfc9 643e 60b8 b53e 0ce3 793c
00000120: 3dce 893e 482b 7f3e 7f08 c43e 1ad7 d7bb
00000130: 509f bd3e b260 823c 785f eebe 92db 9abe
00000140: fb6e dabe 8a8f 8f3e a515 253e 78d7 b43c
00000150: ac46 083e 4190 e4bc 93f6 2ebe 6bf3 8fbb
00000160: 9ad8 32be 8bbf 9cbe d173 62b5 3124 8db5
00000170: 85f0 a1b5 57c4 34b5 4274 68b5 9952 7db5
00000180: fd42 fbb3 7fd2 bcb3 9e4f 09b4 d43f fdbe
00000190: e738 16be 9a8b 27bf acfc 453e cd13 843e
000001a0: 3aca 413e 4702 973e d808 90bc c99a 393e
000001b0: 4cb0 4294 a80e 4f94 d8fa 5094 7196 0d94
000001c0: 1ca5 0294 e529 0594 2a81 1193 0d6d 1693
000001d0: d717 1693 1661 6cbe 2a82 83bd 4fea 973e
000001e0: 846f 7ebe a5cf 37bd ad86 9a3e afc2 33be
000001f0: 07b1 6bbb a1fd 5e3e 860d 953d 6ac1 bbbe
00000200: d604 91be 6d5b 2c3d d768 ffbe 0fcd 123d
00000210: e242 bc3e b001 373e 1af0 e93d 8dd2 1ab7
00000220: 4828 2fb7 9119 2bb7 a045 8cb7 386e 9ab7
00000230: 2d0a a2b7 958f 07b7 a854 15b7 10ad 10b7
00000240: b0aa 35be 1775 ccbe 1911 e93e a901 f73e
00000250: 6bd0 c13e f57a bd3d 9902 0a3f fb68 94be
00000260: 4c9a 3abf c1c3 993d 803b bb3e 38e3 003e
00000270: dbc4 42bd 58fb e4be 97cf 9a3e 84dd 193e
00000280: c50e 01bf 4c59 3b3e 9d22 5bbd cea6 bc3e
00000290: e4b1 c03e 5a52 0cbf 5f48 b4be 45d9 91be
000002a0: 541a 25bd 5132 f2bc 2f3e 163f b4f5 58be
000002b0: 1283 15bf 6607 febe 474c a63e 674a 953d
000002c0: 7301 2ebe 3fe9 213e b13a 8e3d a486 bb3e
000002d0: b2ba 133e 53b4 a0be 31f7 35bd a447 083f
000002e0: 86dc af3e f2f1 fbbe ad2a c6bc b8d5 893e
000002f0: 4d69 c63e 5270 82be d038 bfbe ee22 d4be
00000300: c3cd ac3d be6d aabe d514 9b3e 429e 573e
00000310: 36ac e53e 2ecc 173d a150 52be 6a1d 0c3e
00000320: 4df1 e2be f607 6a3e fe25 0c3f 6376 f9bc
00000330: 18ac f6be f280 2cbe 19c6 b53e b33c b9be
00000340: ebc1 b83e 4262 1f39 d99f 92be ea2a fa3e
00000350: 48bd bebd ac5c 25be 8184 fc3e 5bc4 86be
00000360: 7610 a2bd 41c6 35be fd64 29be 1214 063e
00000370: 7ec3 b83e d5c9 753e 09ec dbbd bcb9 37be
00000380: e750 9cbe 005e 04be 0b0d eebe 5fe2 b93d
00000390: e679 0abf bb83 f8be 7a12 033f b586 b73e
000003a0: 63de 213d 09bf 2e3e 16d1 5b3e e780 a03e
000003b0: e3e3 cc3d 7bad c6bd 4307 40be 4ce4 c5be
000003c0: 4fe0 c3bc 7ae9 9abe ede4 9fbe a02b 0abf
000003d0: 4537 723d e227 c03e dd40 b4be bd92 abbd
000003e0: 99b3 023f 2245 f4bd 23dc 093e 12a0 a43c
000003f0: 44d6 40be 699b 09bf 33b1 1ebd 2234 9fbe

encoder.0.bias f4 [32]
0.011471363 0.16581169 -0.06394294 -0.023307033 -0.004279988 -0.407213 -0.26699093 0.09231691
-0.19871505 0.0109128645 -0.00035903617 -0.1214595 -2.0037987e-26 0.012905978 0.09486502 -0.00063530065
-0.11065291 -0.035032276 -0.05926771 0.035919417 -0.31986177 -0.058711 -0.021063432 -0.02118729
0.037870765 0.06225246 0.12988234 0.016634634 0.48439726 0.032193217 0.0019595304 0.027536731
00000000: 62f2 3b3c 8aca 293e 84f4 82bd 64ee bebc
00000010: 243f 8cbb 397e d0be 09b3 88be a610 bd3d
00000020: f57b 4bbe dfcb 323c 053d bcb9 c2bf f8bd
00000030: 5572 c694 9873 533c 9748 c23d 4e8a 26ba
00000040: fe9d e2bd 017e 0fbd b3c2 72bd 3d20 133d
00000050: ecc4 a3be f27a 70bd 388d acbc f890 adbc
00000060: 601e 1b3d 6ffc 7e3d e0ff 043e 5b45 883c
00000070: eb02 f83e 09dd 033d 776b 003b b694 e13c

encoder.4.weight f4 [64, 32, 3, 3]
-0.04942294 -0.05108193 0.051434033 0.043666646 -0.14901854 0.04344547 0.047532186 -0.009090645
0.15448593 -0.052189022 -0.27209663 0.0022229357 -0.054480113 0.0072486964 0.21089554 -0.020527849
-0.12417179 0.0034025998 -0.004639157 -0.111560196 0.049922846 -0.05230705 -0.085955195 0.16576171
-0.041215 0.08073778 0.10042518 0.09108825 -0.042536523 0.0143671585 0.006317731 0.03206723
-0.10274075 -0.078375615 0.006814411 0.02000835 0.05301379 0.07454118 -0.14060253 -0.08682851
-0.007759043 -0.0785616 -0.08944786 0.011748753 0.13020723 -0.16977358 0.06357807 0.03755981
0.030621462 0.10196727 0.08607464 -0.065532625 -0.12551929 -0.10139684 -0.01000652 0.08111639
-0.020402575 0.03156167 -0.0048711435 -0.015139001 -0.04057969 0.014366577 0.047921605 0.053905938
-0.004333791 -0.108719066 -0.04697166 -0.00042441938 0.030874012 -0.13659191 -0.16121277 0.13221815
0.041640602 -0.017811885 -0.040099747 0.04214396 -0.078875735 0.111213066 -0.17972904 -0.13068229
-0.13929297 -0.015314607 0.049203467 -0.068622395 0.04687685 0.06910611 -0.059013076 -0.0591521
0.03637102 -0.16835019 -9.377238e-26 -3.3170441e-15 -2.246487e-13 4.916e-41 -5.7468448e-18 -1.2963671e-15
-4.9698e-41 1.2452e-41 -7.098262e-28 -0.046732057 -0.024064686 -0.015707275 0.10128797 -0.12897232
-0.022936424 0.12450169 0.02000783 -0.08001893 1.8003307e-29 -2.081441e-31 -1.5165061e-29 5.876124e-29
3.5731098e-29 -6.485011e-30 8.778564e-29 6.390303e-29 2.5107787e-29 -0.079491116 -0.025063608 -0.0804304
-0.028801493 -0.08626189 0.17446007 0.04142958 0.03658443 0.12410984 0.06307897 -0.09116784
-0.04714319 -0.058467094 0.08461577 -0.024077984 -0.08077864 0.025955377 0.066148706 4.9397e-41
4.9522e-41 4.941e-41 4.9334e-41 4.9435e-41 4.9268e-41 4.9341e-41 4.9355e-41 4.9229e-41
0.054016914 0.11690695 0.059562065 0.013150246 -0.039389797 -0.08336587 0.0064575584 0.0015074401
-0.067107566 -0.034493737 -0.03276274 -0.0121193165 0.035581566 0.023767278 0.03674887 0.080639556
-0.0508366 0.095502764 0.018680917 0.020902125 -0.015352676 0.096781686 0.011059686 -0.06522952
-0.0907998 0.0507325 -0.037891466 0.050476234 -0.16758436 -0.056283627 0.010048679 -0.05282386
-0.015864823 0.009899991 -0.06578837 -0.019775014 -0.07161299 0.01804265 0.15001607 -0.061581124
-0.16030887 -0.017637612 -0.15502404 -0.17743242 0.17920868 0.1499003 -0.052330896 -0.18057473
0.0345655 -0.030371228 0.010356133 0.07478074 -0.11307056 -0.09768793 -0.036976174 0.10842475
-0.020910148 -0.077361204 -0.068183064 -0.16375881 0.013597349 0.03375478 0.05369379 -0.043495815
0.08765843 -0.10193273 -0.05093117 0.018254012 -0.05576156 0.015917614 -0.002694655 0.152971
0.053917382 0.026938803 -0.059276834 0.0424133 -0.21641254 -0.20050567 -0.120144665 -0.21206976
-0.10812102 0.25909686 -0.16697893 -0.02185513 0.00468128 -0.06396619 0.05151422 0.011859925
-0.20143378 0.011071351 0.03142081 0.0949172 -0.008671858 -0.016006622 0.009560919 -0.10466032
0.046690505 -0.054272693 -0.07406851 -0.03244801 0.00611347 -0.03731046 -0.043680247 -0.087219335
0.13752481 0.10770802 0.035929985 0.09316553 0.02781677 -0.0237947 0.24311185 -0.21871465
00000000: b56f 4abd 493b 51bd 7eac 523d ccdb 323d
00000010: 5198 18be e1f3 313d 1cb1 423d eef0 14bc
00000020: 8f31 1e3e 28c4 55bd 4050 8bbe acae 113b
00000030: 8a26 5fbd 7986 ed3b 00f5 573e 052a a8bc
00000040: c84d febd 27fe 5e3b 1204 98bb ac79 e4bd
00000050: e67b 4c3d eb3f 56bd 4709 b0bd 70bd 293e
00000060: 0fd1 28bd d959 a53d b7ab cd3d 7a8c ba3d
00000070: c73a 2ebd 3b64 6b3c f804 cf3b ee58 033d
00000080: be69 d2bd 6583 a0bd 6c4b df3b 8de8 a33c
00000090: fd24 593d 0ca9 983d 1cfa 0fbe 25d3 b1bd
000000a0: 923f febb e7e4 a0bd 7130 b7bd d77d 403c
000000b0: 0b55 053e 20d9 2dbe 3835 823d 51d8 193d
000000c0: dcd9 fa3c 37d4 d03d e747 b03d f835 86bd
000000d0: 2188 00be 25a9 cfbd 63f2 23bc 5a20 a63d
000000e0: 4d23 a7bc cf46 013d 1d9e 9fbb 9309 78bc
000000f0: e436 26bd cb61 6b3c 7249 443d 79cc 5c3d
00000100: 7902 8ebb 1aa8 debd 5b65 40bd 9b84 deb9
00000110: 7feb fc3c c0de 0bbe f614 25be 3264 073e
00000120: 568f 2a3d 3bea 91bc a23f 24bd 259f 2c3d
00000130: 9a89 a1bd adc3 e33d e40a 38be 94d1 05be
00000140: d1a2 0ebe 1eea 7abc 9389 493d e689 8cbd
00000150: f101 403d 8187 8d3d b2b7 71bd 7949 72bd
00000160: c7f9 143d fe63 2cbe 4f2b e895 aa04 6fa7
00000170: 94ee 7caa 0a89 0000 6a05 d4a2 81d3 baa6
00000180: 8a8a 0080 b622 0000 f1f3 6092 1d6a 3fbd
00000190: 4e23 c5bc 8bac 80bc 1170 cf3d 5211 04be
000001a0: 2be5 bbbc befa fe3d 76e7 a33c f7e0 a3bd
000001b0: 4293 b60f df17 878c c0ca 998f 3afa 9410
000001c0: 9e2d 3510 1a88 038f 2390 de10 7003 a210
000001d0: 8b9f fe0f 3dcc a2bd 3252 cdbc b2b8 a4bd
000001e0: 1cf1 ebbc 13aa b0bd a9a5 323e 10b2 293d
000001f0: 8ed9 153d 4d2d fe3d 8c2f 813d 34b6 babd
00000200: 3819 41bd 317b 6fbd 084b ad3d 313f c5bc
00000210: 466f a5bd 5fa0 d43c f978 873d b389 0000
00000220: 0c8a 0000 bc89 0000 8689 0000 ce89 0000
00000230: 5789 0000 8b89 0000 9589 0000 3b89 0000
00000240: d740 5d3d e96c ef3d 5af7 733d 2174 573c
00000250: 3257 21bd babb aabd ed99 d33b 4c95 c53a
00000260: b16f 89bd 4e49 0dbd 3932 06bd 1990 46bc
00000270: fabd 113d 98b3 c23c fc85 163d 5a26 a53d
00000280: 0a3a 50bd f496 c33d b908 993c ef3a ab3c
00000290: ca89 7bbc 7a35 c63d af33 353c 0e97 85bd
000002a0: 3ff5 b9bd e2cc 4f3d 1534 1bbd 2bc0 4e3d
000002b0: 3c9b 2bbe a989 66bd 37a3 243c d55d 58bd
000002c0: f2f6 81bc 9233 223c 0ebc 86bd 36ff a1bc
000002d0: d5a9 92bd 2ece 933c d09d 193e 7d3c 7cbd
000002e0: 0228 24be c17c 90bc 9fbe 1ebe d8b0 35be
000002f0: 7b82 373e 777f 193e ec58 56bd 95e8 38be
00000300: 8e94 0d3d 15cd f8bc c5ac 293c a526 993d
00000310: 8a91 e7bd 9c10 c8bd 5474 17bd cc0d de3d
00000320: c24b abbc 8d6f 9ebd 90a3 8bbd 64b0 27be
00000330: 6ac7 5e3c 7442 0a3d 05ee 5b3d ab28 32bd
00000340: 4386 b33d 1bc2 d0bd 349d 50bd 7089 953c
00000350: 3c66 64bd a865 823c cf98 30bb 6ea4 1c3e
00000360: 79d8 5c3d c4ae dc3c 44cc 72bd 92b9 2d3d
00000370: 409b 5dbe 5c51 4dbe 680e f6bd d128 59be
00000380: 8e6e ddbd 58a8 843e 86fc 2abe 8809 b3bc
00000390: 6c65 993b b500 83bd 9300 533d 2250 423c
000003a0: a844 4ebe 9d64 353c 1bb3 003d f363 c23d
000003b0: 6914 0ebc 5220 83bc 67a5 1c3c 2658 d6bd
000003c0: 8b3e 3f3d 0b4d 5ebd 3bb1 97bd 34e8 04bd
000003d0: 8153 c83b dad2 18bd 0fea 32bd 0da0 b2bd
000003e0: 4ed3 0c3e 0696 dc3d 522b 133d 92cd be3d
000003f0: ffdf e33c 1aed c2bc 50f2 783e bcf6 5fbe

encoder.4.bias f4 [64]
0.082187645 -0.021662118 0.14673635 0.047126736 0.044411596 0.056553874 -0.0037614559 0.053031236
-0.022308653 -0.07431792 -0.027368242 0.05843742 -0.0005585174 -0.010381647 0.019208418 -0.022393303
-0.03165832 0.026628284 -0.035739332 0.03987802 -0.02227951 -0.028607277 -0.025814945 0.020245515
-0.0048344773 0.030629763 0.055383865 0.0022320617 -0.033616077 -0.074969456 -0.005261829 -0.040412728
-0.019201338 -0.02550477 0.01869186 -0.13612959 -0.013256664 -0.045886803 0.07625814 0.003257321
0.038557027 0.022202082 -0.08085499 0.07735835 0.053152647 0.06633241 0.07654452 0.06105165
0.11011989 -0.07085122 0.07202543 0.13411057 0.031771723 0.03466498 -0.042347815 0.012500988
0.029597005 -0.13650504 -0.0016895708 0.05476999 -0.009141938 0.028996307 -0.08918761 0.15406209
00000000: ff51 a83d c174 b1bc 0e42 163e f707 413d
00000010: efe8 353d 09a5 673d c282 76bb 4837 593d
00000020: a3c0 b6bc fe33 98bd 5d33 e0bc 135c 6f3d
00000030: 7869 12ba c917 2abc f95a 9d3c 2972 b7bc
00000040: 28ac 01bd 8f23 da3c 6863 12bd 2257 233d
00000050: 8583 b6bc cf59 eabc dd79 d3bc ecd9 a53c
00000060: 896a 9ebb 45eb fa3c 31da 623d c847 123b
00000070: 03b1 09bd 9689 99bd 6c6b acbb d187 25bd
00000080: 204c 9dbc 61ef d0bc ac1f 993c 8e65 0bbe
00000090: 7b32 59bc cdf3 3bbd 3a2d 9c3d c778 553b
000000a0: f9ed 1d3d 24e1 b53c 4d97 a5bd 0e6e 9e3d
000000b0: 97b6 593d 49d9 873d 60c3 9c3d 4c11 7a3d
000000c0: 8986 e13d 721a 91bd 1282 933d 4854 093e
000000d0: 1123 023d defc 0d3d e774 2dbd f2d0 4c3c
000000e0: 6b75 f23c fac7 0bbe 9774 ddba 7f56 603d
000000f0: 11c8 15bc aa89 ed3c fea7 b6bd 74c2 1d3e

encoder.8.weight f4 [64, 64, 3, 3]
0.043791376 -0.046022058 -0.011654077 -0.0981365 -0.032697942 0.103617184 -0.0958048 -0.01810254
0.099244334 -0.03202971 -0.030668069 -0.015304002 0.036869988 0.07542132 0.007269326 -0.033446904
0.035840694 0.058132064 0.01528754 0.024702916 0.022308385 -0.020373572 -0.004645265 0.07526579
-0.09246892 0.0059724445 0.0958876 -0.09911491 -0.018449647 0.033428736 -0.08910277 -0.033595264
0.017504826 -0.01987042 -0.035170272 0.070484385 -0.029151531 -0.017679797 0.048455156 -0.04193107
-0.036584575 -0.038539775 0.044705376 -0.0062041855 0.04688942 0.037339702 0.0168563 0.026163211
0.05260137 0.029832212 0.0074808216 0.019368416 -0.020970358 -0.031062491 0.08362763 0.06833134
-0.04066922 0.045296006 0.012010471 -0.09638034 0.04425675 -0.05310832 -0.14394177 -0.013755102
0.004273684 -0.038037065 -0.0083077755 0.0129125705 -0.13170703 -0.120713755 -0.055612277 -0.08361524
-0.008221817 -0.07912643 -0.10622444 0.07897543 -0.043219935 -0.08757853 -0.04046904 -0.023506304
-0.036402322 0.09961873 0.047359593 -0.038557954 -0.03248293 0.099955566 -0.06582856 0.015324718
-0.0236858 -0.08253096 -0.011788164 -0.035530884 -0.044495746 -0.0068712193 0.012130877 0.0043609305
0.00883844 0.033257794 -0.033923484 -0.049908675 -0.06289001 0.020841487 -0.062417157 -0.050508935
-0.010705265 0.021523407 0.016293677 0.024080342 0.06862855 0.03451857 -0.08296947 -0.053156678
0.017888496 -0.13521089 0.077508196 -0.0015387841 -0.1491597 0.03099667 0.0002741439 -0.15578161
0.12291502 0.048176225 -0.075275674 0.0675296 0.005197283 -0.10803161 0.017927898 0.014106475
-0.019624097 -0.023220312 -0.04051287 -0.06081694 0.004431502 0.019893073 0.011427161 -0.10909387
-0.017080534 -0.034210574 -0.11499751 -0.055850532 -0.07009884 -0.05580362 -0.08486214 0.013293164
0.03697628 0.0554455 0.07339985 -0.011551904 -0.0268131 -0.12763892 -0.008041932 -0.084422335
-0.08320021 0.02987991 0.036569376 0.119748846 -0.0045985393 0.02602805 -0.003763877 0.041618884
0.046164334 0.0055786185 0.0045873085 -0.020132853 0.04289337 0.053324036 0.023926716 0.040587213
0.008235922 -0.0052446886 0.028012324 -0.039928924 -0.048138425 -0.068333715 -0.042687993 -0.02074757
-0.019469056 -0.081949346 0.026737925 -0.051899947 0.19431816 0.056003172 -0.004293192 0.044323802
0.10154061 0.10493588 0.050400827 0.075951606 0.022317963 -0.04949979 -0.08055333 -0.03196781
0.04216953 -0.02908321 0.0110353455 -0.016505467 -0.023118576 0.064431876 -0.094727896 -0.0568923
-0.048342593 -0.19575113 -0.21337375 -0.16856498 -0.12987486 -0.15019809 -0.08191394 -0.021288805
-0.01806394 -0.03201298 -0.014364035 -0.03534823 -0.0910345 -0.12609605 -0.04268177 -0.0439698
0.0208267 0.017233415 -0.094469205 0.06947907 0.037800524 -0.0697128 0.00025690848 0.007204076
-0.038994886 0.030835485 0.0023731673 -0.017067688 -0.07153441 -0.07933345 -0.110482246 -0.0013704628
0.04719762 0.090215996 -0.084501 -0.02105307 0.07246658 0.018796641 0.02893756 -0.027657183
0.015785974 0.029768083 0.038248964 -0.2201685 -0.109563455 0.0753057 -0.02624241 -0.07184845
-0.009960855 -0.047426637 -0.06850516 -0.0710497 0.048023388 -0.015109217 -0.041694902 0.01456743
00000000: 965e 333d a081 3cbd bef0 3ebc cafb c8bd
00000010: 47ee 05bd 3f35 d43d 4f35 c4bd c74b 94bc
00000020: 9d40 cb3d 9631 03bd 9a3b fbbc a3bd 7abc
00000030: fc04 173d 7e76 9a3d 8733 ee3b 9fff 08bd
00000040: b1cd 123d e31b 6e3d 9778 7a3c c55d ca3c
00000050: 13c0 b63c 7ae6 a6bc 4f37 98bb f324 9a3d
00000060: 5860 bdbd 7fb4 c33b b860 c43d c2fc cabd
00000070: b723 97bc 92ec 083d 837b b6bd 309b 09bd
00000080: 4866 8f3c 4bc7 a2bc b40e 10bd 1e5a 903d
00000090: 31cf eebc 39d5 90bc ea78 463d eabf 2bbd
000000a0: b5d9 15bd e2db 1dbd fc1c 373d 7b4c cbbb
000000b0: 1f0f 403d 84f1 183d 3916 8a3c 3b54 d63c
000000c0: 8974 573d af62 f43c ae21 f53b 83aa 9e3c
000000d0: 07ca abbc c476 febc f644 ab3d 4df1 8b3d
000000e0: c594 26bd 4e88 393d 91c7 443c 0e63 c5bd
000000f0: 9146 353d 1c88 59bd 7965 13be 145d 61bc
00000100: 430a 8c3b c1cc 1bbd 561d 08bc 3f8f 533c
00000110: 35de 06be c638 f7bd b3c9 63bd 783e abbd
00000120: cdb4 06bc 0a0d a2bd 338c d9bd dfbd a13d
00000130: 6307 31bd 5f5c b3bd ddc2 25bd 4b90 c0bc
00000140: 9a1a 15bd e804 cc3d 22fc 413d f2ee 1dbd
00000150: d20c 05bd 81b5 cc3d 20d1 86bd 8714 7b3c
00000160: b908 c2bc fe05 a9bd 2523 41bc d588 11bd
00000170: 2c41 36bd f727 e1bb 96c0 463c 23e6 8e3b
00000180: 1bcf 103c 5339 083d 5af3 0abd 0a6d 4cbd
00000190: 7acc 80bd c4bb aa3c 22a9 7fbd 75e2 4ebd
000001a0: 2365 2fbc db51 b03c 517a 853c 2344 c53c
000001b0: 208d 8c3d 5863 0d3d e6eb a9bd d1ba 59bd
000001c0: e58a 923c b974 0abe 9ebc 9e3d 07b1 c9ba
000001d0: 52bd 18be baec fd3c f9ba 8f39 3785 1fbe
000001e0: dfba fb3d 6f54 453d 222a 9abd f54c 8a3d
000001f0: f84d aa3b ad3f ddbd 87dd 923c d81e 673c
00000200: b7c2 a0bc 8638 bebc d3f0 25bd 2f1b 79bd
00000210: 2236 913b ccf6 a23c fd38 3b3c 9b6c dfbd
00000220: 7aec 8bbc 6320 0cbd d183 ebbd 87c3 64bd
00000230: fb8f 8fbd 5692 64bd 34cc adbd 92cb 593c
00000240: 7174 173d d21a 633d a952 963d 3244 3dbc
00000250: 25a7 dbbc c7b3 02be 4fc2 03bc 9ee5 acbd
00000260: df64 aabd b7c6 f43c c5c9 153d e23e f53d
00000270: 58af 96bb c738 d53c 61ab 76bb 9078 2a3d
00000280: d016 3d3d d8cc b63b 2251 963b a7ed a4bc
00000290: f5b0 2f3d 4e6a 5a3d f601 c43c c73e 263d
000002a0: f6ef 063c a3db abbb 1a7a e53c 838c 23bd
000002b0: cc2c 45bd 8cf2 8bbd 9bd9 2ebd cff6 a9bc
000002c0: 927d 9fbc 0fd5 a7bd 7e09 db3c 0a95 54bd
000002d0: 57fb 463e 9563 653d e8ad 8cbb e08c 353d
000002e0: 86f4 cf3d 9fe8 d63d 1971 4e3d 848c 9b3d
000002f0: 29d4 b63c 4bc0 4abd 25f9 a4bd aef0 02bd
00000300: f5b9 2c3d e93f eebc 98cd 343c 7936 87bc
00000310: 2b63 bdbc dcf4 833d b300 c2bd e607 69bd
00000320: e202 46bd fc72 48be a67e 5abe 4c9c 2cbe
00000330: eafd 04be 87cd 19be 7fc2 a7bd dc65 aebc
00000340: d4fa 93bc 0b20 03bd 2157 6bbc 4ec9 10bd
00000350: 4c70 babd 531f 01be 14d3 2ebd ad19 34bd
00000360: c19c aa3c 172d 8d3c 1279 c1bd 0b4b 8e3d
00000370: b9d4 1a3d 96c5 8ebd acb1 8639 2b10 ec3b
00000380: 1ab9 1fbd b39a fc3c 2487 1b3b 89d1 8bbc
00000390: a280 92bd 9379 a2bd 8444 e2bd 1aa1 b3ba
000003a0: 4b52 413d 2ac3 b83d dc0e adbd 7d77 acbc
000003b0: 5c69 943d 6afb 993c 760e ed3c 5191 e2bc
000003c0: 9651 813c 32dc f33c f2aa 1c3d da73 61be
000003d0: ce62 e0bd e039 9a3d 53fa d6bc 4825 93bd
000003e0: db32 23bc 6f42 42bd 6f4c 8cbd 8182 91bd
000003f0: 2cb4 443d a68c 77bc 46c8 2abd 3bac 6e3c

encoder.8.bias f4 [64]
0.047909502 0.024169408 0.028369399 0.0011629482 0.06177334 0.0745882 0.08274285 0.009942667
0.007379844 0.010721924 0.007208828 0.02607685 -0.0031749078 0.0009804975 0.00828512 0.018899223
0.010821495 0.020096598 0.05315054 0.0033235399 0.12588868 0.066698544 0.018120918 0.04751145
0.029462079 0.10417677 0.044798728 0.003946697 0.034522794 0.01903205 -0.040625818 0.014647599
0.06185944 0.07709656 -0.0046554375 0.11509558 0.010844113 -0.00026145895 0.046953738 0.056776743
0.0061580013 0.08045324 -0.00083174795 0.09337741 0.056991853 -0.010052668 0.0013042144 0.041903
0.00275357 0.024883492 0.018367372 0.039752226 0.010110619 -0.012700017 0.030072583 0.036864176
0.01538407 0.041411582 0.011889531 0.07873335 0.024750054 -0.001857159 0.085411616 0.076060355
00000000: c13c 443d ecfe c53c f166 e83c 116e 983a
00000010: 0b06 7d3d b3c1 983d 1575 a93d 91e6 223c
00000020: 9ed2 f13b 02ab 2f3c 0838 ec3b 1e9f d53c
00000030: 1d12 50bb 0984 803a 50be 073c 8bd2 9a3c
00000040: a44c 313c 9fa1 a43c 61b4 593d bfcf 593b
00000050: f6e8 003e 3f99 883d 5272 943c 5e9b 423d
00000060: 755a f13c a15a d53d df7e 373d 4b53 813b
00000070: c667 0d3d 1ae9 9b3c 4267 26bd 7cfc 6f3c
00000080: 5360 7d3d cde4 9d3d a48c 98bb 3bb7 eb3d
00000090: 82ab 313c 6d14 89b9 9052 403d bb8e 683d
000000a0: 0fc9 c93b abc4 a43d a909 5aba a83c bf3d
000000b0: 4a70 693d f2b3 24bc 2cf2 aa3a 7ba2 2b3d
000000c0: 3d75 343b 77d8 cb3c 2c77 963c 3bd3 223d
000000d0: 02a7 253c bb13 50bc c75a f63c e4fe 163d
000000e0: 770d 7c3c 319f 293d 4fcc 423c f33e a13d
000000f0: a0c0 ca3c ea6b f3ba 49ec ae3d 88c5 9b3d

decoder.0.weight f4 [64, 64, 3, 3]
-4.9411e-41 -4.954e-41 -5.6792e-41 -4.9424e-41 -5.0702e-41 -5.0353e-41 5.1021e-41 5.1004e-41
-4.9589e-41 -5.7337e-41 -5.7172e-41 -5.2902e-41 5.2519e-41 -5.2944e-41 -5.0912e-41 -5.1366e-41
5.4348e-41 -5.47e-41 -0.008945567 -0.014759019 -0.009108303 -0.009219449 -0.0045161196 0.0073427022
-0.0053926753 -0.016834887 -0.009722719 -0.0025625066 -0.0048962203 0.0017799418 0.0034171967 0.0014424376
-0.0011931284 0.00090075086 0.0062557533 0.0032813044 -5.4075e-41 -6.1e-41 -5.1443e-41 -5.3503e-41
-4.9568e-41 -6.0145e-41 5.5398e-41 5.467e-41 4.9118e-41 -0.00855829 -0.013391522 -0.0078037228
-0.005950712 -0.0071341386 -0.0057592187 0.003665654 0.009388392 0.0067797797 -0.008784049 -0.008368948
-0.015018593 -0.0045746695 -0.0062273704 -0.0013538857 0.0039286637 0.016084364 0.01720458 5.354e-41
-6.2743e-41 -5.1551e-41 -6.2164e-41 -5.9835e-41 -5.2065e-41 -5.4438e-41 -5.9126e-41 5.0954e-41
5.3615e-41 -5.7034e-41 5.1688e-41 -6.0025e-41 4.925e-41 6.0362e-41 -4.9061e-41 5.0357e-41
5.283e-41 -6.0062e-41 6.0694e-41 -4.9403e-41 -6.1123e-41 -5.0902e-41 6.1506e-41 -6.0903e-41
-5.3647e-41 -5.0064e-41 -0.024829578 -0.03836417 -0.028611392 -0.013923134 -0.018967394 -0.006260966
0.012884845 0.035472766 0.027980557 0.0018736529 -0.0017035266 -0.0035316045 0.00061650615 0.00066591543
0.001231289 0.0005342658 0.0078398315 0.0067336136 -0.006659757 -0.010551173 -0.0016010726 -0.016293548
-0.0004461719 -0.00096798054 -0.005777151 -0.024397682 -0.016467642 0.0029096792 -0.0022935458 -0.004920635
0.001296156 0.0016107925 0.0024042206 0.0007442339 0.013104038 0.011227885 -0.002112977 -0.0033025166
0.0020062155 0.0024322253 0.0011470192 -0.0010885885 0.0002678407 0.0030393798 0.0009238987 -0.0026043672
-0.0007328618 0.0052899723 0.0024748647 0.0017288217 -0.0011046581 -0.0004907009 -0.003277242 -0.004333305
0.008974139 0.01980868 0.020304104 0.0039016951 0.0077799316 0.0031990858 0.0023060627 -0.030202627
-0.023091026 0.0007732448 -0.0012538503 -0.0027305027 -4.3208947e-05 -0.0002307267 0.0004194792 0.0004170444
0.0038426097 0.0036562595 -0.010131587 0.031510983 0.0077356985 0.008668117 0.012495321 0.007654914
-0.019853227 -0.047570363 -0.028069232 0.0034771627 -0.003615414 -0.008106101 0.0006962866 0.0011671387
0.003199869 0.0008157266 0.018310983 0.016192023 -5.328e-41 -5.6933e-41 -5.481e-41 -5.0084e-41
6.23e-41 -6.0217e-41 -5.108e-41 -5.1345e-41 -5.2956e-41 -5.1388e-41 -6.2257e-41 -4.9392e-41
-5.9395e-41 4.9658e-41 -5.9688e-41 5.0071e-41 5.8726e-41 5.0667e-41 -5.9615e-41 -6.2027e-41
-5.1405e-41 -4.9965e-41 -5.0817e-41 5.0427e-41 5.4454e-41 4.9762e-41 4.9341e-41 -5.1149e-41
5.1437e-41 -5.0328e-41 -5.0429e-41 -5.0381e-41 5.0583e-41 4.9711e-41 -4.9962e-41 4.9188e-41
5.7299e-41 4.9069e-41 -5.0444e-41 -5.8891e-41 -5.1115e-41 -5.1181e-41 -4.9414e-41 -4.9571e-41
-5.1994e-41 0.002205916 -0.0038353547 -0.005389632 0.0011810701 0.00089519424 0.0016567359 0.0022305988
0.015580884 0.013006701 0.0034089768 0.017287089 0.020673288 0.0047317697 0.008075474 0.0018276311
-0.002504334 -0.03262764 -0.027368233 -0.0050567 -0.004614702 0.007965023 0.0066331374 0.0034564496
-0.0021322584 0.00063400547 0.0013431248 -0.002094693 -0.002403486 -0.0043641115 0.0018947533 0.0031987021
00000000: bd89 0080 198a 0080 509e 0080 c689 0080
00000010: 568d 0080 5d8c 0080 3a8e 0000 2e8e 0000
00000020: 3c8a 0080 d59f 0080 5f9f 0080 7893 0080
00000030: 6792 0000 9693 0080 ec8d 0080 308f 0080
00000040: 8097 0000 7b98 0080 6d90 12bc d0cf 71bc
00000050: fe3a 15bc 2c0d 17bc f5fb 93bb 0d9b f03b
00000060: 0ab5 b0bb 51e9 89bc 0a4c 1fbc baef 27bb
00000070: 7970 a0bb f04c e93a 0cf3 5f3b 2d10 bd3a
00000080: bf62 9cba 5e20 6c3a 10fd cc3b 270b 573b
00000090: bd96 0080 0baa 0080 678f 0080 2595 0080
000000a0: 2d8a 0080 a9a7 0080 6d9a 0000 6698 0000
000000b0: ec88 0000 1238 0cbc 1d68 5bbc 5fb6 ffbb
000000c0: 31fe c2bb 7ec5 e9bb d4b7 bcbb 783b 703b
000000d0: c5d1 193c ea28 de3b f9ea 0fbc e91d 09bc
000000e0: 8b10 76bc 1ce7 95bb f80e ccbb de74 b1ba
000000f0: 05bc 803b 5bc3 833c 9ff0 8c3c 3f95 0000
00000100: e7ae 0080 b48f 0080 4aad 0080 cca6 0080
00000110: 2391 0080 c097 0080 d2a4 0080 0a8e 0000
00000120: 7595 0000 fd9e 0080 1690 0000 53a7 0080
00000130: 4a89 0000 44a8 0000 c388 0080 608c 0000
00000140: 4593 0000 6ea7 0080 31a9 0000 b789 0080
00000150: 63aa 0080 e58d 0080 74ab 0000 c6a9 0080
00000160: 8c95 0080 8f8b 0080 6667 cbbc bf23 1dbd
00000170: 7062 eabc db1d 64bc 8261 9bbc ca28 cdbb
00000180: f51a 533c e44b 113d 7b37 e53c 5c95 f53a
00000190: de48 dfba 7e72 67bb 079d 213a d490 2e3a
000001a0: 3463 a13a f90d 0c3a a372 003c a5a5 dc3b
000001b0: 173a dabb d4de 2cbc 15db d1ba 0c7a 85bc
000001c0: 2eec e9b9 13c0 7dba 414e bdbb a6dd c7bc
000001d0: 26e7 86bc 51b0 3e3b 504f 16bb 473d a1bb
000001e0: c7e3 a93a 3a21 d33a 2190 1d3b b118 433a
000001f0: 52b2 563c 2af5 373c df79 0abb 096f 58bb
00000200: b67a 033b f865 1f3b 9457 963a f8ae 8eba
00000210: f86c 8c39 5530 473b cb31 723a 08ae 2abb
00000220: 861d 40ba 8157 ad3b 5731 223b a199 e23a
00000230: 2dca 90ba 61a2 00ba ffc6 56bb 66fe 8dbb
00000240: 4408 133c d045 a23c cb54 a63c 95b3 7f3b
00000250: ccee fe3b c1a7 513b 5021 173b 806b f7bc
00000260: 6429 bdbc 95b3 4a3a 3c58 a4ba 3cf2 32bb
00000270: 413b 35b8 3aef 71b9 8ced db39 c0a6 da39
00000280: 4bd4 7b3b db9d 6f3b f5fe 25bc a911 013d
00000290: be7b fd3b b804 0e3c 2db9 4c3c 13d6 fa3b
000002a0: 3ca3 a2bc 24d9 42bd 72f1 e5bc 1ce1 633b
000002b0: 95f0 6cbb 74cf 04bc 0187 363a adfa 983a
000002c0: e5b4 513b 7cd6 553a ea00 963c 22a5 843c
000002d0: 8694 0080 b59e 0080 ca98 0080 9d8b 0080
000002e0: abad 0000 dca7 0080 648e 0080 218f 0080
000002f0: 9f93 0080 408f 0080 8cad 0080 af89 0080
00000300: 92a5 0080 6d8a 0000 63a6 0080 948b 0000
00000310: b4a3 0000 3d8d 0000 2fa6 0080 e8ac 0080
00000320: 4c8f 0080 488b 0080 a88d 0080 928c 0000
00000330: cc97 0000 b78a 0000 8b89 0000 958e 0080
00000340: 638f 0000 4b8c 0080 938c 0080 718c 0080
00000350: 018d 0000 938a 0000 468b 0080 1e89 0000
00000360: ba9f 0000 c988 0000 9e8c 0080 2aa4 0080
00000370: 7d8e 0080 ac8e 0080 bf89 0080 2f8a 0080
00000380: f090 0080 2191 103b 935a 7bbb 839b b0bb
00000390: 23ce 9a3a 78ab 6a3a d526 d93a 3d2f 123b
000003a0: f746 7f3c 0f1a 553c 2469 5f3b a79d 8d3c
000003b0: 075b a93c f60c 9b3b fe4e 043c 208d ef3a
000003c0: c11f 24bb 8fa4 05bd 5833 e0bc adb2 a5bb
000003d0: ed36 97bb ba7f 023c ca5a d93b 9a85 623b
000003e0: 5cbd 0bbb 6333 263a ca0b b03a 1e47 09bb
000003f0: ce83 1dbb d200 8fbb 5f59 f83a 51a1 513b

decoder.0.bias f4 [64]
-5.1041e-41 -5.3548e-41 0.032728862 0.09205676 -5.9084e-41 0.02864465 0.06632598 -5.594e-41
-6.1467e-41 -6.2471e-41 0.0904188 0.030727128 0.037138745 0.05002779 0.06665491 0.06283002
0.040888395 0.016347758 0.066198006 0.07259809 -4.9464e-41 -5.2822e-41 -5.5358e-41 -6.2742e-41
-6.1639e-41 0.06033323 0.058172032 0.1572967 0.08537831 -5.9426e-41 -1.6373e-41 0.05120593
0.04056431 0.112573214 0.1617799 0.11621958 0.04360143 0.114665255 0.13642868 0.031037971
0.04168797 0.11328599 -4.9462e-41 0.13534325 -5.1028e-41 -6.1078e-41 2.62304e-39 0.08265685
0.11539456 -5.3768e-41 0.09241665 0.104521304 0.05204233 0.1071563 0.10153626 -6.2998e-41
0.099954575 0.0018962543 0.043029997 0.09758161 0.03547489 -4.9125e-41 0.06498482 0.13341968
00000000: 488e 0080 4595 0080 b30e 063d 4188 bc3d
00000010: b4a4 0080 2fa8 ea3c ead5 873d f09b 0080
00000020: 58ab 0080 25ae 0080 7e2d b93d 75b7 fb3c
00000030: cc1e 183d f1e9 4c3d 5f82 883d 07ad 803d
00000040: 977a 273d bceb 853c d292 873d 4fae 943d
00000050: e389 0080 3f93 0080 519a 0080 e6ae 0080
00000060: d3ab 0080 fa1f 773d cc45 6e3d 6312 213e
00000070: d3da ae3d a8a5 0080 a42d 0080 4fbd 513d
00000080: c326 263d c98c e63d a1a9 253e 8804 ee3d
00000090: 6a97 323d 9ed5 ea3d f6b3 0b3e 5843 fe3c
000000a0: 01c1 2a3d 7c02 e83d e189 0080 6c97 0a3e
000000b0: 3f8e 0080 43aa 0080 f88f 1c00 ff47 a93d
000000c0: fc53 ec3d e295 0080 f144 bd3d 440f d63d
000000d0: 572a 553d c374 db3d 3ef2 cf3d 9daf 0080
000000e0: fcb4 cc3d bc8b f83a 3940 303d ded8 c73d
000000f0: 1e4e 113d f188 0080 c316 853d 2b9f 083e

decoder.2.weight f4 [64, 32, 2, 2]
5.0996e-41 -5.7323e-41 5.0726e-41 4.9595e-41 -6.0603e-41 5.0545e-41 4.9421e-41 -5.3018e-41
5.0234e-41 4.93e-41 -4.998e-41 4.9616e-41 -4.937e-41 -5.0807e-41 4.9193e-41 5.0644e-41
5.5316e-41 5.4925e-41 5.4754e-41 5.4155e-41 -5.3806e-41 4.9617e-41 4.905e-41 4.9844e-41
-5.061e-41 -4.9368e-41 -5.0483e-41 -5.0186e-41 5.0838e-41 5.1045e-41 5.167e-41 5.1537e-41
-4.9457e-41 -4.9766e-41 4.946e-41 5.0186e-41 4.9181e-41 4.9436e-41 4.9571e-41 4.9125e-41
-4.9634e-41 -4.9483e-41 -5.1173e-41 5.0419e-41 4.9927e-41 6.1836e-41 5.0042e-41 4.9073e-41
-5.0605e-41 -4.9848e-41 -5.0393e-41 5.0971e-41 -5.073e-41 -4.9844e-41 -4.9463e-41 5.0731e-41
-5.0043e-41 -4.9918e-41 -5.1352e-41 -4.963e-41 -5.0096e-41 -5.068e-41 -4.995e-41 -4.9949e-41
-5.1914e-41 5.2453e-41 -5.3936e-41 -5.219e-41 -4.9557e-41 -4.9526e-41 5.0518e-41 5.0003e-41
-5.0165e-41 -5.8462e-41 -5.0794e-41 -5.0057e-41 4.9097e-41 4.9916e-41 -5.0979e-41 -5.0372e-41
4.9281e-41 5.0412e-41 -5.1628e-41 4.9408e-41 4.9612e-41 4.9558e-41 -4.9979e-41 -5.0332e-41
-5.0948e-41 4.9726e-41 -5.102e-41 -5.2711e-41 4.9827e-41 4.9684e-41 -5.0999e-41 -4.9337e-41
-4.9303e-41 5.0109e-41 -5.0876e-41 -5.0522e-41 5.0342e-41 5.0908e-41 -5.0592e-41 -5.0612e-41
-5.1625e-41 -5.0873e-41 -5.1321e-41 -5.1678e-41 5.0846e-41 5.1328e-41 5.9004e-41 5.0695e-41
4.9707e-41 4.9762e-41 -5.1537e-41 -4.941e-41 5.0852e-41 -5.7443e-41 5.0758e-41 5.2329e-41
-4.977e-41 -5.0007e-41 5.0933e-41 -5.1416e-41 4.9946e-41 4.9544e-41 5.0245e-41 5.0862e-41
-5.0137e-41 -5.4593e-41 -5.6471e-41 -5.0856e-41 4.9956e-41 5.1502e-41 -5.322e-41 -5.8148e-41
5.066e-41 5.1009e-41 -5.9676e-41 -4.962e-41 -5.189e-41 -4.9096e-41 5.4139e-41 5.4965e-41
-5.4045e-41 5.8476e-41 -5.4649e-41 -5.9216e-41 5.1729e-41 5.15e-41 -5.241e-41 5.139e-41
5.7965e-41 5.1453e-41 -6.0889e-41 5.3006e-41 -5.1152e-41 -5.4047e-41 -5.1121e-41 -4.9362e-41
-6.249e-41 6.2068e-41 -5.4911e-41 5.4883e-41 -5.3639e-41 -5.2243e-41 5.2797e-41 -5.0842e-41
5.3995e-41 5.9524e-41 5.3371e-41 -5.9896e-41 5.17e-41 -5.3322e-41 -5.3021e-41 5.2438e-41
-6.0204e-41 -5.2972e-41 5.1139e-41 -5.0206e-41 -5.1495e-41 -5.4257e-41 5.143e-41 -4.9942e-41
-5.1934e-41 -5.1788e-41 5.1673e-41 4.9567e-41 -5.0084e-41 5.2329e-41 5.2346e-41 -5.0269e-41
5.3133e-41 5.3335e-41 -5.4218e-41 4.9757e-41 5.7864e-41 5.227e-41 5.1241e-41 -5.1461e-41
5.3607e-41 4.9117e-41 5.2973e-41 -5.3489e-41 4.9313e-41 -4.9497e-41 5.3992e-41 6.125e-41
-6.0423e-41 -6.1196e-41 -5.381e-41 -5.484e-41 -4.9452e-41 -5.1011e-41 -4.9784e-41 5.1404e-41
-5.2041e-41 5.4282e-41 -5.8279e-41 5.3175e-41 -4.9955e-41 -5.3003e-41 -5.4148e-41 5.8493e-41
-5.0763e-41 -5.2093e-41 5.3353e-41 5.4262e-41 5.1742e-41 5.4222e-41 -5.4114e-41 -5.3091e-41
-5.6618e-41 -5.8682e-41 5.11e-41 -5.6032e-41 6.0666e-41 5.8604e-41 5.3737e-41 5.2186e-41
4.9928e-41 5.0962e-41 -5.6765e-41 -5.9121e-41 5.5951e-41 5.1995e-41 5.1261e-41 -6.1783e-41
-5.356e-41 -5.0849e-41 -5.9907e-41 -5.2264e-41 5.6432e-41 5.0856e-41 -5.3335e-41 5.0944e-41
00000000: 288e 0000 cb9f 0080 678d 0000 408a 0000
00000010: f0a8 0080 e68c 0000 c489 0000 cb93 0080
00000020: 088c 0000 6e89 0000 538b 0080 4f8a 0000
00000030: a089 0080 a18d 0080 2189 0000 2d8d 0000
00000040: 339a 0000 1c99 0000 a298 0000 f696 0000
00000050: fd95 0080 508a 0000 bb88 0000 f28a 0000
00000060: 158d 0080 9e89 0080 ba8c 0080 e68b 0080
00000070: b78d 0000 4b8e 0000 0990 0000 aa8f 0000
00000080: de89 0080 ba8a 0080 e089 0000 e68b 0000
00000090: 1989 0000 cf89 0000 2f8a 0000 f188 0000
000000a0: 5c8a 0080 f089 0080 a68e 0080 8c8c 0000
000000b0: 2d8b 0000 60ac 0000 7f8b 0000 cc88 0000
000000c0: 118d 0080 f58a 0080 7a8c 0080 168e 0000
000000d0: 6a8d 0080 f28a 0080 e289 0080 6b8d 0000
000000e0: 808b 0080 278b 0080 268f 0080 598a 0080
000000f0: a68b 0080 468d 0080 3e8b 0080 3d8b 0080
00000100: b790 0080 3892 0000 5a96 0080 7c91 0080
00000110: 258a 0080 0f8a 0080 d38c 0000 638b 0000
00000120: d78b 0080 f8a2 0080 988d 0080 8a8b 0080
00000130: dd88 0000 258b 0000 1c8e 0080 6b8c 0080
00000140: 6089 0000 878c 0000 eb8f 0080 bb89 0000
00000150: 4c8a 0000 268a 0000 528b 0080 4e8c 0080
00000160: 068e 0080 9e8a 0000 398e 0080 f092 0080
00000170: e68a 0000 808a 0000 2a8e 0080 8889 0080
00000180: 7089 0080 af8b 0000 d28d 0080 d68c 0080
00000190: 558c 0000 e98d 0000 088d 0080 168d 0080
000001a0: e98f 0080 d08d 0080 108f 0080 0f90 0080
000001b0: bd8d 0000 158f 0000 7ba4 0000 518d 0000
000001c0: 908a 0000 b78a 0000 aa8f 0080 bc89 0080
000001d0: c18d 0000 21a0 0080 7e8d 0000 df91 0000
000001e0: bd8a 0080 668b 0080 fb8d 0000 548f 0080
000001f0: 3b8b 0000 1c8a 0000 108c 0000 c88d 0000
00000200: c38b 0080 2f98 0080 6b9d 0080 c48d 0080
00000210: 428b 0000 918f 0000 5b94 0080 18a2 0080
00000220: 388d 0000 318e 0000 5aa6 0080 528a 0080
00000230: a690 0080 dc88 0080 eb96 0000 3899 0000
00000240: a896 0080 02a3 0000 5798 0080 12a5 0080
00000250: 3390 0000 908f 0000 1992 0080 418f 0000
00000260: 95a1 0000 6e8f 0000 bca9 0080 c293 0000
00000270: 978e 0080 a996 0080 818e 0080 9a89 0080
00000280: 32ae 0080 05ad 0000 1299 0080 fe98 0000
00000290: 8695 0080 a291 0080 2d93 0000 ba8d 0080
000002a0: 8496 0000 eea5 0000 c794 0000 f7a6 0080
000002b0: 1e90 0000 a494 0080 cd93 0080 2d92 0000
000002c0: d3a7 0080 aa93 0080 8e8e 0000 f48b 0080
000002d0: 8c8f 0080 3f97 0080 5e8f 0000 388b 0080
000002e0: c590 0080 5d90 0080 0b90 0000 2c8a 0000
000002f0: 9d8b 0080 df91 0000 eb91 0000 218c 0080
00000300: 1d94 0000 ad94 0000 2397 0080 b48a 0000
00000310: 4da1 0000 b591 0000 d78e 0000 748f 0080
00000320: 6f95 0000 eb88 0000 ab93 0000 1b95 0080
00000330: 7789 0000 fa89 0080 8296 0000 bdaa 0000
00000340: 6fa8 0080 97aa 0080 0096 0080 df98 0080
00000350: da89 0080 338e 0080 c78a 0080 4b8f 0000
00000360: 1291 0080 5197 0000 75a2 0080 3b94 0000
00000370: 418b 0080 c093 0080 f196 0080 0ea3 0000
00000380: 828d 0080 3791 0080 ba94 0000 4397 0000
00000390: 3c90 0000 2697 0000 d996 0080 ff93 0080
000003a0: d49d 0080 95a3 0080 728e 0000 329c 0080
000003b0: 1da9 0000 5da3 0000 cc95 0000 7991 0000
000003c0: 2e8b 0000 108e 0000 3d9e 0080 cea4 0080
000003d0: f89b 0000 f190 0000 e58e 0000 3aac 0080
000003e0: 4e95 0080 bf8d 0080 ffa6 0080 b191 0080
000003f0: 4f9d 0000 c48d 0000 ad94 0080 038e 0000

decoder.2.bias f4 [32]
0.1546294 0.15454286 0.14076002 0.13295288 0.04500692 0.19645394 0.15480506 0.11334537
0.05639651 0.2294207 0.10250022 0.23112093 0.22580616 0.19019412 0.18652497 0.23960033
0.039426256 0.19593813 0.14165804 0.19080976 0.16930012 0.2234839 0.08970097 0.1861207
0.16554566 0.16268337 0.15838651 0.16577101 0.13665396 0.12001183 0.112264924 0.253433
00000000: 2b57 1e3e 7c40 1e3e 6523 103e cd24 083e
00000010: 2d59 383d 392b 493e 3885 1e3e 9e21 e83d
00000020: 0700 673d 43ed 6a3e a3eb d13d f7aa 6c3e
00000030: bb39 673e 3fc2 423e 6700 3f3e ca59 753e
00000040: 6d7d 213d 01a4 483e ce0e 113e a263 433e
00000050: 035d 2d3e f7d8 643e 24b5 b73d 6d96 3e3e
00000060: cd84 293e 7896 263e 1330 223e e0bf 293e
00000070: 04ef 0b3e c3c8 f53d 27eb e53d f8c1 813e

decoder.4.weight f4 [32, 1, 2, 2]
-0.6106039 -0.61149675 -0.10323061 -0.10401572 -0.4226177 -0.42296046 -0.4730775 -0.4735421
0.07772448 0.0760532 0.973343 0.97229695 0.07329462 0.07170578 0.9193595 0.9183581
0.22910154 0.22906263 0.006647271 0.0067306096 -0.59316707 -0.5937519 -0.5336804 -0.53436035
0.7803912 0.7800987 0.013628475 0.013578791 0.40938032 0.40841144 0.5431367 0.54243445
0.24086969 0.24051589 0.2016757 0.20143345 -0.6667932 -0.66742104 -0.6561684 -0.6569292
0.056335583 0.05507507 0.70900595 0.70818305 -0.61293095 -0.6134276 -0.72505534 -0.72574025
-0.6455617 -0.64615 -0.6585806 -0.65931183 -0.4415887 -0.44184807 -0.65235686 -0.65283644
-0.47072056 -0.47105396 -0.6083686 -0.6088814 -0.7347195 -0.7354724 -0.634271 -0.63511723
0.021709705 0.021190211 0.27319437 0.27277872 0.60717267 0.6053557 1.0560436 1.0547469
0.4419643 0.4406174 0.7607294 0.75975585 0.9647392 0.9643567 0.022576304 0.02247475
-0.6725275 -0.6735409 -0.08154508 -0.08241963 0.8097309 0.8079398 1.0642384 1.0629438
0.45588988 0.45573226 0.013313739 0.013344594 0.9621286 0.9616552 0.06494048 0.06480919
0.75540566 0.754532 0.46671972 0.46610737 0.82449144 0.8241674 0.02213884 0.022073299
-0.5801766 -0.58092237 -0.2460228 -0.24671648 -0.27304155 -0.2729869 -0.6350319 -0.63531363
-0.53463054 -0.53539765 -0.11561209 -0.11629643 -0.21552841 -0.21551523 -0.45266128 -0.45285752
0.48848918 0.48781708 0.37240118 0.37194562 -0.7331748 -0.7338636 -0.72850144 -0.7293409
00000000: 8a50 1cbf 0d8b 1cbf 926a d3bd 3206 d5bd
00000010: 5961 d8be 468e d8be 3737 f2be 1c74 f2be
00000020: 032e 9f3d c8c1 9b3d 022d 793f 74e8 783f
00000030: 7d1b 963d 7bda 923d 255b 6b3f 8419 6b3f
00000040: 9899 6a3e 658f 6a3e 5ad1 d93b 728c dc3b
00000050: ccd9 17bf 2000 18bf 479f 08bf d7cb 08bf
00000060: b8c7 473f 8cb4 473f f849 5f3c 9479 5e3c
00000070: 4c9a d13e 4e1b d13e 020b 0b3f fcdc 0a3f
00000080: 8ba6 763e cc49 763e 1384 4e3e 9244 4e3e
00000090: f6b2 2abf 1bdc 2abf a7fa 27bf 832c 28bf
000000a0: 24c0 663d 6696 613d 6a81 353f 7c4b 353f
000000b0: 0be9 1cbf 9709 1dbf 3a9d 39bf 1dca 39bf
000000c0: 8843 25bf 166a 25bf bd98 28bf a9c8 28bf
000000d0: ea17 e2be e939 e2be dc00 27bf 4a20 27bf
000000e0: 4902 f1be fc2d f1be 0bbe 1bbf a7df 1bbf
000000f0: 9416 3cbf eb47 3cbf 965f 22bf 0b97 22bf
00000100: 8dd8 b13c 1897 ad3c 22e0 8b3e a7a9 8b3e
00000110: ab6f 1b3f 97f8 1a3f 702c 873f f201 873f
00000120: 2549 e23e 9b98 e13e 29bf 423f 5c7f 423f
00000130: 26f9 763f 15e0 763f f1f1 b83c f81c b83c
00000140: c32a 2cbf 2d6d 2cbf 1b01 a7bd 9fcb a8bd
00000150: 864a 4f3f 25d5 4e3f f738 883f 8b0e 883f
00000160: 666a e93e bd55 e93e de21 5a3c 49a3 5a3c
00000170: 0f4e 763f 092f 763f 84ff 843d aeba 843d
00000180: 4462 413f 0229 413f e3f5 ee3e a0a5 ee3e
00000190: df11 533f a2fc 523f 835c b53c 10d3 b43c
000001a0: 7486 14bf 54b7 14bf 67ed 7bbe 3fa3 7cbe
000001b0: 1acc 8bbe f0c4 8bbe 7391 22bf eaa3 22bf
000001c0: 8cdd 08bf d20f 09bf 08c6 ecbd d32c eebd
000001d0: 7bb3 5cbe 06b0 5cbe 38c3 e7be f1dc e7be
000001e0: 411b fa3e 29c3 f93e 5eab be3e a86f be3e
000001f0: 58b1 3bbf 7cde 3bbf 127f 3abf 16b6 3abf

linear.weight f4 [4, 16]
0.5852339 -2.302551 0.24541259 1.4096273 1.039459 0.7762561 0.8764746 -2.048302
0.8025225 -1.6858362 0.9384818 1.2528181 -0.8254912 0.4254865 -2.2474155 0.76155186
-2.3133852 0.95907116 1.367883 0.25865665 -2.1651468 0.6047789 0.71857506 -0.1417977
0.6916012 1.3312656 0.97057325 -2.0299401 -1.5301342 -2.2774544 1.3878508 0.8006889
0.8430035 0.37379003 -2.331091 -2.1784205 0.4582638 0.5547738 0.29911184 0.97399884
0.59600013 -0.8246972 -2.7640834 -0.004159863 0.9203317 0.73986 0.067645445 0.22081782
0.47013184 0.49046585 0.5822542 0.6814443 0.5340587 -2.4682877 -2.4767168 0.71706825
-2.4650838 1.0138798 0.5732635 0.42678365 0.69647944 0.39813957 0.61371577 -2.3987238
00000000: e4d1 153f ff5c 13c0 704d 7b3e ab6e b43f
00000010: fe0c 853f b8b8 463f a460 603f 6117 03c0
00000020: 1d72 4d3f 7bc9 d7bf 5840 703f 585c a03f
00000030: 6453 53bf 5ed9 d93e a8d5 0fc0 10f5 423f
00000040: 810e 14c0 b085 753f ca16 af3f a56e 843e
00000050: c491 0ac0 cad2 1a3f 89f4 373f 6b33 11be
00000060: c70c 313f e966 aa3f 7d77 783f 8aea 01c0
00000070: 70db c3bf d0c1 11c0 18a5 b13f f3f9 4c3f
00000080: 14cf 573f 6861 bf3e 9830 15c0 3e6b 0bc0
00000090: 8ea1 ea3e a805 0e3f 3025 993e fd57 793f
000000a0: 7793 183f 5b1f 53bf bee6 30c0 764f 88bb
000000b0: dc9a 6b3f 7767 3d3f b289 8a3d 111e 623e
000000c0: 1fb5 f03e 571e fb3e 9c0e 153f 2273 2e3f
000000d0: 12b8 083f 6df8 1dc0 8782 1ec0 c991 373f
000000e0: efc3 1dc0 d0c6 813f 66c1 123f 6383 da3e
000000f0: 7a4c 323f f3d8 cb3e 7a1c 1d3f b184 19c0

linear.bias f4 [4]
-0.31259868 -0.0001346381 0.31675738 -0.07931038
00000000: ef0c a0be a42d 0db9 062e a23e 7b6d a2bd
