models/pneumonia_mnist.pt (torch, 418115 bytes, 14 tensors)

prototypes f4 [4, 576]
0	0x3eefafd3	0.4681383
1	0x3ecc1fae	0.3986792
2	0x3edd63a4	0.43240082
3	0x3e823bd8	0.25436282
4	0x3f008013	0.50195426
5	0x3ebf80af	0.37402865
6	0x3f037330	0.5134764
7	0x3ef22ff4	0.4730221
8	0x3f3a4f8a	0.72777617
9	0x3f1e0c04	0.61737084
10	0x3e9d7942	0.30756575
11	0x3ec14cbd	0.3775386
12	0x3ecafaee	0.3964457
13	0x3e76107c	0.24029726
14	0x3f2115b9	0.6292377
15	0x3dcc399e	0.09971927
16	0x3f002ee3	0.50071543
17	0x3e59617e	0.21228597
18	0x3edde35c	0.43337524
19	0x3f2b4c74	0.66913533
20	0x3ecab594	0.39591658
21	0x3ed5e79c	0.41778266
22	0x3efa563b	0.48893914
23	0x3f04688b	0.5172202
24	0x3ee7e7f7	0.45294163
25	0x3eae3670	0.34025908
26	0x3f277223	0.65408534
27	0x3f2687b9	0.65050846
28	0x3ee7941a	0.4523018
29	0x3ef805a9	0.48441818
30	0x3eef5a62	0.46748644
31	0x3eded0a7	0.43518564
32	0x3f31e9cc	0.6949737
33	0x3eec3f8c	0.46142232
34	0x3f078349	0.529347
35	0x3ec1634f	0.3777108
36	0x3eba3b98	0.3637359
37	0x3e9a6de4	0.30161965
38	0x3f1a9652	0.6038562
39	0x3de8a775	0.11360065
40	0x3ed7b31e	0.42128843
41	0x3ea12b27	0.31478235
42	0x3f34c084	0.70606256
43	0x3ebfe865	0.3748199
44	0x3ebe7b0a	0.37203246
45	0x3e1684a3	0.14699034
46	0x3f07b955	0.5301717
47	0x3f27e558	0.65584326
48	0x3ecb27c4	0.39678776
49	0x3edb1ca0	0.42795277
50	0x3ed98a25	0.42488208
51	0x3eddd99c	0.43330085
52	0x3eb9e7a6	0.36309546
53	0x3ec454b0	0.3834586
54	0x3eda453c	0.42630947
55	0x3ecfd837	0.40594646
56	0x3f0235b5	0.508632
57	0x3f188e8f	0.5959253
58	0x3edcb292	0.43104988
59	0x3f13fc30	0.5780668
60	0x3f12390b	0.5711829
61	0x3ec5126e	0.38490623
62	0x3efd2d64	0.49448693
63	0x3eeab01e	0.45837492
64	0x3ebc0919	0.3672569
65	0x3eb4db1a	0.3532341
66	0x3eef0d58	0.46689868
67	0x3ee94e2f	0.45567462
68	0x3f05cc24	0.5226462
69	0x3ec206f1	0.3789592
70	0x3eb5bb67	0.3549454
71	0x3f2f6927	0.68519825
72	0x3e2b3b9b	0.16721956
73	0x3ed2a774	0.41143382
74	0x3ec7c11d	0.3901452
75	0x3f16ea5a	0.5895134
76	0x3ee26ca0	0.442235
77	0x3eb38010	0.3505864
78	0x3f02500b	0.50903386
79	0x3ebe9372	0.37221867
80	0x3ec4dba5	0.38448825
81	0x3eec402b	0.46142706
82	0x3ed5b36d	0.41738454
83	0x3f12f87f	0.57410425
84	0x3f1637e2	0.5867902
85	0x3eca2ca6	0.3948719
86	0x3ece7bc7	0.4032881
87	0x3eb5bb59	0.35494497
88	0x3eed55d0	0.46354532
89	0x3ea527ec	0.3225702
90	0x3eb8aeb2	0.36070782
91	0x3eabc49f	0.33548447
92	0x3ebb0167	0.36524507
93	0x3eb8dda4	0.36106598
94	0x3ece4a6f	0.40291163
95	0x3eccd130	0.40003347
96	0x3f064cbe	0.5246085
97	0x3eef43ca	0.46731406
98	0x3f05e831	0.5230742
99	0x3eae7414	0.34072936
100	0x3f1a8c66	0.6037048
101	0x3ef3c2c7	0.4760954
102	0x3ed102b3	0.40822372
103	0x3eef5c93	0.46750316
104	0x3f1b6b5b	0.60710686
105	0x3ecac1c7	0.39600965
106	0x3eca0608	0.39457726
107	0x3ec79cdd	0.38986865
108	0x3ee10b3f	0.43953893
109	0x3ecd67ef	0.40118358
110	0x3ef15073	0.4713169
111	0x3ea804e2	0.32816225
112	0x3efe145d	0.4962491
113	0x3ec28f05	0.3799974
114	0x3f1d2e86	0.61399114
115	0x3ed883b7	0.4228799
116	0x3ecffddd	0.4062337
117	0x3e17d67c	0.14827913
118	0x3f0c5a8f	0.5482568
119	0x3efa14f2	0.48844105
120	0x3f0f34f0	0.5594015
121	0x3eecb579	0.46232203
122	0x3ece0e0d	0.40245095
123	0x3ee2a6ea	0.4426797
124	0x3eb55174	0.35413706
125	0x3ee04217	0.43800423
126	0x3f1c4c48	0.61053896
127	0x3eee1362	0.46499163
128	0x3ec79345	0.38979545
129	0x3ec4fc39	0.3847368
130	0x3ea51050	0.32239008
131	0x3eb11e4d	0.3459343
132	0x3ef472c3	0.47743806
133	0x3eb70f15	0.35753694
134	0x3eab9c0c	0.33517492
135	0x3ebbc81e	0.36676115
136	0x3e9d3677	0.30705616
137	0x3f0b86b8	0.5450244
138	0x3e5ff827	0.21872006
139	0x3eb4d7b8	0.3532083
140	0x3eab385a	0.3344143
141	0x3ee83ceb	0.45358977
142	0x3ead42c8	0.33840013
143	0x3ea35013	0.3189703
144	0x3edc9fb9	0.4309061
145	0x3ed00455	0.40628305
146	0x3ed2d532	0.4117828
147	0x3f152479	0.5825878
148	0x3ebc4c3f	0.3677692
149	0x3f25d7ec	0.64782596
150	0x3e8ea111	0.2785726
151	0x3edfe32a	0.43728
152	0x3ebe3ae1	0.37154296
153	0x3ec700a6	0.38867682
154	0x3e95a6fc	0.2922896
155	0x3f23adb6	0.63936937
156	0x3e707bdb	0.23484747
157	0x3f06b4fa	0.526199
158	0x3eafa4fd	0.34305564
159	0x3f3b73fb	0.7322385
160	0x3eed73d5	0.46377435
161	0x3f11e2ec	0.5698688
162	0x3eda873e	0.42681307
163	0x3edf6b8e	0.43636745
164	0x3eed1e48	0.46312165
165	0x3f0877f9	0.53308064
166	0x3e8d3e4d	0.27586594
167	0x3eaa126c	0.3321718
168	0x3e952798	0.2913177
169	0x3e981008	0.2969973
170	0x3ea17781	0.31536487
171	0x3e4ee593	0.20204763
172	0x3e5f0118	0.21777761
173	0x3e432fc1	0.19061185
174	0x3e2e63fa	0.17030326
175	0x3e86c16b	0.2631944
176	0x3e3dd5e6	0.18538627
177	0x3e7aeaa1	0.24503566
178	0x3e8f06a2	0.27934748
179	0x3ea082ca	0.31349784
180	0x3ec1389c	0.37738502
181	0x3ea63c5b	0.32467923
182	0x3eb012fc	0.34389484
183	0x3eaad426	0.3336498
184	0x3ed0efd3	0.4080797
185	0x3e86eaac	0.26350915
186	0x3ee027be	0.4378032
187	0x3ec232cf	0.3792939
188	0x3ec10422	0.37698466
189	0x3eebbb1c	0.4604119
190	0x3eb375a6	0.35050696
191	0x3eb54e3f	0.3541126
192	0x3f1c54e0	0.6106701
193	0x3e90e57e	0.2830009
194	0x3ebb3914	0.36566985
195	0x3df43050	0.119232774
196	0x3f0a7c80	0.5409622
197	0x3f1c436b	0.6104037
198	0x3e806ec7	0.25084516
199	0x3ed47c9a	0.41501313
200	0x3ed96c98	0.42465663
201	0x3f034786	0.5128101
202	0x3edc1dc4	0.4299146
203	0x3ea84267	0.3286316
204	0x3ee8c46e	0.45462364
205	0x3ec659a2	0.3874026
206	0x3ec33202	0.3812409
207	0x3e823e35	0.25438085
208	0x3f09a2fd	0.53764325
209	0x3eb94f2b	0.36193213
210	0x3e91d62d	0.28483716
211	0x3e8cfc5a	0.2753628
212	0x3efe1e98	0.49632716
213	0x3df2bea9	0.11852772
214	0x3ec05016	0.375611
215	0x3e025274	0.12726766
216	0x3f39e54e	0.72615516
217	0x3ed167b9	0.40899447
218	0x3ee0308a	0.43787032
219	0x3ee925bf	0.4553661
220	0x3ec60f9a	0.38683778
221	0x3efadc05	0.48995987
222	0x3ecbadaa	0.39780933
223	0x3ed2e0c6	0.41187114
224	0x3ed4f3ef	0.41592357
225	0x3ee8ad23	0.45444593
226	0x3ec0a792	0.37627846
227	0x3ec8d980	0.3922844
228	0x3ea9e8cb	0.3318542
229	0x3ef355ab	0.47526297
230	0x3ee1d2d0	0.4410615
231	0x3f0b8b01	0.5450898
232	0x3f0e68cd	0.55628663
233	0x3f3909d2	0.7228061
234	0x3ebab9e7	0.36469957
235	0x3eed27cd	0.46319428
236	0x3eda06da	0.42583352
237	0x3f087d8c	0.5331657
238	0x3e85f25e	0.26161474
239	0x3f28d8ef	0.65956014
240	0x3d8b4398	0.06800002
241	0x3ec15077	0.37756702
242	0x3dd2a6ae	0.10285698
243	0x3eb8dcd5	0.3610598
244	0x3ee757af	0.45184085
245	0x3e8557f5	0.26043668
246	0x3ebf4290	0.3735547
247	0x3e8922ca	0.26784354
248	0x3ea1d3e5	0.31606975
249	0x3eb43d13	0.35202846
250	0x3e907c7c	0.28219974
251	0x3eb2f58c	0.34952962
252	0x3eb7d607	0.35905477
253	0x3ea9d0c4	0.33167088
254	0x3e9c03c5	0.30471626
255	0x3e8116ae	0.25212616

encoder.0.weight f4 [32, 1, 3, 3]
0	0xbeb52e6a	-0.35386974
1	0xbec7974f	-0.38982627
2	0xbe34f90a	-0.17673126
3	0xbdf5d814	-0.12004104
4	0x3cc4a8a7	0.024006201
5	0x3e9d35d4	0.3070513
6	0x3e4d77f9	0.20065297
7	0xbe51532b	-0.20441882
8	0x3a350ec3	0.0006906802
9	0x3e310a1d	0.17289014
10	0x3da31c29	0.079643555
11	0x3dbbda14	0.091724545
12	0x3e14c4ff	0.14528273
13	0xbe4cb69d	-0.19991536
14	0x3df32983	0.11873152
15	0xbc996dad	-0.018729055
16	0xbbc821cc	-0.0061075445
17	0xbded9c6d	-0.116021015
18	0x3e4016a3	0.18758635
19	0x3d730575	0.059331376
20	0xbe701319	-0.23444785
21	0x3cceb102	0.025230888
22	0x3e215fad	0.15759154
23	0x3d7d8f31	0.061904136
24	0x3e82d5c7	0.25553724
25	0x3e116db0	0.14201999
26	0xbe032c13	-0.12809782
27	0x3e4ec80a	0.20193496
28	0x3e60402d	0.21899481
29	0x3ea833b1	0.32851937
30	0xbe400180	-0.18750572
31	0x3e2c32ab	0.16816203
32	0xbe1db42e	-0.15400764
33	0x3ebaa366	0.36452788
34	0xbe74bd25	-0.23900278
35	0xbd3b232f	-0.04568785
36	0xbe97d807	-0.29657003
37	0xbc8a4aa9	-0.016881304
38	0x3d9a20a2	0.075257555
39	0xbe8fade7	-0.28062364
40	0x3de88e8a	0.11355312
41	0x3d944d02	0.072412506
42	0x3e2f9b2f	0.17149042
43	0x3e402a8d	0.18766232
44	0x3c8a6fe6	0.01689906
45	0x3d74f401	0.059803013
46	0x3e1d33e0	0.1535182
47	0xbe23054b	-0.15919988
48	0xbea3ab53	-0.31966648
49	0xbddde65d	-0.10834954
50	0x3d62fd4e	0.05541735
51	0x3e14dbd5	0.14536984
52	0x3dcb22d0	0.09918749
53	0x3c917566	0.017756175
54	0xbe2c56b1	-0.16829945
55	0x3e32800f	0.17431663
56	0xbe1539f5	-0.1457289
57	0x3dbf0cd4	0.09328619
58	0xbd46d032	-0.048538394
59	0x3e6c7b67	0.2309395
60	0x3d939f33	0.07208099
61	0xbc236bc0	-0.00997442
62	0xbc29f123	-0.010372433
63	0x3c777b00	0.015105009
64	0xbe0f1ea0	-0.13976526
65	0x3cf82f6b	0.030296048
66	0x3e5055a8	0.20345175
67	0xbc5f4880	-0.013628125
68	0xbea21068	-0.31653142
69	0xbe6ae5ce	-0.22939226
70	0xbdeb0150	-0.1147486
71	0xbcc03b56	-0.023465794
72	0x3eb312fe	0.34975427
73	0xbb6694d9	-0.0035183935
74	0x3e27d837	0.16391073
75	0x3ea04cfa	0.31308728
76	0xbdca71ba	-0.09884973
77	0xbe73c698	-0.23806226
78	0x3e867261	0.2625914
79	0xbe563a7c	-0.20920748
80	0xbd5eda96	-0.05440768
81	0xbe24261b	-0.16030161
82	0xbea61eeb	-0.32445464
83	0xbdc92d94	-0.098231465
84	0x3e3419b4	0.1758793
85	0x3d8f9f78	0.07012838
86	0x3de8b598	0.11362761
87	0x3e5a38cd	0.2131073
88	0x3e7110d6	0.23541579
89	0xbe24c954	-0.16092426
90	0xbdfa09b6	-0.122088835
91	0x3db3febb	0.0878882
92	0x3e89da23	0.26924238
93	0xbe13260b	-0.14369981
94	0xbbd876ab	-0.006605943
95	0xbe7b1080	-0.24518013
96	0xbe89fc18	-0.26950145
97	0xbc99a0eb	-0.01875349
98	0xbe4dda76	-0.20102867
99	0xbcaa4445	-0.020784507
100	0x3e706c90	0.23478913
101	0xbcb1c3e5	-0.021699855
102	0xbd0852fe	-0.033282273
103	0x3e09a30c	0.13441104
104	0xbe3aba0f	-0.18235038
105	0x3d843812	0.06456007
106	0xbe33c8d9	-0.17557086
107	0xbe528cb3	-0.20561485
108	0x3eb74e34	0.35801852
109	0xbe141617	-0.14461552
110	0xbd183a57	-0.037165012
111	0xbea5a490	-0.32352114
112	0x3a9b2401	0.0011836292
113	0x3e389292	0.18024662
114	0xbdacbf37	-0.08434909
115	0x3e6fbd6a	0.234121
116	0xbe03b1d0	-0.12860799
117	0xbe9504cf	-0.2910523
118	0x3e842f03	0.25817117
119	0x3e8db925	0.27680317
120	0xbedd6b98	-0.4324615
121	0x3ead281a	0.33819658
122	0x3e99f3eb	0.30068907
123	0xbdf2c33f	-0.118536465
124	0xbe63ab8b	-0.22233407
125	0x3de2a6de	0.11066984
126	0xbe81c7cc	-0.25347745
127	0xbdb2094a	-0.08693178
128	0x3d9900bb	0.074708425
129	0x3ea6a4a4	0.32547486
130	0x3e96e17e	0.29468912
131	0x3d2eee1b	0.042707544
132	0xbe0e2eb6	-0.13885006
133	0xbe8a3252	-0.26991516
134	0xbea2fc25	-0.31832996
135	0xbe5304e2	-0.20607331
136	0x3e07e33a	0.13270274
137	0xbdf40b8c	-0.11916265
138	0xbe923080	-0.28552628
139	0x3e8271e1	0.25477508
140	0xbe3fbb3e	-0.18723771
141	0x3ec44a89	0.38338116
142	0x3e84d606	0.25944537
143	0xbd4ea916	-0.05045422
144	0xbe1d7d38	-0.15379798
145	0xbcd4af6b	-0.025962552
146	0xbe00c6ce	-0.12575838
147	0xbe2ccc88	-0.16874897
148	0x3e13e30b	0.14442079
149	0x3e056ab0	0.1302898
150	0x3e54a578	0.20766246
151	0xbe79e598	-0.2440399
152	0xbc9a9156	-0.01886813
153	0xbd991b64	-0.074759275
154	0xbe9a4090	-0.30127382
155	0x3e3072fb	0.17231362
156	0xbe4717fe	-0.19442746
157	0xbc906185	-0.017624626
158	0x3e1a7b42	0.15086082
159	0x3e3fd1fd	0.18732448
160	0x3eafc62a	0.34330875
161	0x3cab2a59	0.020894216
162	0x3ec63b65	0.3871719
163	0x3cd31281	0.02576566
164	0xbe91847d	-0.28421393
165	0xbe0fed26	-0.14055309
166	0xbea3a39c	-0.31960762
167	0xbdbb6a51	-0.091511376
168	0x3e952dae	0.29136413
169	0x3eab25ca	0.33427268
170	0xbe78d0c2	-0.24298385
171	0x3c0318e9	0.0080015445
172	0xbe3d23ef	-0.18470739
173	0x3eade4f2	0.33963734
174	0x3e6f5489	0.23372091
175	0xbdc3e9ef	-0.09566104
176	0x3e18d766	0.14925918
177	0xbec50ee5	-0.38487926
178	0xbeaaedc9	-0.3338454
179	0x3e48ba9e	0.19602439
180	0x3e1631d8	0.14667451
181	0x3e999940	0.29999733
182	0xbe61c5e3	-0.22048144
183	0x3e07696a	0.13223806
184	0xbe3905e9	-0.18068661
185	0x3b0d4ba7	0.0021559985
186	0xbd42720b	-0.04747204
187	0x3e584cf3	0.21123104
188	0xbdce3c0f	-0.10070049
189	0xbe5a98df	-0.21347378
190	0xbe5ec558	-0.21754968
191	0xbe810ae6	-0.25203627
192	0x3ed2a1f6	0.4113919
193	0xbe575ed3	-0.21032266
194	0xbe2936c4	-0.16524798
195	0x3e9ffa08	0.31245446
196	0x3e822862	0.25421435
197	0x3eb63aac	0.35591638
198	0xbd9c09c6	-0.07619052
199	0x3e582792	0.21108845
200	0xbc247ecb	-0.010039995
201	0x3e8a65da	0.27030832
202	0x3e8d796d	0.27631703
203	0xbea77da3	-0.3271304
204	0xbcb998c8	-0.02265586
205	0xbe60cba1	-0.21952678
206	0xbe6a821c	-0.22901195
207	0xbe659513	-0.22420149
208	0x3e88246f	0.26590297
209	0x3e999d81	0.30002978
210	0x3e807fd3	0.25097522
211	0x3e8a83ac	0.27053583
212	0xbe49594a	-0.19662967
213	0xbdc8f3b0	-0.09812105
214	0xbe505ec8	-0.20348656
215	0xbe47ceb9	-0.19512452
216	0x3e3da4e3	0.1851993
217	0xbc580afc	-0.013186213
218	0xbe2da593	-0.16957693
219	0xbdf7a8c7	-0.120927386
220	0xbe00eb0c	-0.12589663
221	0xbd4b2c41	-0.04960275
222	0xbc8241b1	-0.015900465
223	0xbe2f13f5	-0.17097457
224	0xbe1a7eb8	-0.15087402
225	0x3e4657b6	0.19369397
226	0xbe968d36	-0.2940461
227	0xbe8a257d	-0.26981726
228	0x3ea8522d	0.32875195
229	0x3e317dc0	0.17333126
230	0xbe9bc5a3	-0.30424222
231	0xbeb36927	-0.35041162
232	0x3e89a3c5	0.2688276
233	0x3e45bcfb	0.19310372
234	0x3ccb75e2	0.024836484
235	0xbecb65af	-0.39726016
236	0xbeb973c2	-0.3622113
237	0x3ea242e4	0.31691658
238	0xbdd6e668	-0.10493165
239	0x3e42efa1	0.19036724
240	0xbd1d4083	-0.0383916
241	0xbdd4c548	-0.10389191
242	0xbe1859e9	-0.14878048
243	0xbc57ec91	-0.01317896
244	0xbe12e94a	-0.14346805
245	0xbe975232	-0.29554898
246	0xbe667aa5	-0.22507723
247	0x3dbc7a7e	0.09203051
248	0x3e73930a	0.2378656
249	0xbeadb6cf	-0.33928534
250	0x3e62dab8	0.22153747
251	0x3e84db62	0.25948626
252	0x3e42d9d0	0.19028401
253	0xbe563a3d	-0.20920654
254	0x3da60d32	0.081079856
255	0x3e1b0de9	0.15142025

encoder.0.bias f4 [32]
0	0x3e9ec1c7	0.31007215
1	0xbe155247	-0.14582168
2	0xbea9442e	-0.3305983
3	0xbeb52ac2	-0.35384184
4	0xbdad309e	-0.084565386
5	0xbc2d8403	-0.010590556
6	0xbe699b09	-0.22813047
7	0xbe91dfae	-0.28490967
8	0xbeb7510c	-0.3580402
9	0xbd4ca810	-0.049964964
10	0xbe782010	-0.24230981
11	0xbda48e4c	-0.080349535
12	0xbc59831d	-0.013275889
13	0xbe858e68	-0.2608521
14	0x3e41dd4d	0.18932076
15	0xbdb3cb8e	-0.08779059
16	0xbe803292	-0.25038582
17	0xbe48df6b	-0.19616477
18	0xbc30d070	-0.010791883
19	0xbb073172	-0.0020628837
20	0xbe62bd31	-0.22142483
21	0xbe75bbe0	-0.2399745
22	0x3d45c5b9	0.048284266
23	0xbddcae20	-0.10775399
24	0x3e3d8316	0.18507037
25	0x3c90a0bc	0.01765477
26	0x3e5579a1	0.20847179
27	0x3da0d603	0.078533195
28	0xbd42f850	-0.04760009
29	0xbe80365c	-0.25041473
30	0xbe91a4a3	-0.2844592
31	0xbe1c10bc	-0.15240759

encoder.4.weight f4 [64, 32, 3, 3]
0	0xbe0ee0b7	-0.1395291
1	0xbc4f4fa8	-0.012653269
2	0xbda17cd3	-0.078851365
3	0xbc9a91c9	-0.018868344
4	0xbd507cfe	-0.05090045
5	0xbd907334	-0.07053223
6	0xbd11d74b	-0.03560571
7	0xbd76e7aa	-0.060279526
8	0xbc77eb9c	-0.015131857
9	0x3d5bd3e1	0.05366886
10	0x3d90fed9	0.07079858
11	0xbca8119e	-0.020516213
12	0xbd7383a1	-0.059451703
13	0x39f0f3b7	0.0004595795
14	0x3d163bc8	0.036678106
15	0xbdc487c9	-0.095962115
16	0x3ba5ebae	0.0050634956
17	0xbd8e4011	-0.069458134
18	0x3c95050f	0.018190889
19	0xbd319202	-0.043352135
20	0xbd7c1559	-0.061543796
21	0xbddaa93b	-0.106768094
22	0xbd34cd93	-0.044141363
23	0xbd7640eb	-0.060120504
24	0xbdf45a55	-0.11931292
25	0xbdaa14dd	-0.083047606
26	0xbc8e8882	-0.017399076
27	0x3e1511de	0.14557597
28	0x3cac828c	0.021058343
29	0xbd7a367b	-0.061087113
30	0xbc3eab2c	-0.01163749
31	0xbdd92e4a	-0.10604532
32	0xbd898c6b	-0.06716236
33	0xbd70a12b	-0.05874745
34	0xbd5c3344	-0.05375983
35	0xbceecb2a	-0.02914961
36	0xbd818a67	-0.06325226
37	0xbd6bfda3	-0.057614934
38	0xb9f6f566	-0.00047103612
39	0x3d970296	0.0737354
40	0x3d790c13	0.06080253
41	0x3d4397c9	0.047752175
42	0x3d93654e	0.07197057
43	0xbd96b769	-0.073592015
44	0xbdee190b	-0.1162587
45	0xbc300fa1	-0.010745914
46	0x3d011348	0.03151253
47	0xbbeed4dc	-0.0072885584
48	0x3c33cafb	0.010973687
49	0xbceb4917	-0.028721375
50	0x3bf2c650	0.0074088946
51	0x3c777346	0.015103167
52	0xbd995650	-0.07487166
53	0xbc2d5823	-0.010580095
54	0x3d103cb0	0.035214126
55	0xbc79254c	-0.015206646
56	0x3bdb063e	0.0066840937
57	0xbd328858	-0.04358706
58	0xbb38792f	-0.0028148403
59	0x3d271c00	0.040798187
60	0x3a96a92a	0.0011494507
61	0xbd1d1236	-0.038347445
62	0x3d00b387	0.03142121
63	0x3d20d064	0.039261237
64	0x3d623a47	0.05523136
65	0xbb373062	-0.0027952422
66	0x3d238a56	0.03992685
67	0x3d3001ba	0.042970397
68	0x3c99a34c	0.018754624
69	0x3d678bb9	0.056529734
70	0x3c00a55a	0.007851923
71	0x3d2c8710	0.042120993
72	0x3dd0ebe1	0.1020124
73	0x3d9db982	0.077013984
74	0xbe0322af	-0.128062
75	0xbd63403f	-0.05548119
76	0xbdd82068	-0.10553056
77	0xbde0bbd7	-0.109733276
78	0xbddc02c1	-0.10742713
79	0xbd833d70	-0.06408203
80	0x3bc7c561	0.0060965274
81	0xbdb71a3f	-0.08940553
82	0xbd829257	-0.06375568
83	0x3ca5bb3d	0.020230884
84	0xbd26a6cd	-0.040686417
85	0x3ca3de07	0.020003332
86	0x3d79f69d	0.061026204
87	0xbdb1694a	-0.086626604
88	0xbc915b7b	-0.017743817
89	0xbd91d4dd	-0.071206786
90	0x3b8978b4	0.004195297
91	0x3d450b72	0.04810662
92	0x3a905309	0.0011011075
93	0xbc8df50c	-0.017328762
94	0x3d22da5c	0.039759025
95	0xbbf86ae3	-0.0075811013
96	0x3ca88f0b	0.02057602
97	0x3d6826b3	0.05667753
98	0x3cb11072	0.021614287
99	0x3d77b630	0.060476482
100	0xbcaa70f1	-0.020805808
101	0xbce65ece	-0.028121378
102	0x3d47979d	0.048728574
103	0xbd92c7b0	-0.071669936
104	0x3d6436f5	0.055716474
105	0x3d1080b1	0.03527898
106	0x3d6ba815	0.057533342
107	0x3d827d87	0.06371599
108	0x3d32bf3f	0.043639418
109	0x3dfe8bf4	0.12429038
110	0x3c96d38a	0.018411417
111	0xbe06bfe0	-0.13159132
112	0x3dc04b11	0.09389318
113	0xbe85729f	-0.2606401
114	0xbd808862	-0.06276013
115	0xbdfa0624	-0.122082025
116	0xbd949553	-0.07255044
117	0xbe84c0cf	-0.2592835
118	0xbe87dcd6	-0.26535672
119	0xbe8f0efb	-0.27941117
120	0xbd542644	-0.051794305
121	0xbd3da2d2	-0.046297856
122	0xbe3942e1	-0.18091919
123	0xbe796d23	-0.24358039
124	0xbb73928e	-0.003716621
125	0xbde5ddf6	-0.11223976
126	0x3d902550	0.07038367
127	0x3d349e54	0.044096306
128	0x3e02e569	0.12782826
129	0xbdccc3f8	-0.099983156
130	0x3cce407b	0.025177231
131	0x3e370757	0.17873894
132	0x3c917b29	0.017758923
133	0x3c793e72	0.015212642
134	0xbd6acb32	-0.05732269
135	0xbe55a1a2	-0.2086244
136	0xbe0e5de5	-0.13903005
137	0x3ca7022d	0.02038678
138	0x3d7bd68d	0.06148391
139	0x3c5a3582	0.013318421
140	0x3e341feb	0.175903
141	0x3dd21e9a	0.10259743
142	0x3bf9525f	0.0076086964
143	0xbde7cbfd	-0.113182046
144	0xbd6e3032	-0.05815143
145	0x3c70c726	0.014695918
146	0xbd2b7153	-0.04185612
147	0xbcf8b622	-0.030360285
148	0xbd6c5a00	-0.05770302
149	0xbd4b48a7	-0.049629834
150	0xbd442aa5	-0.04789223
151	0x3d5e5cb8	0.054287642
152	0x3caa2994	0.02077178
153	0xbcd1d152	-0.025612507
154	0xbd17df37	-0.03707811
155	0x3bcbbac6	0.0062173335
156	0x3c72ce60	0.014819711
157	0x3d3e0356	0.0463899
158	0x3cfc2b7a	0.03078245
159	0x3d3b5c1c	0.04574214
160	0xbd45c4f3	-0.04828353
161	0xbde8600c	-0.113464445
162	0xbe40d501	-0.18831255
163	0x3a4dcc0b	0.0007850534
164	0xbcc61ab9	-0.024182664
165	0xbeaeaed9	-0.34117773
166	0xbec5a6bc	-0.3860377
167	0xbd6ef03e	-0.05833458
168	0xbe546d95	-0.20744927
169	0x3c031cfd	0.008002517
170	0x3d27f45f	0.041004535
171	0x3ded0db7	0.115748815
172	0xbdbcf2a1	-0.09225965
173	0xbe90debf	-0.28294942
174	0xbd3ec81b	-0.046577554
175	0xbdb8ab66	-0.09017067
176	0x3be1c98d	0.006890482
177	0xbe03e07f	-0.12878607
178	0x3caf13a1	0.021371664
179	0x3cd52316	0.026017707
180	0x3db0669f	0.086133234
181	0xbd188cb8	-0.037243575
182	0xbd9a986d	-0.07548604
183	0x3c096bf0	0.008387551
184	0xbd0dcb68	-0.03461781
185	0x3c41b707	0.011823422
186	0xbbb398d3	-0.0054808646
187	0xbd13a0a5	-0.036041874
188	0x3ab7c965	0.0014021812
189	0xbe4210b5	-0.18951686
190	0xbe00f0b8	-0.12591827
191	0xbda5e065	-0.080994405
192	0xbda6da60	-0.081471205
193	0xbd39995a	-0.045312263
194	0xbdb1c1d2	-0.086795464
195	0xbd7f3dea	-0.062314905
196	0xbd7c54cc	-0.061604306
197	0xbe82cf24	-0.2554866
198	0x3e12086f	0.1426103
199	0xbd80c0fc	-0.06286809
200	0x3b68fd9b	0.0035551551
201	0xbe41c098	-0.18921125
202	0xbdb60657	-0.08887928
203	0x3d8f078f	0.069838636
204	0xbcf3e01a	-0.029769946
205	0x3e0194aa	0.12654367
206	0x3e097a76	0.13425621
207	0x3e2e6e4a	0.1703426
208	0xbdc9c4c0	-0.0985198
209	0xbc44369a	-0.011975909
210	0xbdd51087	-0.10403543
211	0xbd967088	-0.073456824
212	0xbc3c7287	-0.011501915
213	0x3ce2bef2	0.02767894
214	0x3ce348ba	0.02774464
215	0x3cbe7e97	0.023253722
216	0x3d627691	0.055288855
217	0xbcb266b0	-0.02177748
218	0xb924a53c	-0.00015701813
219	0xbcaf7b21	-0.021421017
220	0xbd67ca4d	-0.056589413
221	0x3d001677	0.031271424
222	0x3cbf63b3	0.02336297
223	0x3d1c8ab5	0.03821822
224	0x3d99386d	0.074814655
225	0xbe2ef21f	-0.1708455
226	0xbd35d25f	-0.04439008
227	0xbd735c20	-0.05941403
228	0xbe0ce2d3	-0.13758402
229	0xbd6b4e67	-0.057447817
230	0xbddabc93	-0.10680499
231	0xbd07ccd7	-0.033154335
232	0x3d56c113	0.052430224
233	0x3e079bfc	0.13243097
234	0xbd68b56a	-0.056813635
235	0xbc9da003	-0.019241339
236	0xbcb11434	-0.021616079
237	0xbd430987	-0.047616508
238	0xbd8cd518	-0.06876582
239	0xbd57f644	-0.05272509
240	0x3d8cf8c6	0.06883387
241	0x3c8b8754	0.017032303
242	0x3d09e1bb	0.03366254
243	0xbce86a32	-0.02837095
244	0x3d264fef	0.040603574
245	0x3d848d1b	0.06472226
246	0xbc82d550	-0.015970856
247	0x3b908eb1	0.0044115414
248	0xbd94cd5a	-0.0726573
249	0x3de3c94f	0.11122381
250	0xbde5cbe2	-0.11220528
251	0xbd288ba7	-0.041148808
252	0xba8d226a	-0.0010767702
253	0xbc5e87a1	-0.013582141
254	0xbdef9fa1	-0.11700369
255	0xbdb1800a	-0.08667

encoder.4.bias f4 [64]
0	0x3d6865e1	0.056737784
1	0xbd24af2c	-0.04020612
2	0x3de884be	0.113534436
3	0x3e10b5aa	0.141318
4	0x3d40657c	0.046971783
5	0xbcc7fe9e	-0.024413403
6	0x3d4ce61e	0.050024144
7	0xbe036cf9	-0.12834539
8	0x3d95e2b1	0.073186286
9	0x3cf79949	0.03022446
10	0x3cd1dcaf	0.025617925
11	0xbca99e1f	-0.02070528
12	0x3ca8b37e	0.020593401
13	0x3db94424	0.090462
14	0x3da3e3e2	0.080024496
15	0xbe0c02b2	-0.13672903
16	0x3c3ae9d4	0.011408288
17	0x3da22b2f	0.07918393
18	0xbd2879e0	-0.041131854
19	0xbd0266e2	-0.031836398
20	0x3d534e55	0.051588375
21	0x3cb0b243	0.021569377
22	0xbc986069	-0.01860066
23	0x3db2f0f3	0.08737364
24	0x3dcdeba7	0.10054713
25	0x3dc3a3cd	0.09552727
26	0xbd36179b	-0.044456106
27	0x3df58509	0.11988265
28	0x3d827b52	0.06371178
29	0xbd9c9935	-0.076464094
30	0xbc5adc1a	-0.01335814
31	0xbc721f21	-0.0147779295
32	0x3d105ab9	0.03524277
33	0x3d60561b	0.054769617
34	0x3c788394	0.015168089
35	0xbb6e3c93	-0.0036352023
36	0x3dc6969e	0.09696697
37	0x3c9dd50a	0.019266624
38	0x3cd99276	0.026559096
39	0x3d93f481	0.0722437
40	0x3ce92fe4	0.028465219
41	0xbc7cb80c	-0.01542474
42	0xbbc29601	-0.005938292
43	0x3d87780d	0.06614695
44	0x3d6fca20	0.05854237
45	0x3d1169e1	0.035501365
46	0xbe0b7e5c	-0.13622421
47	0xbdd93723	-0.106062196
48	0x3dbcb834	0.092148215
49	0xbd9eac07	-0.07747655
50	0x3dbc7ac3	0.092031024
51	0xbca64b93	-0.020299708
52	0x3d23e017	0.04000863
53	0x3e1586ce	0.14602205
54	0xbe08f51a	-0.13374749
55	0xbdd657db	-0.10465976
56	0x3bdedc2b	0.0068011484
57	0xbd6be566	-0.05759182
58	0x3d9db561	0.07700611
59	0xbc5ca841	-0.013467849
60	0x3cf3e1aa	0.029770691
61	0x3b104f7c	0.0022020033
62	0x3da6cd86	0.08144669
63	0xbdb3d44d	-0.087807275

encoder.8.weight f4 [64, 64, 3, 3]
0	0x3d899fce	0.067199335
1	0x3a031455	0.0005000283
2	0xbd8f1ceb	-0.069879375
3	0xbd018c14	-0.03162773
4	0xbcca3b2d	-0.02468642
5	0xbc133eb4	-0.008987118
6	0x3c4fb62d	0.012677711
7	0x3d80a0d4	0.062806755
8	0x3d0c3105	0.034226436
9	0x3d2f8d8a	0.04285959
10	0xbd9099d5	-0.07060591
11	0x3bf71beb	0.00754117
12	0x3bd8dee5	0.006618368
13	0xbc52e63b	-0.012872274
14	0x3d9d5bb1	0.076835044
15	0x3bc899c3	0.0061218455
16	0x3cde6dfe	0.027152058
17	0xbbb8224b	-0.0056193224
18	0x3c760da6	0.0150179025
19	0xbd9daaef	-0.076986186
20	0x3d12cc95	0.035839636
21	0x3cf7e2ac	0.030259453
22	0x3d9461df	0.0724523
23	0xbd42164f	-0.047384556
24	0xbc6ef01b	-0.014583613
25	0xbd8fb6e0	-0.070173025
26	0xbc83d9e1	-0.016095104
27	0xbc9fef15	-0.019523183
28	0x3bc9e6ad	0.006161532
29	0x3ce421ea	0.027848203
30	0xbd804235	-0.06262628
31	0x3b9b0249	0.004730497
32	0x3d6ee0bf	0.058319803
33	0x3d650c6c	0.05592005
34	0x3bf20fd9	0.007387143
35	0xbc84b412	-0.016199145
36	0xbb8090d8	-0.0039235167
37	0xbd816d6d	-0.063196994
38	0x3e3b8bd6	0.18315062
39	0x3c9bdb90	0.019025594
40	0x3dbf9369	0.09354288
41	0xbd61a070	-0.055084646
42	0x3c92a367	0.017900182
43	0xbd8c5bbd	-0.06853435
44	0x3d6a0a11	0.057138506
45	0x3d4c920a	0.04994396
46	0xbd87f321	-0.0663817
47	0xbde5e318	-0.11224955
48	0xbd54c70e	-0.051947646
49	0x3c0bb9df	0.008528202
50	0x3ce3b815	0.027797738
51	0x3d46b5c8	0.048513204
52	0x3df8a9a9	0.12141735
53	0x3d87baae	0.06627403
54	0xb907d0ce	-0.00012952389
55	0xbcd32d9f	-0.02577859
56	0x3d33a004	0.043853775
57	0xbbea08c8	-0.00714216
58	0xbbdba908	-0.0067034997
59	0x3c8aeeea	0.016959626
60	0x3d74f3cf	0.059802826
61	0x3d4df69f	0.050284024
62	0xbe21d887	-0.15805255
63	0x3b27fe42	0.0025633727
64	0xbd59b933	-0.053155135
65	0xbb98a714	-0.004658589
66	0x3b918ad7	0.0044416
67	0xbd07268c	-0.032995746
68	0xbe0ffaef	-0.14060567
69	0x3e058a74	0.13041097
70	0xbe025c2a	-0.1273047
71	0x3d3e8a48	0.046518594
72	0x3daa6f39	0.08321995
73	0xbc96ff3e	-0.018432256
74	0xbd6ea049	-0.05825833
75	0x3d026f47	0.031844404
76	0xbc1f9f0c	-0.00974251
77	0x3d413e81	0.04717875
78	0xbd3c103d	-0.045913924
79	0xbcbc239e	-0.022966202
80	0x3e080dbd	0.1328649
81	0x3cc75c83	0.024336105
82	0xbbcccf3f	-0.0062502916
83	0xbc2cf364	-0.010556076
84	0x3d6380b6	0.05554267
85	0xbe15ad41	-0.14616872
86	0x3c7c47be	0.015397964
87	0xba70d3f3	-0.00091868563
88	0xbdb4c522	-0.088266626
89	0xbc6ef6f9	-0.01458525
90	0xbcd8f26d	-0.026482785
91	0x3d718262	0.058962233
92	0x3d9c1316	0.07620828
93	0x3d8659d9	0.06560106
94	0xbe2eaaf7	-0.17057405
95	0xbdce3024	-0.10067776
96	0x3db474fa	0.08811374
97	0xbd2c1db6	-0.042020522
98	0xbdbb9b2e	-0.091604576
99	0xbce9d1ab	-0.02854236
100	0x3c3150f3	0.010822522
101	0x3d5e3b36	0.054255687
102	0x3c402f44	0.011730019
103	0x3d3bec5e	0.045879714
104	0xbd2f6576	-0.04282137
105	0x3c7513ad	0.014958304
106	0x3c8d965a	0.017283607
107	0x3d85b4fc	0.06528661
108	0xbc8ee492	-0.017442975
109	0x3da9f9b8	0.08299583
110	0x3d9f739b	0.07785722
111	0x3d32eb94	0.043681696
112	0x3da5d771	0.08097733
113	0xbe9a5d81	-0.30149463
114	0xbdf41bd9	-0.11919374
115	0xbd93ec15	-0.072227634
116	0x3cb93579	0.022608506
117	0xbd97a904	-0.07405284
118	0x3cd0cba5	0.02548773
119	0xbdcda39e	-0.10040973
120	0x3c53ce2d	0.012927574
121	0xbce4b4b1	-0.027918192
122	0xbd4c2b62	-0.04984606
123	0x3e0bcc90	0.13652253
124	0x3d19a7cd	0.037513543
125	0x3c591eb2	0.013251947
126	0x3c8a90e6	0.016914796
127	0x3ba6e400	0.0050930977
128	0xbc92dc3c	-0.017927282
129	0xba976f18	-0.0011553494
130	0x3dc1400f	0.09436046
131	0xbcfcf4df	-0.030878482
132	0x3b6a5998	0.0035758968
133	0xbdb9723f	-0.09054994
134	0x3db00722	0.085951105
135	0xbd910c49	-0.07082421
136	0xbe4c674c	-0.1996128
137	0x3c0be86e	0.008539302
138	0xbda47694	-0.080304295
139	0x3e106aea	0.14103284
140	0xbd5001f6	-0.05078312
141	0x3d55e999	0.05222473
142	0x3d9608b9	0.073258825
143	0xbe686e42	-0.2269831
144	0x3d8ef422	0.069801584
145	0xbdcbf3ae	-0.099585876
146	0xbdf0f409	-0.11765296
147	0x3de62b76	0.11238758
148	0xbc54a20e	-0.01297809
149	0xbcdff022	-0.027336184
150	0x3c479175	0.012180676
151	0x3d23ffba	0.0400388
152	0x3b444829	0.0029950237
153	0x3cff354d	0.031153345
154	0xbb1fb431	-0.0024368877
155	0xbd686b1b	-0.05674277
156	0xbda91811	-0.082565434
157	0x3cc95648	0.024577275
158	0x3d8e5eba	0.069516614
159	0x3d967bfd	0.07347868
160	0xbc6c3700	-0.01441741
161	0x3ca9fd1b	0.020750573
162	0x3c6e20b9	0.014534169
163	0x3d0f524e	0.0349906
164	0xbcc2ece4	-0.023794599
165	0x3b2241a5	0.0024758365
166	0xbc1a481f	-0.009416609
167	0x3c9655dd	0.01835149
168	0x3be55198	0.006998252
169	0x3cbfe53a	0.023424733
170	0x3c08849c	0.008332398
171	0xbd929e7d	-0.071591355
172	0xbda87c9d	-0.08226893
173	0x3d2ccf71	0.04219002
174	0xbb155680	-0.0022787154
175	0x3d2af739	0.041739676
176	0xbd3fdaaa	-0.046839394
177	0xbc5058f2	-0.012716519
178	0x3c377bfa	0.011198992
179	0x3d8846f2	0.06654157
180	0x3d303c43	0.04302622
181	0x3da90fc8	0.08254963
182	0x3d5a81bc	0.05334638
183	0x3db051a4	0.08609322
184	0xbd60f405	-0.054920215
185	0xbd1d6f97	-0.0384365
186	0xbd3e2fd4	-0.04643233
187	0x3c99d949	0.018780367
188	0x3d9bedb0	0.07613695
189	0x3b895ebb	0.004192201
190	0xbd19e6ce	-0.037573628
191	0xbd5c9d91	-0.053861205
192	0xbb80fd32	-0.0039364332
193	0x3cc64515	0.024202863
194	0x3dc4edb2	0.09615649
195	0xbd268ce2	-0.0406617
196	0xbcba7c49	-0.022764342
197	0xbc809450	-0.01569572
198	0xbbc68571	-0.006058388
199	0xbe31ae60	-0.17351675
200	0x3da46f8a	0.08029087
201	0x3d1b125c	0.037859306
202	0xbdb4d81e	-0.088302836
203	0x3d9b05b8	0.0756945
204	0xbdb2a224	-0.08722332
205	0x3d562dea	0.05228988
206	0x3da4b07e	0.08041476
207	0x3c91db6f	0.01780483
208	0xbc588c70	-0.013217077
209	0xbc864a1f	-0.016392766
210	0xbe020104	-0.126957
211	0xbce1b9fd	-0.027554506
212	0x3da886be	0.08228825
213	0x3d01a7dc	0.031654224
214	0x3dae975b	0.085249625
215	0xbc84e281	-0.016221287
216	0x3bad2548	0.0052839853
217	0x3dbd45d7	0.092418365
218	0x3dda60b3	0.10662975
219	0xbc91bb2f	-0.017789451
220	0xbd106fbd	-0.035262812
221	0xbd75bee4	-0.0599965
222	0xbb8d9f68	-0.004321981
223	0xbc5ddbb1	-0.013541148
224	0x3ce0bbda	0.027433325
225	0xbd35090b	-0.044198077
226	0xbe0aa6d9	-0.1354021
227	0xbcff7f27	-0.03118856
228	0xbd86b323	-0.06577136
229	0x3dd278ef	0.102769725
230	0x3cf2e6e7	0.029651118
231	0xbdba2911	-0.09089864
232	0x3e0204de	0.12697169
233	0x3b810123	0.003936903
234	0x3c5ef9f7	0.013609401
235	0xbde3044f	-0.11084806
236	0x3d0a29db	0.033731323
237	0xbc2d1e62	-0.010566326
238	0xbe57ef9b	-0.21087496
239	0xbe1b8617	-0.1518787
240	0x3de95d6e	0.113947734
241	0xbc22721f	-0.009914904
242	0x3d9a2ca9	0.075280495
243	0x3d096f7c	0.033553585
244	0x3d85024e	0.0649458
245	0xbdb1f96b	-0.08690151
246	0xbd6de70e	-0.05808168
247	0x3c212ab3	0.00983684
248	0xbd414f66	-0.04719486
249	0x3cd7040d	0.026247049
250	0xbd128d28	-0.03577915
251	0x3da51c01	0.08061982
252	0x3e41f8ef	0.18942617
253	0xbdc19a74	-0.09453288
254	0xbdb1b516	-0.086771175
255	0x3d80953b	0.062784635

encoder.8.bias f4 [64]
0	0x3ec24224	0.37941086
1	0x3e4db86a	0.2008988
2	0x3e7b1df7	0.2452315
3	0x3ecb07c9	0.39654377
4	0x3ea0d446	0.31411952
5	0x3e899fe5	0.26879802
6	0x3eac6824	0.33673203
7	0x3e899806	0.26873797
8	0x3ea7169b	0.32634434
9	0x3e8f225d	0.27955905
10	0x3e9c1516	0.30484837
11	0x3e806e70	0.25084257
12	0x3e992c6b	0.299167
13	0x3e9c1544	0.30484974
14	0x3e83bfc3	0.2573224
15	0x3e7f1adc	0.2491259
16	0x3e48a516	0.19594225
17	0x3ecf1923	0.40448865
18	0x3e8c12fb	0.2735823
19	0x3e0b6167	0.13611375
20	0x3ea31886	0.31854647
21	0x3e8e9fe5	0.27856365
22	0x3e921ac9	0.2853606
23	0x3e3eb2cf	0.18622898
24	0x3ec2462a	0.37944156
25	0x3eb0b19c	0.34510505
26	0x3e48b3d6	0.19599852
27	0x3e886bc0	0.26644707
28	0x3e8169d9	0.25276068
29	0x3e8df2d1	0.27724317
30	0x3ebf532f	0.37368152
31	0x3e825a06	0.25459307
32	0x3e8b149d	0.27164164
33	0x3eabeb85	0.33578125
34	0x3e8db4f5	0.27677122
35	0x3ec072cd	0.37587586
36	0x3e4bae8a	0.198908
37	0x3e846820	0.2586069
38	0x3eb4de95	0.35326067
39	0x3eb1403e	0.34619325
40	0x3ebe34f0	0.37149763
41	0x3e59d42e	0.21272346
42	0x3eb4397b	0.35200104
43	0x3ecdea93	0.40218028
44	0x3e852f84	0.26012814
45	0x3ea71c82	0.32638937
46	0x3e7e436a	0.24830404
47	0x3e7b3bcb	0.24534528
48	0x3ea322da	0.31862527
49	0x3e253d19	0.16136588
50	0x3ea1d916	0.31610936
51	0x3eafce18	0.34336925
52	0x3ec22aac	0.3792318
53	0x3e8f4f4c	0.27990186
54	0x3e9b09c9	0.30280903
55	0x3ea36155	0.31910196
56	0x3eb05be5	0.3444511
57	0x3ea7cc65	0.32773128
58	0x3eadfd3d	0.33982268
59	0x3e4dbd14	0.20091659
60	0x3e8e94db	0.27847943
61	0x3ea1d98f	0.31611297
62	0x3e96ff6c	0.29491746
63	0x3eafd927	0.34345362

decoder.0.weight f4 [64, 64, 3, 3]
0	0x3e0f69a8	0.14005148
1	0xbd33ffb9	-0.043945048
2	0x3c7fc9ce	0.015612079
3	0x3c60b526	0.013715064
4	0xbbec9e96	-0.0072210534
5	0xbc72db44	-0.014822785
6	0xbd4e7d53	-0.050412487
7	0xbce4a913	-0.027912652
8	0xbdb57e55	-0.088619865
9	0xbc8e6dcc	-0.01738634
10	0xbdbe9c58	-0.09307164
11	0x3d5d76a8	0.054068238
12	0x3c87ef5f	0.016593633
13	0x3c079fdc	0.00827786
14	0x3d49dfa7	0.049285557
15	0xbcfd07e2	-0.030887548
16	0xbc4cba2f	-0.0124955615
17	0xbce369a1	-0.027760329
18	0x3d715469	0.05891839
19	0xbb5dc1c9	-0.0033837429
20	0xbd3dd80a	-0.04634861
21	0xbc089ed8	-0.008338653
22	0xbcff9159	-0.031197237
23	0x3d98a344	0.074530154
24	0xbd8d9bb4	-0.06914464
25	0xbd93814a	-0.07202394
26	0xbd70a1ad	-0.058747936
27	0x3bae4185	0.005317869
28	0xbd4451d0	-0.047929585
29	0x3c9911e6	0.018685292
30	0x3de8cb05	0.11366848
31	0xbcba1e45	-0.022719512
32	0x3d1d6f38	0.038436145
33	0x3dbe9d71	0.09307373
34	0xbd34446a	-0.044010557
35	0xbc8c58ab	-0.017132124
36	0xbaf7b461	-0.0018898362
37	0xbca96bb2	-0.020681236
38	0x3b811abc	0.0039399546
39	0xbca55729	-0.020183163
40	0xbd343955	-0.04399999
41	0x3c80dfa2	0.015731636
42	0x3c3c879d	0.011506942
43	0xbce7a4d1	-0.028276833
44	0xbd146596	-0.036229692
45	0xbdf73f1b	-0.12072583
46	0x3db032ae	0.086034164
47	0xbdac9fb5	-0.08428899
48	0xbe1a18e6	-0.1504856
49	0x3d276523	0.040867936
50	0xbdb26301	-0.0871029
51	0xbd97b1de	-0.07406972
52	0xbd45bba2	-0.048274644
53	0xbd3bca89	-0.04584745
54	0x3c67061b	0.014100577
55	0xbcfd7cfa	-0.030943383
56	0x3d9ce937	0.0766167
57	0x3dc8bdfa	0.0980186
58	0x3cd28258	0.025696918
59	0x3d900a1b	0.070331775
60	0x3c62385e	0.013807384
61	0xbd08f974	-0.033441022
62	0xbd97c98c	-0.07411489
63	0xbcbed071	-0.023292752
64	0x3d7d1e4d	0.061796475
65	0xbd09fa40	-0.033685923
66	0xbcb55b22	-0.022138182
67	0xbd00c22c	-0.031435177
68	0xbd8f8467	-0.070076756
69	0x3b9cac2d	0.004781267
70	0xbc930600	-0.017947197
71	0xbd81bb34	-0.06334534
72	0x3dde80c7	0.10864406
73	0x3d6a1a29	0.057153855
74	0x3baf0cb1	0.005342089
75	0xbe02ae5e	-0.12761828
76	0x3d7a43b8	0.061099738
77	0xbcb54647	-0.022128237
78	0x3cdecb51	0.027196558
79	0xbbdd06df	-0.006745204
80	0xbd87232d	-0.06598506
81	0x3cd72bc5	0.026265988
82	0x3c6beff0	0.014400467
83	0x3d16fcff	0.03686237
84	0xbd8c1f1c	-0.06841871
85	0x3b633d0b	0.0034673836
86	0xbd482d48	-0.04887131
87	0x3c9f47b2	0.019443367
88	0xbd2260f0	-0.039643228
89	0xbd149b83	-0.03628112
90	0xbdb189ed	-0.086688854
91	0x3cbb6e1c	0.022879653
92	0xbb97fbb4	-0.0046381596
93	0xbc0fb159	-0.00877031
94	0xbbd7ea73	-0.006589228
95	0x3c864550	0.016390473
96	0xbe078b22	-0.13236669
97	0x3bab6407	0.00523043
98	0xbc166e9d	-0.009181646
99	0xbd844967	-0.06459313
100	0xbc61be06	-0.013778215
101	0xbc9856dd	-0.018596107
102	0xbd3d1609	-0.046163592
103	0xbb3a82b2	-0.0028459248
104	0x3d8d192e	0.06889568
105	0x39fea438	0.00048569008
106	0xbd2dd213	-0.04243667
107	0xbc508add	-0.01272842
108	0xbc904fde	-0.017616209
109	0x3cbf4a85	0.023350963
110	0xbd077939	-0.03307459
111	0xbde7acf5	-0.11312286
112	0xbd97866a	-0.07398684
113	0x3d937146	0.071993396
114	0xbd1e8c50	-0.03870803
115	0x3c1be2eb	0.009514551
116	0x3cb7e7f0	0.022449464
117	0xbd6a536b	-0.05720846
118	0xbcc7e1d7	-0.024399681
119	0x3e25f39c	0.16206211
120	0xbcf69313	-0.030099427
121	0x3cb12963	0.02162618
122	0xbd2f9292	-0.04286439
123	0xbd8398a3	-0.064255975
124	0xbc54fc20	-0.012999564
125	0x3df6abf6	0.12044518
126	0xbcb1f9d2	-0.021725569
127	0xbcd003ce	-0.02539244
128	0xbc7f27d0	-0.015573457
129	0xbca4bde5	-0.02011008
130	0xbceff0b9	-0.02928959
131	0xbbe71d90	-0.0070530847
132	0xbd1cd404	-0.03828813
133	0xbbdf6259	-0.006817144
134	0xbc51c214	-0.0128026195
135	0xbd972bf4	-0.0738143
136	0x3cde34cf	0.02712479
137	0xbd27f4b2	-0.041004844
138	0xbdcf0663	-0.1010864
139	0x3d6f6561	0.05844629
140	0x3ab689c0	0.0013926551
141	0xbde133f7	-0.1099624
142	0xbba49b5a	-0.005023402
143	0x3b6f8455	0.0036547382
144	0xbd124965	-0.035714526
145	0xbd1f43e8	-0.03888312
146	0xbcc6f6db	-0.024287632
147	0x3a91ffe6	0.0011138886
148	0x3cdc8a33	0.026921367
149	0x3b886d71	0.004163437
150	0xbd1846e4	-0.03717698
151	0xbc1a51b5	-0.009418895
152	0xbc3b1b01	-0.011420012
153	0x3de34298	0.11096686
154	0x3c6c6e98	0.0144306645
155	0x3d03c61c	0.032171354
156	0x3d4c33a6	0.049853943
157	0x3c9d93a5	0.019235441
158	0xbb83c151	-0.004020848
159	0xbcae64bc	-0.021288268
160	0xbb892d06	-0.0041862754
161	0xbcf36848	-0.029712811
162	0x3cf78594	0.030215062
163	0x3d93a550	0.07209265
164	0x3bbac2e9	0.0056995046
165	0xbd16efef	-0.036849912
166	0x3cc4e4c5	0.024034867
167	0x3ca92f03	0.0206523
168	0xbd6aa8bb	-0.05728982
169	0xbd195b44	-0.037440553
170	0x3c3fdc5f	0.011710255
171	0x3be636d9	0.0070255813
172	0x3cbdf582	0.023188356
173	0xbcda54b5	-0.02665172
174	0x3ce4b4e0	0.02791828
175	0xbce6da60	-0.028180301
176	0xbc983071	-0.018577786
177	0x3c226de4	0.009913895
178	0xbbec46e9	-0.0072106016
179	0xbcd845d1	-0.026400479
180	0xbbd97b92	-0.006637045
181	0xbc2f0c46	-0.010684079
182	0xbcb471df	-0.022026954
183	0xbd06f137	-0.032944884
184	0x3cf7e1ed	0.030259097
185	0xbd0d9bf4	-0.034572557
186	0x3ca99ae1	0.020703735
187	0x3c8e7d82	0.017393831
188	0xbc95d576	-0.018290263
189	0xbe26bea4	-0.16283661
190	0xbb9afafe	-0.0047296276
191	0xbc345572	-0.0110067
192	0xbdd3a432	-0.10334052
193	0xbc1044c6	-0.008805459
194	0xbcd9338e	-0.026513841
195	0xbda72ba3	-0.0816262
196	0xbd701667	-0.058615115
197	0xbc94af3b	-0.018149963
198	0x3bf95db0	0.0076100454
199	0x3c1051ef	0.008808597
200	0x3b019d2b	0.0019777517
201	0x3c824eb7	0.015906675
202	0x3b7775dc	0.0037759459
203	0xbc18f020	-0.009334594
204	0x3c5afaae	0.013365431
205	0xbd00dda5	-0.031461377
206	0xbcb549a1	-0.022129836
207	0xbc126365	-0.00893483
208	0xbd26e491	-0.04074532
209	0xbd13d286	-0.036089443
210	0x3c97739e	0.018487748
211	0x3c84dc00	0.016218185
212	0x3c66f444	0.014096323
213	0xbcb53696	-0.022120755
214	0xbd40007a	-0.046875454
215	0x3c75dc54	0.015006144
216	0x3ddb71fe	0.10715102
217	0xbc7a251b	-0.015267636
218	0x3c9376bd	0.018000955
219	0x3cb86018	0.022506759
220	0xbd3e1a1e	-0.046411626
221	0xbbe9cb9e	-0.0071348688
222	0x3d8964ea	0.06708701
223	0xbc4bb2b1	-0.01243274
224	0xbbc16bcb	-0.0059027425
225	0x3c425d8e	0.0118631255
226	0x3bcdba56	0.0062783165
227	0xbca1fad9	-0.019772934
228	0x39f2a11e	0.0004627788
229	0xbc89c5db	-0.016817978
230	0xbd2e4d11	-0.042553965
231	0xbce62c5b	-0.028097322
232	0x3d13ed34	0.036114886
233	0xbc125ef7	-0.008933774
234	0xbbcdb996	-0.006278227
235	0xbd0eb0d2	-0.034836598
236	0xbcaacfa2	-0.02085096
237	0xbcf65a91	-0.030072482
238	0x3b047a0f	0.0020214354
239	0xbd3a09e8	-0.045419604
240	0xbd08fd89	-0.033444915
241	0xbd0ea427	-0.034824517
242	0xbb9a7179	-0.004713234
243	0xbdd0a56e	-0.10187803
244	0x3ccefb18	0.025266215
245	0xbcbaac5f	-0.022787271
246	0xbd773a3f	-0.060358282
247	0xbaa967b9	-0.0012924589
248	0x3c5e2ffb	0.013561244
249	0x3d95cb5f	0.073141806
250	0xbd2291a0	-0.03968966
251	0xbad00ef3	-0.0015873596
252	0x3d888985	0.06666855
253	0xbda865b4	-0.08222523
254	0x3d4dac06	0.050212882
255	0x3dfd7ac4	0.12376931

decoder.0.bias f4 [64]
0	0xbd41264f	-0.047155675
1	0xbd76c505	-0.060246486
2	0x3ddf4b6a	0.10903056
3	0xbd062f89	-0.032760177
4	0x3bda3c68	0.006660033
5	0xbb25f935	-0.002532554
6	0x3dc561ae	0.096377715
7	0x3d77aa77	0.060465302
8	0x3db30e0c	0.087429136
9	0xbcb61b20	-0.022229731
10	0x3d6ccf8d	0.057815123
11	0x3c0599a0	0.008154303
12	0x3d7585d1	0.05994207
13	0x3d22fce0	0.03979194
14	0xbcb01b8b	-0.021497509
15	0x3dbede53	0.09319749
16	0xbd1c201f	-0.03811657
17	0xbc97fc41	-0.018552901
18	0x3d8519b4	0.06499043
19	0x3c7ab2e5	0.015301441
20	0x3c4e29f0	0.012583241
21	0x3e252891	0.16128756
22	0xbc27b033	-0.01023488
23	0xbd40284a	-0.046913423
24	0x3d09d14a	0.03364686
25	0xbc81a17f	-0.015824078
26	0x3ca8c17c	0.020600073
27	0x3d3de0fa	0.046357132
28	0x3d9f1840	0.07768297
29	0x3dc888e7	0.09791737
30	0xba83c23a	-0.0010052391
31	0x3e12d5fc	0.14339441
32	0x3c00c606	0.0078597125
33	0x3dd65e51	0.10467208
34	0x3db240ea	0.087037876
35	0xbd637c02	-0.055538185
36	0x3d82ea9a	0.06392403
37	0xbd207a36	-0.03917905
38	0x3d59afcd	0.053146172
39	0x3c5414ac	0.012944382
40	0xbc4ab2ef	-0.012371763
41	0xbc1ef554	-0.0097020455
42	0x3c3aaac7	0.011393256
43	0x3d3fbc7c	0.046810612
44	0x3d558042	0.05212427
45	0xbce3435c	-0.02774208
46	0x3ab2c770	0.0013639759
47	0x3e441055	0.19146855
48	0xbce13b6a	-0.027494151
49	0xbd46f43c	-0.048572764
50	0x3d0bcce8	0.03413096
51	0x3c96fec4	0.018432029
52	0x3d2dc731	0.04242629
53	0xbb6c7a08	-0.0036083478
54	0xbb6f3581	-0.0036500397
55	0xbc34a656	-0.011025986
56	0x3e092d45	0.13396175
57	0x3b8aa4fb	0.004231093
58	0x3d67fcaa	0.056637444
59	0x3d291b72	0.04128594
60	0x3d8a1db0	0.06743944
61	0x3c80a09d	0.015701586
62	0xbd4d4fa0	-0.050124764
63	0x3d284ce9	0.041088972

decoder.2.weight f4 [64, 32, 2, 2]
0	0xbe4f6966	-0.2025505
1	0xbd2a64c9	-0.041600022
2	0xbe6998cf	-0.22812198
3	0xbe0aa1be	-0.13538262
4	0x3d913060	0.07089305
5	0x3db8a25c	0.090153426
6	0x3e5ed7be	0.21761987
7	0x3d81843b	0.06324049
8	0x3e0165ef	0.12636541
9	0x3e2aa73f	0.16665362
10	0x3e411755	0.18856557
11	0x3dcd9a0e	0.10039149
12	0x3e58e76f	0.21182035
13	0x3e29cf0d	0.1658289
14	0x3dab7bbd	0.083732106
15	0x3ac4160a	0.0014960181
16	0xbe04d675	-0.12972434
17	0x3e78c0ee	0.24292347
18	0x3e9547c6	0.2915632
19	0x3def4af8	0.11684221
20	0x3e5acde5	0.21367605
21	0x3e4a1e05	0.19738014
22	0x3ddc39c7	0.10753208
23	0x3e052cca	0.13005367
24	0xbdbd60f8	-0.09247011
25	0xbd73dc2a	-0.059536137
26	0xbe7c8fad	-0.24664183
27	0x3c6da247	0.014504022
28	0xbd2cf1f3	-0.04222293
29	0x3e0dccc9	0.1384765
30	0xbd096d7b	-0.033551674
31	0xbce50aa6	-0.02795918
32	0xba58e33b	-0.0008273606
33	0x3e67a8f6	0.22623047
34	0x3de3feaf	0.111325614
35	0xbda01f9c	-0.07818529
36	0x3e94b526	0.29044455
37	0xbccd6eb4	-0.025077201
38	0x3bad8245	0.0052950704
39	0x3e582d6c	0.21111077
40	0x3e41520f	0.18878959
41	0x3d908b36	0.070578024
42	0x3e2fddd0	0.17174459
43	0xbcaaa687	-0.02083136
44	0x3e4c6a5e	0.19962451
45	0x3ea45bcf	0.32101294
46	0xbe8b1431	-0.27163842
47	0x3e238e73	0.15972309
48	0x3e30539d	0.17219396
49	0xbe22da90	-0.15903687
50	0x3c67e6e0	0.014154166
51	0xbd5eec03	-0.054424297
52	0x3e20969f	0.15682457
53	0x3d6e2a60	0.05814588
54	0xbd84c8ab	-0.06483587
55	0xbc062990	-0.00818862
56	0xbd4e91e9	-0.05043212
57	0x3d6f3d7b	0.05840824
58	0xbe1d2fae	-0.1535022
59	0xbe347c61	-0.17625572
60	0x3e916782	0.28399283
61	0x3e04b0e0	0.12958097
62	0xbc6aea75	-0.0143381255
63	0xbda9a983	-0.08284285
64	0x3d439933	0.047753524
65	0x3e76d2f3	0.24103908
66	0x3e2a1980	0.1661129
67	0xbcb361ec	-0.021897279
68	0x3e6defa5	0.23235948
69	0x3df9534c	0.12174091
70	0x3e6bd8d5	0.23031934
71	0x3e042983	0.1290646
72	0xbe69ae5a	-0.22820416
73	0xbc47f6ac	-0.012204807
74	0x3d52e409	0.051487003
75	0x3d7995da	0.060933925
76	0xbd15a354	-0.036532715
77	0xbdc9c2be	-0.09851597
78	0xbcead0e9	-0.02866407
79	0x3e3ca13a	0.18420878
80	0x3e0a999f	0.13535164
81	0x3db760af	0.08953988
82	0x3e1e211f	0.15442322
83	0xbd411b47	-0.047145154
84	0xbe86c1e5	-0.26319805
85	0xbeb16ea3	-0.34654722
86	0x3e675da5	0.22594316
87	0x3e20abb7	0.15690504
88	0x3dc3cf39	0.09561009
89	0x3dcf9588	0.10135943
90	0x3e1ad6c3	0.15120988
91	0x3e1f3462	0.15547326
92	0x3e22d460	0.15901327
93	0x3e82c06e	0.25537437
94	0x3dfc49ba	0.1231875
95	0xbb9414dd	-0.0045190887
96	0x3d5811f8	0.05275151
97	0x3e09a439	0.13441552
98	0xbd9bd5cd	-0.07609139
99	0x3e4adbb1	0.19810368
100	0x3e5eed5f	0.21770237
101	0x3e50bc4a	0.20384327
102	0xbee53c85	-0.44772735
103	0x3ddb79a2	0.10716559
104	0xbbdaf57a	-0.006682095
105	0xbe9937a2	-0.29925257
106	0xbd2d0be9	-0.042247687
107	0xbe359a89	-0.17734732
108	0x3e6a767a	0.22896758
109	0x3e016cc3	0.12639146
110	0x3df830be	0.12118672
111	0x3d1d9c90	0.038479388
112	0xbe3bb7f6	-0.18331894
113	0x3e5a4f01	0.213192
114	0xbe79b7cd	-0.2438652
115	0x3e909800	0.28240967
116	0xbe90f6d7	-0.28313324
117	0xbd7bf182	-0.061509617
118	0x3d689b1d	0.056788553
119	0xbc825e2a	-0.015914042
120	0x3e08babb	0.13352482
121	0x3dc9eb60	0.09859347
122	0x3e68d220	0.22736406
123	0x3dfd7de7	0.123775296
124	0x3d8998f0	0.06718624
125	0x3da4ba34	0.08043328
126	0x3e8b60e8	0.2722237
127	0x3dc21f75	0.09478656
128	0x3d6ddaa4	0.05806984
129	0xbc0bf208	-0.008541591
130	0xbe0df84e	-0.13864252
131	0xbc5e7ac0	-0.013579071
132	0x3d8e8d3c	0.06960532
133	0x3ce9e97b	0.028553715
134	0x3c3ba7b2	0.011453556
135	0xbd052526	-0.03250613
136	0x3d49e78a	0.04929308
137	0x3db5ef82	0.08883573
138	0x3db007b7	0.085952215
139	0x3d94183a	0.07231183
140	0xbd4170b8	-0.047226638
141	0x3cd1dede	0.025618967
142	0x3dcc50b0	0.099763274
143	0xbd215e51	-0.039396588
144	0xbdc691b3	-0.09695759
145	0x3d75ce5e	0.06001126
146	0x3daa7543	0.08323147
147	0x3df50fab	0.11965879
148	0xbc39014d	-0.011291814
149	0x3dd056ee	0.101728305
150	0x3db42827	0.08796721
151	0x3dea37b7	0.11436408
152	0x3d782a4a	0.060587205
153	0xbdc50428	-0.09619933
154	0xbecf6cbc	-0.40512645
155	0xbe4aa84e	-0.19790766
156	0x3d837565	0.064188756
157	0x3e1cb948	0.15305054
158	0x3e0868bc	0.13321203
159	0x3e1be42e	0.15223762
160	0x3d7b40f4	0.06134124
161	0xbe466fce	-0.19378588
162	0xbeb9d357	-0.36294052
163	0xbf0548c0	-0.5206413
164	0xbe160cd0	-0.14653325
165	0xbd272e18	-0.040815443
166	0x3a238caa	0.0006238917
167	0x3d4dfd61	0.05029047
168	0x3d763578	0.060109586
169	0x3d03b0d1	0.032151047
170	0x3d406c89	0.046978507
171	0x3db927e6	0.09040813
172	0x3d81a3bd	0.06330059
173	0x3de9d97d	0.11418436
174	0x3d6611e7	0.056169417
175	0x3c801605	0.0156355
176	0x3e2d19e4	0.16904408
177	0x3dc740ad	0.09729133
178	0x3b135faa	0.002248744
179	0x3c2bc6ac	0.010484379
180	0xba0fae56	-0.0005480995
181	0x3e07ac3b	0.13249294
182	0x3d2c189f	0.042015668
183	0x3d316c08	0.043315917
184	0xbdcc21ec	-0.099674076
185	0xbe82363c	-0.25432003
186	0xbda1333c	-0.078711
187	0xbdbc8201	-0.09204484
188	0x3e411739	0.18856515
189	0x3c96385c	0.018337421
190	0x3e8015d2	0.25016648
191	0x3da0803f	0.07836961
192	0xbd25175f	-0.04030549
193	0x3d8afc1e	0.06786369
194	0x3e326e21	0.17424823
195	0x3d1d7a8d	0.03844695
196	0xbcad0da2	-0.021124665
197	0x3da2d8d8	0.07951516
198	0x3d5db38d	0.05412631
199	0x3c84df54	0.016219772
200	0xbe15588c	-0.14584559
201	0xbd5ee0c9	-0.05441359
202	0xbe49cb61	-0.19706489
203	0xbebac1a2	-0.36475855
204	0xbc8616cf	-0.016368298
205	0xbce4c54b	-0.027926108
206	0xbe5df80f	-0.21676658
207	0xbe2e651c	-0.17030758
208	0xbb97f480	-0.004637301
209	0x3dcfd903	0.101488136
210	0x3e15fadd	0.14646478
211	0xbd2bd37f	-0.041949745
212	0x3bbb6c37	0.0057196873
213	0xbb5df955	-0.0033870537
214	0x3d46e8d9	0.048561905
215	0x3dd62299	0.10455818
216	0xbd608892	-0.054817744
217	0x3d64eb76	0.055888616
218	0xbd82847c	-0.06372926
219	0x3dc7f55c	0.097635955
220	0x3cc29bbd	0.023755902
221	0x3bd0dd66	0.006374049
222	0x3e0379f3	0.12839489
223	0x3d16a83a	0.036781527
224	0x3b2fface	0.0026852372
225	0x3cfb773a	0.0306965
226	0xbe062484	-0.13099867
227	0xbdd23079	-0.10263152
228	0xbd3da59d	-0.04630052
229	0xbdb893d2	-0.090125695
230	0x3db83978	0.08995336
231	0x3c2fa184	0.010719661
232	0xbd52cb66	-0.051463507
233	0x3d60f1ab	0.054917973
234	0x3d3eafed	0.046554495
235	0x3cd73d2d	0.026274288
236	0x3da20cbd	0.07912586
237	0x3da5e472	0.08100213
238	0x3d50e52d	0.05099981
239	0xbc5c7cec	-0.013457518
240	0xbc3cd943	-0.011526409
241	0x3dd7992d	0.10527263
242	0xbea581d2	-0.32325608
243	0x3da53479	0.08066649
244	0x3e106883	0.14102368
245	0xbe2724e3	-0.16322665
246	0xbd6ef81f	-0.058342095
247	0xbd054c7c	-0.032543644
248	0x3dd9afa9	0.10629208
249	0xbc7e4ffc	-0.015521999
250	0x3db52fd6	0.088470146
251	0x3da2e7fa	0.07954402
252	0x3d83eb36	0.06441347
253	0x3d35a21a	0.044344045
254	0x3c79bd09	0.015242823
255	0x3dc57a15	0.09642426

decoder.2.bias f4 [32]
0	0x3e72ad7e	0.23698995
1	0x3c8964c9	0.01677169
2	0x3d0bbe53	0.034117054
3	0xbcc78f8c	-0.02436044
4	0xbc55f9ba	-0.013060028
5	0x3ce9b863	0.028530305
6	0x3e78fc85	0.24315079
7	0x3ddd9079	0.108185716
8	0x3e2707a0	0.16311502
9	0xbd00b4f6	-0.031422578
10	0x3aca94ac	0.0015455685
11	0xbc6af776	-0.014341226
12	0x3ddf4253	0.10901322
13	0xbcf9923b	-0.030465236
14	0x3e87aed2	0.26500565
15	0x3bccd899	0.0062514064
16	0x3cac3b20	0.021024287
17	0xbcf6ba30	-0.030118078
18	0x3e1393ef	0.14411901
19	0x3e6995ca	0.22811046
20	0xbd1a2eab	-0.037642162
21	0xbcad3a23	-0.021145886
22	0x3c88e499	0.016710566
23	0xbc81a692	-0.015826497
24	0x3e3838cc	0.17990416
25	0xbd33e2bb	-0.0439174
26	0xbcebcc1d	-0.028783852
27	0x3c505df8	0.012717716
28	0x3dc96dc0	0.09835386
29	0x3c83bcb0	0.016081184
30	0x3d1cb2dd	0.038256515
31	0x3c50eb99	0.012751483
