models/retina_mnist.pt (torch, 459618 bytes, 15 tensors)

prototypes f4 [20, 576]
00000000: 7e8e d73e ba16 bb3e f800 cb3e d621 b23e
00000010: ba6a 973e 31e0 c03e 7e26 c73e 9f6d f23e
00000020: c9ff e63e decb c63e b10b d23e c4ca f03e
00000030: fb4f c03e 2d1e 083f 507c 013f f91f 063f
00000040: 1f3e e73e 4904 f03e 9e27 ba3e bf84 c03e
00000050: 5618 c33e 2d7d c13e 9a9e c93e 7081 da3e
00000060: 62a7 a63e ee7e f13e 1c57 dc3e 61ea dc3e
00000070: 2acc f23e e2f9 f93e f6c1 fc3e 4eee aa3e
00000080: f0ad b83e 3275 ed3e 35d3 df3e 8b46 fe3e
00000090: 1a75 cd3e e44c c53e db6f d73e e7ea b83e
000000a0: b569 ab3e 69cb b43e e5bd e63e e2cd e33e
000000b0: 6599 e93e 96db c33e c83b b13e 3899 bc3e
000000c0: 8e35 c53e ecbe b63e 616d d53e 6bfc cc3e
000000d0: 0253 c53e ce8d b93e 37a3 013f 951c c93e
000000e0: 4f5c bb3e a542 d13e a309 d03e d51f c93e
000000f0: c8c0 f23e 37dd dd3e 2580 e93e c299 c43e
00000100: 75b3 d43e 743e b93e 1496 023f 04dc db3e
00000110: 0ac4 d33e 7fcb b43e c48d 043f d2c7 c53e
00000120: 522b 093f d5db ec3e c993 fb3e e527 d13e
00000130: d0c4 d13e b32f c03e 65b3 ad3e a688 c03e
00000140: 2ab4 ac3e 132d c73e 42e0 c53e be6f dd3e
00000150: 9a19 ba3e 2c82 b73e b277 ca3e 7e1f a43e
00000160: 5cf8 aa3e f398 b03e 542e c73e 9302 d73e
00000170: a87e bc3e 5c45 c63e 4d45 d73e 4861 063f
00000180: 3e50 bb3e fcd3 d63e 93b7 c73e 2dbf b13e
00000190: 20d6 c83e 528a e03e 1a53 c53e a29d bf3e
000001a0: 3747 e13e d305 9f3e b7bc 973e c940 c03e
000001b0: cfa7 ad3e 1c06 bc3e 1751 c13e f440 c43e
000001c0: 2b01 b73e 1d2e c83e d9e4 933e 5c7c a43e
000001d0: 45bf e23e 9615 ab3e 759b b53e 2780 cb3e
000001e0: 21cd dc3e 2fe0 f03e 91a4 003f b8cc e83e
000001f0: f5b4 e43e c142 ce3e d346 c33e 49b6 c93e
00000200: 7d9c e53e 0d50 aa3e 336f cc3e bad2 d13e
00000210: c5c1 b73e da33 123f 2be3 e93e 5142 9a3e
00000220: 007f 903e ea9a ca3e b8b4 9b3e 5b55 913e
00000230: 1378 cd3e a6e0 8e3e 61d7 bd3e 5316 c43e
00000240: c033 ed3e 8275 a63e 9f3d c93e 398a a53e
00000250: 394f b03e b0a1 d03e 9dd5 ae3e 4960 b23e
00000260: af9b c33e 595f cc3e 4a1d e13e f28c d93e
00000270: 6bdd d13e 527b ce3e 35ee ca3e 051d d03e
00000280: 3de1 db3e a982 d63e 66bb c93e a83b cc3e
00000290: 0ffb bb3e ab83 e03e a666 ce3e 7f47 ca3e
000002a0: 3e46 c53e d47d c63e c664 b73e 47de c53e
000002b0: 4e91 b73e 8d56 c83e 5f03 be3e f2c3 b13e
000002c0: ca29 b63e 6194 ff3e d715 b13e 37e1 d93e
000002d0: f0c3 c23e 4d49 b53e 909c bd3e b910 b13e
000002e0: 8ba2 b93e 4637 c13e ed65 e03e b39b d53e
000002f0: 989a ef3e 20de ad3e 29ea 9e3e 30dc 953e
00000300: 6e2a 033f 989b a63e 78fc a53e e8cd 973e
00000310: 4b90 a33e 7f1a 8b3e 2e79 a33e 5568 bc3e
00000320: e518 d33e af96 b53e 1ab6 bb3e 4081 c43e
00000330: ba2b a33e 442c ad3e 2dc4 d23e 0556 e23e
00000340: 0fd2 e93e 369a d43e a8d5 c63e 3491 b63e
00000350: 74d3 d43e 7621 973e cdbf a43e 07ed 7f3e
00000360: c9d6 ef3e acb7 d63e 520f d83e 20b7 c13e
00000370: 4ba2 b33e 0ad6 a03e b77f b23e a7fa d43e
00000380: 8c95 c83e 973d 9b3e de5d ce3e 881d d63e
00000390: 438b 983e 1cf6 a73e 1c20 b13e 569a a83e
000003a0: 6078 b73e ffb2 d63e 0d27 db3e 79c6 cc3e
000003b0: 42f6 b83e e5fa d53e 3911 e53e 3aff d83e
000003c0: a039 0e3f e011 fa3e 676f eb3e bfbf ba3e
000003d0: 8dfe cc3e 46f3 d33e ff97 b83e 4a94 aa3e
000003e0: 963b cf3e a181 aa3e 8978 bc3e 2687 e73e
000003f0: 18c2 043f c08a d13e 9459 c83e 71a3 be3e
0.421009 0.36540776 0.39649177 0.3479144 0.29573613 0.37671044 0.38896555 0.4734926
0.45117024 0.38827413 0.41024545 0.47029698 0.3756102 0.53171045 0.5058031 0.52392536
0.45164582 0.4687827 0.3635835 0.37601277 0.38104504 0.37790814 0.39378816 0.42676878
0.32549578 0.47167152 0.4303521 0.43147567 0.4742139 0.48823458 0.4936673 0.33384937
0.36070204 0.46378475 0.43715826 0.49663195 0.40128404 0.38535225 0.42077526 0.36116716
0.33479086 0.3531144 0.45066753 0.44493014 0.45624843 0.38253468 0.34615922 0.36835647
0.3851742 0.35692537 0.41685012 0.4003633 0.38539892 0.36241 0.5063967 0.3927962
0.36593863 0.40871158 0.40632352 0.39282098 0.47412705 0.43332836 0.4560558 0.38398558
0.41543165 0.3618046 0.5101025 0.42941296 0.41360503 0.35311505 0.5177882 0.38629013
0.53581727 0.4626147 0.4913619 0.4085075 0.4097047 0.37536392 0.3392593 0.37604254
0.33731204 0.38901576 0.38647658 0.43249315 0.36347657 0.358415 0.39544445 0.32055277
0.33392608 0.3449169 0.38902533 0.4199415 0.3681538 0.38724792 0.4204506 0.5249219
0.36584657 0.41958606 0.39007244 0.34716168 0.39225864 0.4385553 0.38539964 0.37424952
0.43999645 0.3105913 0.29636165 0.37549427 0.3391709 0.3672341 0.3775718 0.38330805
0.3574308 0.39097682 0.28885534 0.3212613 0.44286552 0.33414906 0.35470167 0.3974621
0.4312525 0.47046039 0.5025111 0.45468688 0.4466931 0.40285304 0.38139972 0.39396885
0.44845954 0.332642 0.39928588 0.40981084 0.35890022 0.5711037 0.45681128 0.3012872
0.28221893 0.39571315 0.30411315 0.28385434 0.40130672 0.27905768 0.37078384 0.38298282
0.46328545 0.32511526 0.39304826 0.32332018 0.34435442 0.40748358 0.3414735 0.34839085
0.38204715 0.39916494 0.43967658 0.42490345 0.4098924 0.4032846 0.39634863 0.4064714
0.4294528 0.4189656 0.39400786 0.39889264 0.3671498 0.43850455 0.4031269 0.39507672
0.38530153 0.38767874 0.35819072 0.38646147 0.35853046 0.39128533 0.37111947 0.34719807
0.35578758 0.49917892 0.34586975 0.42554638 0.38040113 0.35407487 0.3703351 0.3458307
0.36256823 0.37737483 0.43827763 0.41720352 0.46797633 0.3395853 0.31038025 0.29269552
0.5123662 0.32540584 0.3241918 0.29649282 0.31946024 0.27168652 0.3192839 0.3679835
0.4122993 0.35466525 0.3666237 0.3837986 0.31869298 0.33822834 0.41165295 0.44206253
0.45668074 0.41523904 0.38834882 0.35657656 0.41567576 0.29517716 0.32177582 0.24992763
0.46843556 0.41937006 0.42199188 0.37835026 0.35084757 0.314133 0.34863064 0.41597483
0.39176595 0.30320427 0.4030599 0.41819406 0.29793748 0.32804954 0.3459481 0.3293025
0.35834026 0.41933438 0.4280323 0.39995173 0.3612538 0.4179298 0.44739702 0.42382222
0.5555668 0.48841763 0.4598343 0.36474416 0.40037957 0.4139654 0.36053464 0.3331626
0.40475148 0.33302024 0.3681071 0.45220298 0.51858664 0.4092617 0.39130843 0.3723407

encoder.0.weight f4 [32, 3, 3, 3]
00000000: 137c 96bd d1d3 87bd 2d5a 22be 00df 5bbd
00000010: bafc 713d 24c8 82bd d098 22bc 6719 0c3e
00000020: 626f 363d 1ca6 33be 487c c33d 090b 7fbd
00000030: 664b 17be 204b 0d3d e3e3 33bd 091d 05be
00000040: 8b36 9f3d 779f dd3d 5243 003e 18c7 9bbd
00000050: bede 323e 5449 3d3e 242c 02be 0b27 9bbd
00000060: 7c9e 153e 130e e43d bd3c 803c 872d 1e3e
00000070: 6342 18be 3daf bb3d 3606 a2bd 905f 20be
00000080: 73a6 52bd dd9e 9d3b a8fb 733d 071e 51be
00000090: b09b 12bc 6451 023e 2ef4 293e 3f77 0d3d
000000a0: a975 d43c 7606 a2bd 3e78 9e3d eb8b 0e3e
000000b0: 844f b23d a877 253e 9e81 f53d 99e7 683c
000000c0: 64ad 3fbe 401b 81bd d11c e13d 30ff c9bc
000000d0: 8405 fdbd 94bb ecbd e10f fb3d cb78 bd3d
000000e0: 1539 0cbe 6056 d13c 2944 b03d 3924 05bd
000000f0: 57f4 82bd 08cc 3bbe c497 28be c9d7 8e3e
00000100: f1ae 4d3d de62 903d ac66 28bc d291 9abd
00000110: 372a bdbd 36a2 a2bc 862b 1cbe b849 0fbd
00000120: 6cf4 4b3d 7e0d 84bd 15b4 8bbd b116 353e
00000130: fb36 c73d 778e b3bd c895 6f3d 8564 b23d
00000140: 6e5f 19be 5dac 38bd de4b 703d 7c05 d8bc
00000150: 81b1 85bd 101b 083e f85b d33c 0441 873d
00000160: 8fc7 083e feca 6b3d 649e 8b3d fb94 f53d
00000170: bde8 11bc 0362 2abe 6f46 2fbe e259 c6bd
00000180: c617 a7bd 56ff 0f3e b1c6 bdbd ca93 073e
00000190: 7eae abbc d53d 0bbe 3741 363e c6c9 12be
000001a0: 607c 2e3b e1bd afbd febe 58bd 513f 74bd
000001b0: 16e8 3b3d 3afd fb3d e006 e6bc 4449 053e
000001c0: 084e 363e 3ecb 0e3e 6e58 f3bd b181 a23d
000001d0: adc8 2ebe 7a16 9e3d 27dd 91bd f0bc 19be
000001e0: edb8 d23d 747b d73d bbf9 013c 6b57 483b
000001f0: 2763 40be 60c7 3a3d 36d3 e5bd 95a5 e53d
00000200: 7cb2 253d bee3 ff3d 125c 85bb ca37 8ebd
00000210: 8667 ea3d 7cbb e63b dfd0 c23d 4fb6 4c3c
00000220: 0294 24be 7cc6 153d 792d 1dbc 46fd 373e
00000230: e29f 1c3e 6b39 2abd 7ccf dabd 8eb4 01be
00000240: b053 4abd e097 023d 94a2 083e 38ae e5bd
00000250: fe79 09be 08f8 9cbc 6c00 e23d b680 553e
00000260: a8b1 99bd 6fc6 2a3e ff63 8cbd 490d ecbd
00000270: bab2 51bd 1837 31bd 01d0 1ebe 6775 fe3c
00000280: bbd5 9dbd be51 62bd 4210 793d f60a 4abd
00000290: 30d0 92bc 383b 3fbd 779c 4bbe ffb8 00be
000002a0: f30c 00be b683 a43d b7d4 703c 722d 0abe
000002b0: e580 dd3d d0d2 29be 387f 2a3e 1ecf 273e
000002c0: 46f9 223e 3fca bcbd c4c4 f83d 6a27 113e
000002d0: 42f8 0b3d db3d 1abd 87f1 1dbd 2ef3 b7bc
000002e0: 16e7 193e d44d 03be 5c6b 21bc d3b6 0f3d
000002f0: aea5 dfbd 177b 1bbd 3157 0d3e 1063 323b
00000300: 6ea1 013d 7c21 18be 2404 cdbc af62 b43d
00000310: 0b14 54be dc50 19be 31cc a3bd 49f5 373e
00000320: 2ef2 a1bd d34f abbc 2fc0 23be a3ee 20bc
00000330: 5b86 36be d0a5 4ebe 5c91 3dbe 0170 fa3b
00000340: 910e 25bc 08f1 393e d5e8 cdbd de6d 0bbe
00000350: 062b a0bd 4ca6 113e cddb 9dbd f536 d9bd
00000360: c8ba e53d bd50 da3d 7d3c e83d bd43 bf3d
00000370: 009d a7bd 93bb ecbc 6116 9bbd acde d8bd
00000380: 7311 6cbd a361 0a3e 87db d2bd 0853 aa3d
00000390: 018d 123b af16 1c3d 81cd d33d 0f81 5a3c
000003a0: c8d3 483d 4c02 ca3d b055 61bd 95c9 8bbd
000003b0: 9428 1e3c c3e9 2fbd e27d 79bd ab06 08be
000003c0: 4deb 8bbc d494 b1bd 4bfe 97bc 54db d13d
000003d0: c413 263e 9f2f 3abd fc71 44be 5d08 013e
000003e0: e476 063d 68a1 723d fc7a 20bd 2f7c c4bd
000003f0: 6fc4 263e 3e3c a63d a7de 8d3d 0404 1a3e
-0.07347884 -0.06632198 -0.15854712 -0.053679466 0.05907891 -0.0638583 -0.009924129 0.13681565
0.044539817 -0.17543834 0.09545189 -0.062266383 -0.14774856 0.034495473 -0.0439185 -0.12999357
0.07774075 0.10821431 0.1252568 -0.076063335 0.17467782 0.18485004 -0.12712151 -0.07575806
0.14611238 0.11135497 0.015653962 0.15447055 -0.14869075 0.091642834 -0.07911341 -0.15661454
-0.05142827 0.0048101977 0.05956617 -0.20421611 -0.008948252 0.1272636 0.16597053 0.03453755
0.025935011 -0.079113886 0.07737778 0.13920562 0.08706573 0.16158926 0.11987613 0.014215373
-0.18718487 -0.06304026 0.109918244 -0.024657816 -0.12354568 -0.11559215 0.12258888 0.09251555
-0.1369365 0.025553882 0.086067505 -0.032505248 -0.063942604 -0.1833955 -0.16464144 0.27899006
0.050215665 0.070501074 -0.010278385 -0.07547344 -0.092365675 -0.019852739 -0.15250978 -0.034982413
0.049793646 -0.06447886 -0.06821457 0.17684437 0.097272836 -0.087674074 0.058492452 0.08710579
-0.1497781 -0.045086253 0.058666103 -0.026369803 -0.06527997 0.13291574 0.02580069 0.066041976
0.13357376 0.057566635 0.0681732 0.119913064 -0.008905587 -0.16638951 -0.17116712 -0.096851125
-0.08158831 0.14062247 -0.09266413 0.13239971 -0.020957228 -0.13597806 0.17798315 -0.14334783
0.0026624426 -0.085811384 -0.05291652 -0.059630696 0.04587563 0.123041585 -0.02807945 0.1301623
0.17803204 0.13944718 -0.11882101 0.07934893 -0.17068739 0.07719131 -0.071222596 -0.1501348
0.10289178 0.10521594 0.007933076 0.0030569683 -0.18787824 0.045600295 -0.11221926 0.11213223
0.04045342 0.1249461 -0.0040698135 -0.06944235 0.11445527 0.007041393 0.09512495 0.012494638
-0.16072085 0.036566243 -0.009593361 0.1796771 0.15295365 -0.041558664 -0.10684106 -0.12666532
-0.049396217 0.03188312 0.13343269 -0.1121487 -0.13425443 -0.01916124 0.11035237 0.2084988
-0.07504588 0.16677259 -0.0685501 -0.115259714 -0.051195838 -0.043265432 -0.15509035 0.031061841
-0.077067815 -0.055253737 0.06080652 -0.04932686 -0.017921537 -0.046687335 -0.19883905 -0.1257057
-0.1250494 0.08032934 0.014699153 -0.13493899 0.108156 -0.16584325 0.16650093 0.16387603
0.15915403 -0.09218263 0.12146905 0.14175192 0.034172304 -0.037656646 -0.038560417 -0.022454824
0.15029559 -0.12822658 -0.009852257 0.035086464 -0.10920273 -0.037959184 0.13802792 0.002721969
0.031648092 -0.14856523 -0.025026388 0.08807885 -0.20710771 -0.14972252 -0.07997931 0.17964663
-0.0790752 -0.020912087 -0.15991281 -0.00982252 -0.1782469 -0.2018044 -0.18512481 0.0076427464
-0.010074274 0.18158352 -0.10054175 -0.1361613 -0.07820706 0.14223593 -0.07707939 -0.10606185
0.11217266 0.10659931 0.11339662 0.09339092 -0.08184242 -0.028898036 -0.07572628 -0.10589346
-0.05763383 0.13513808 -0.10295778 0.08316618 0.0022361877 0.03810757 0.10341931 0.013336434
0.049030095 0.09863719 -0.05501336 -0.06825558 0.009653229 -0.042947542 -0.060911067 -0.13283794
-0.017079974 -0.08670965 -0.018553874 0.10246912 0.16218477 -0.04545557 -0.19184107 0.12600847
0.032828227 0.05923596 -0.039179787 -0.09593999 0.16285871 0.08116959 0.06927233 0.15040594

encoder.0.bias f4 [32]
00000000: 9424 ac3d ed27 2e3e f5d3 703d 830d d93b
00000010: 3d89 47be 14c5 d73d 744f 1c3e 62a9 063e
00000020: 5afc a5bd 4fbf 0bbe 0773 a7bd a3e1 ed3d
00000030: 36b0 133e 5966 ec3d 803d 223e 0e3b 143e
00000040: eb86 653d a71f c5bc b6f8 ce3d a991 6a3d
00000050: 300a 13be ad27 fdbd 1670 ce3d 2eed d43d
00000060: b980 1abd 6aec c6bd e2c0 343e 11a8 edbc
00000070: d1ba 2f3d 29a6 003e 70d8 a5bd 9a2d 3e3d
0.08405414 0.17007418 0.058795888 0.006623925 -0.19485946 0.105356365 0.15264684 0.13150552
-0.08104773 -0.13647197 -0.081762366 0.116153024 0.14422688 0.11542959 0.15843773 0.14475653
0.05603687 -0.024062945 0.101060316 0.05726782 -0.14359355 -0.12361083 0.100799724 0.10396801
-0.037720416 -0.09713061 0.17651704 -0.029010804 0.04290277 0.12563385 -0.08097923 0.046430208

encoder.4.weight f4 [64, 32, 3, 3]
00000000: efc4 1dbd cdcf 363d 87ad 08bd 8aea 603c
00000010: b94e 1fbc 520b 80bc 5fa8 523c 1540 36bd
00000020: b29d 063c 78db de3c d2b4 253d 403e d1bb
00000030: 4a06 ddbc c3f4 863b dabb 92bc 17f1 02bd
00000040: 2c9f 0c3c 0108 113d 6bee 3d3d de04 bd3c
00000050: 9627 6a3c 8795 293d a7f9 403c 6fdb d5bc
00000060: 5a12 3ebb cf03 0bbd 2b2a 99bc ef7a 533c
00000070: 1a7c 96bc 7a0f 2cbc 5746 01bd 9a71 07bd
00000080: 47d2 c739 271f 103d a21b cbbc ca93 2a3d
00000090: da2f 17b9 1a2b 0b3d 1b05 043d 56d0 4fbd
000000a0: 5897 05bd 4e8f 04bd 2df1 89bc 88af 27bd
000000b0: ddfc 0d3d f120 413c 2f90 5fbd ac14 a8bc
000000c0: 1129 553d 0033 9ebc d1c6 5bbc eba9 073d
000000d0: d42b 853c 5c10 eabc e5c8 0fbc c571 aabc
000000e0: f975 85bc 5126 a839 f136 15bd 9fed c7bc
000000f0: 3eeb 163d 8812 34bc 8b30 99bc fa0c 453d
00000100: 8496 cc3c df4e a03d 4c3c 533b 56f6 493c
00000110: 3723 9f3c 2a05 a93c c392 e6bb ca8b 353d
00000120: 5baa a73c 8d7c 703c 55d9 363b 730c b73b
00000130: 63d5 da3b 4bac 0b3d a94f 013c 64da b13c
00000140: 178f 023d e415 5439 ae67 f63c d03a 153b
00000150: 7192 1ebd f046 f33c 4728 033d 0219 3fbc
00000160: 388b 5c3c 0747 103d a112 853c 5f1b 2c3d
00000170: 7630 7b3c b652 4dbb bf92 06bd 0203 833b
00000180: 4af4 81bd 9e4e 14bd f802 d83c e88f ebbb
00000190: 2666 253d b852 b6bc aeb2 533d 4a88 573d
000001a0: 68be 3ebc 8660 2f3d 798b 6cbb 2277 643d
000001b0: 6326 ea3b bc70 9dbc 71ad c03c 1413 12bb
000001c0: d368 57bd eac1 32bc 30b1 263d da0a e73c
000001d0: 6a7a 5abc a3b3 28bd d742 7fbb c8e6 223d
000001e0: 4d30 903c 9356 a33c cd8a 1cbd ccf0 3cbc
000001f0: 2744 32bd 503d 343d f070 693d 8c93 47bd
00000200: 22f4 6d3d 1a03 0bbd 092e c63c 1eef 0abc
00000210: 87e7 f8bc 9a07 4dbc e5fd c0bc bb49 ac3c
00000220: 2f12 1fbd a2e4 453c d7c7 64bd 351b 613d
00000230: 32e9 cdba 2d01 32bd 79ea e7bb b61d 9e3c
00000240: 818e be3b 7224 d93c effa 1d3c e476 123d
00000250: 864a 0d3d 535d 833d daea 173d c3af 953c
00000260: c4cb dabc 1c12 d63c 44ea b93c 075e 1ebd
00000270: c042 babc 6b1e 2bbc f6bc 25bd 9c88 38bd
00000280: e5e5 31bd 2e9c febc 1c45 b53c b76c 733b
00000290: febf 853c e9dc 55bd 1c46 fdbb af7b cdbc
000002a0: 476e 47bd 05f7 4fbd bc4a d53c a24d 8bbb
000002b0: 38ea 963d 729b 1dbc eb5a 363c cd24 503d
000002c0: 3dc8 923c 3af0 59bd fe1a efbc b164 c83c
000002d0: 806b 52bc 055e 0abc a817 9a3c dd51 ef3c
000002e0: 103f d4bb 9ad0 ce3c d827 a6bc 4093 e4bc
000002f0: 7f2c e7ba 8bc0 e53a abde 953c e9ef 593c
00000300: 5c9f ccbb 71a4 713c 6975 753c a0ea b9ba
00000310: 93b6 713c c48f 433c acb4 533c 10c9 743b
00000320: 6ec5 143d 6aca e23c a62e 9abc cbf7 283d
00000330: 5be6 8f3d 9d80 ba3b 3095 afbc 6596 a8bc
00000340: 3d51 5b3d 83e6 cebb d57e e93c 2d97 11bd
00000350: edde 2ebd 27d7 423d 9586 04bc 466b 1b3d
00000360: caa7 4c3d d51e e1bb 8a28 58bc d6df e43c
00000370: 170d e6bb d103 363d 4663 96bc 5cd3 1cbd
00000380: b7cc 77ba 5ab1 1ebd 4dc1 263d 15c8 05bd
00000390: fd74 943c 77ef c3bc 6762 743c 1e39 4abd
000003a0: 92d3 fd3c d54c df3b ba86 83bc 6adb 6bbc
000003b0: 4bac 25bd 29c8 283d 5a2c fb3c aa1a 30bd
000003c0: e773 5f3d 0c4e 09bd d79a 06bc dfd2 a13c
000003d0: 9337 43bd 67f0 64bd bc21 72bd 5d90 e43b
000003e0: c54f a1bc 2c86 56bd d0d0 13bd 57a1 34bd
000003f0: 5031 56bb 1cae 1d3d a79d 683d f343 6e3b
-0.03851789 0.044631768 -0.033368614 0.0137277935 -0.009723359 -0.015630398 0.012857526 -0.044494707
0.008216308 0.02720426 0.040455647 -0.0063855946 -0.026980538 0.0041185333 -0.01791184 -0.031968202
0.008582871 0.035408024 0.04636995 0.02307361 0.014291665 0.041402366 0.011778272 -0.02610561
-0.0029002638 -0.03393918 -0.018696865 0.012907728 -0.018369723 -0.010501737 -0.031561222 -0.033067323
0.00038112907 0.03518596 -0.02479345 0.04164485 -0.00014418308 0.03397665 0.03223143 -0.050735794
-0.032615036 -0.03236323 -0.016838634 -0.040938884 0.034664977 0.011787639 -0.054580864 -0.02051767
0.052041117 -0.019311428 -0.013414101 0.03312103 0.01625625 -0.028572254 -0.008775924 -0.020806203
-0.016291605 0.00032072005 -0.03642935 -0.024405299 0.03684544 -0.010990746 -0.018699905 0.04810808
0.024974115 0.078275435 0.0032231985 0.0123267975 0.019425971 0.020632345 -0.0070365383 0.044322766
0.020466974 0.014678133 0.0027900536 0.005586201 0.0066782697 0.03409986 0.007892528 0.021710582
0.031874742 0.0002022605 0.030078735 0.002277065 -0.038713876 0.029696912 0.032020833 -0.011663677
0.013460927 0.035223987 0.016244235 0.04201829 0.015331378 -0.0031329817 -0.03285479 0.0039981613
-0.063454226 -0.036207788 0.026368603 -0.007188786 0.04038062 -0.02225624 0.051684074 0.05262021
-0.011642076 0.04281666 -0.0036093874 0.055777676 0.0071456893 -0.019218795 0.023520203 -0.0022289203
-0.052590203 -0.0109104905 0.040696323 0.028203417 -0.01333485 -0.04118694 -0.0038949752 0.03977087
0.017601157 0.019938743 -0.03821831 -0.01153202 -0.043522026 0.044003785 0.05699247 -0.048724696
0.05809415 -0.033938505 0.024191873 -0.008479862 -0.030383838 -0.012514019 -0.023558566 0.021031251
-0.0388357 0.012078436 -0.055854645 0.054957587 -0.0015709756 -0.043458153 -0.007077512 0.019301277
0.0058153276 0.026506636 0.009642347 0.035757914 0.0344949 0.064142846 0.037089206 0.018272286
-0.026708491 0.026131682 0.022694714 -0.03866389 -0.022736907 -0.010444264 -0.04046341 -0.045052156
-0.043432135 -0.031080332 0.02212768 0.0037143657 0.0163269 -0.05221263 -0.007729305 -0.025083391
-0.048689153 -0.050772686 0.026036613 -0.004251198 0.073688924 -0.009619581 0.011130075 0.050816346
0.017917747 -0.053207614 -0.029187676 0.024462076 -0.012843013 -0.008445268 0.018810108 0.02921384
-0.006477244 0.025245953 -0.02028267 -0.027902246 -0.0017637162 0.0017528696 0.018294653 0.013301828
-0.006244583 0.014748679 0.014981606 -0.0014184304 0.014753002 0.011936132 0.0129214935 0.0037351288
0.036321096 0.02768441 -0.018821072 0.04125194 0.07026359 0.0056916014 -0.021433443 -0.020579526
0.05354427 -0.0063141 0.028502861 -0.035544563 -0.042693067 0.047568467 -0.0080887275 0.0379441
0.049964704 -0.0068701305 -0.013193259 0.027938765 -0.0070206034 0.044437233 -0.018357884 -0.038287506
-0.0009452807 -0.038743354 0.04071169 -0.032661516 0.01812219 -0.023917897 0.014916039 -0.049370877
0.030984674 0.006814579 -0.016055454 -0.014395574 -0.040447515 0.041206513 0.030660797 -0.04299418
0.054553892 -0.033521697 -0.008215628 0.019753871 -0.04766042 -0.055893328 -0.059114203 0.0069752173
-0.019691357 -0.05237405 -0.03608781 -0.04409918 -0.00326832 0.03849612 0.056790974 0.003635642

encoder.4.bias f4 [64]
00000000: e629 9c3d 3ea4 a23d da33 5d3d 64ad 67bd
00000010: e2e1 a83d 7f06 823d 4a87 673c 574d a13d
00000020: 6909 c23d a7fa 4dbb 62a1 9a3d 04a1 fb3b
00000030: 9d52 c23c f496 febc f92c 423d 1f9c 97ba
00000040: 7d9e 823d 6b60 cf3d 6b73 a83d d79f 5a3d
00000050: e39f ed3c 7273 b43d 0933 bcbc 0f61 cc3d
00000060: 2817 b63d 6c4b 56bc 2deb 1a3a d812 a13d
00000070: 188f b73c 0dc9 cfbb 4084 b63d 8ae2 79bd
00000080: f645 2c3c 97e9 f13c 9649 03bd 4d50 f1ba
00000090: bef9 433b 759f 003d 8914 203d fb85 b03d
000000a0: 813a 1c3d ab19 5cbc d17d 5a3d 3e0d 9b3d
000000b0: 8c46 e0bb 5e56 4e3d 5b8d 063d 19b0 00bd
000000c0: 2c24 a5bb 5631 af3d 3664 a0bd 393a 553d
000000d0: f40b a03d fdb0 ac3d 59ec 353d 8507 d43c
000000e0: 1784 e1bc 7b82 bc3d 0509 4a3d 8d55 f7bb
000000f0: 9740 ad3d 7f40 b73d 7110 433b a2a3 913c
0.07625179 0.07941483 0.054004528 -0.056561843 0.08246209 0.06348895 0.0141313765 0.078760795
0.09474451 -0.0031429918 0.075503126 0.0076791067 0.023721034 -0.03107784 0.04740617 -0.0011566913
0.063778855 0.10125812 0.08225139 0.05337509 0.029006904 0.08811082 -0.022973554 0.0997945
0.088911355 -0.013079505 0.0005909678 0.07864922 0.0224071 -0.006341106 0.089119434 -0.06100706
0.010514727 0.02953033 -0.0320526 -0.0018410772 0.0029903497 0.03140207 0.039082084 0.08619305
0.03814173 -0.013433854 0.053342644 0.07570885 -0.0068443473 0.050375335 0.03284965 -0.03141794
-0.0050397124 0.08554332 -0.07831614 0.05205748 0.0781478 0.08432195 0.04441485 0.025882492
-0.027528806 0.09204575 0.049325008 -0.0075480402 0.08459585 0.089478485 0.0029764439 0.017778222

encoder.8.weight f4 [64, 64, 3, 3]
00000000: 9fd5 103d 25e3 1bbc 531b 823d 0f24 393c
00000010: 5d44 e1ba cf69 3f3c 2c1a d6ba 44cf 413d
00000020: 2318 99bc 0168 2e3d 7b65 d4bc 8692 0e3d
00000030: 6090 083d 7959 e1bc 8b5c 09bd bbed a13c
00000040: 76c5 f73c c1e0 d4bc d99d c13b 6340 263d
00000050: 150d 3b3d 43db aab9 7bc3 f13c 12cf 64bb
00000060: e85a b0bb 9f23 583d 0165 57bc 55f7 9ebd
00000070: 7395 0ebd a064 473c 5de7 e2bb 8f67 58bc
00000080: 8829 a1bb 176e 613b b8f5 aabc 09f3 003c
00000090: 788e 2a3d 55e8 05bd f26b 9a3c 3d4f 2739
000000a0: d01b b83c 6156 1ebc f067 903c eada d03c
000000b0: e3e1 2a3c fec2 13bd ad2a 993c 11d8 523c
000000c0: 79bd c13c a0f9 0dbc 7525 d33c bda5 35bc
000000d0: b3b3 e13c 9a09 29bb 65be 39bc b7e0 473c
000000e0: 7665 303d 6055 86bc 2437 253c 3c04 083c
000000f0: 9277 83bc e9ad f03c 843e 64bc e1fa 623c
00000100: 8e78 d4bc 3b55 f13c 229e 153d a510 673c
00000110: 68b4 8d3b 4db4 2d3c 0800 023c 5678 ba3c
00000120: 3da0 f33c 0bf0 8a3c 9d56 663d 6a27 a8bb
00000130: 0548 993c 10f0 293d 8c91 11bc 647d 06bd
00000140: 1015 82bb 9f7d 9ebc b5d6 6a3c 4133 4ebb
00000150: 73c8 ac3c e8e6 143d bd4c 273c d7bd 493a
00000160: dac1 b6bc 7241 33bc b1e9 823c 0c8b 03bd
00000170: ee5e 1c3d f47b ea3c bc9f fb3c 78ad 5dbc
00000180: 4248 fcbb 9af9 1c3c 224f 413d abbe 8e3c
00000190: d516 d7bb feb3 943c afc0 2abd 9fa9 a93c
000001a0: 8ed7 a7bb 08fd acba 6d43 1abd 9b70 fbbc
000001b0: 4b45 803c f4fc b13b 6192 f63c c632 d53c
000001c0: ba9d e2bc 16c1 4fbc 7325 0a3d df61 f93c
000001d0: 3091 dcbb 2ad1 5cbc 8892 313a f168 71bc
000001e0: 0423 e53c 2b63 5abc cd3d 183c 6b4a d53c
000001f0: 4240 c1bc ef3e 803c d94f 033c 55ec ea3c
00000200: b7f3 ddbc 99d5 643c 2838 e1bb 26e4 fb3c
00000210: bb4a 76bc 007e 043d c436 f33c a9a7 af3c
00000220: d816 843c a052 013c 088b c03c bb33 5b3d
00000230: 1d69 a5bc 6555 dabc 3013 923c eabf 1abc
00000240: b8cf 2d3a 8f7c be3c 2262 9f3c 6770 893c
00000250: 1299 273d 5843 193d 0141 b9bc 32e2 1c3d
00000260: a9d3 1d3b 46d9 eebb ceda 3a3a 32f8 2b3b
00000270: b8e8 49bc f77a 223d 5168 3dbc a584 863c
00000280: aca0 6c3d 7841 1c3d b2a5 cdbb 2ff4 2e3d
00000290: 4ed9 993c dec5 a43c c47f 0d3c bffc dbbc
000002a0: e898 2c3c 6c63 0b3c 8dd6 39bc a87f 0fbd
000002b0: 66a0 643d 9180 c23a f29e 813c 8899 8c3c
000002c0: 35a1 823d 820b 8dbc 27df dd3b 8c61 b0ba
000002d0: 9ce3 8fbc 9527 5abd 40de a4bd 3da0 013c
000002e0: 35d5 083d dbe2 a83a c623 10bc 263c bd3a
000002f0: d988 84bb 966c ee3c 1364 33ba c93e 12bb
00000300: 92ea ac3c a8dd 2b3d fd41 853d 2b9b bdbc
00000310: 7217 adbc c0de 1d3c f826 b73c 4009 3e3b
00000320: f662 3e3c dbab 653b 195e e63c fdba 17bc
00000330: b882 b0bc 1453 58bc b81f 13bd 3eeb b73b
00000340: 639b aebc abdf 72bc 79be 103c b652 213c
00000350: c4b7 043d 41f6 333d 1974 3439 0d72 883b
00000360: 97d0 0cbb a464 c8bc 694d fa3c 5366 8a3c
00000370: a043 a4bc d150 1f3d 98a6 323d f7f4 22bb
00000380: dfd9 90bc 1ada 9bbc 9d11 093d 36cb d93b
00000390: 9728 8dbb 921e 043d 9a22 6b3c 35f6 4cbc
000003a0: 54d8 40bb 80da 5fbc 7b2d f6bc d331 6bbc
000003b0: a48e c5bc 7349 e3bb 2b77 ec3c e6a7 5dbb
000003c0: 6ee2 60ba 1d77 7b3c 2bef c7bc dcd4 d73a
000003d0: d1dd a73c aaf8 4c3c 7e8d 813c 63b1 523c
000003e0: cc9b 513c 7225 863a dbb2 22bc 6e20 693c
000003f0: 2697 d939 3802 7a3c dfeb df3c dfee 703c
0.035359975 -0.009514605 0.06352868 0.011300101 -0.0017186512 0.011682942 -0.0016334704 0.047316805
-0.018688267 0.042579655 -0.025927296 0.034807704 0.03334081 -0.027508484 -0.03353552 0.019766679
0.030245524 -0.025986077 0.0059087095 0.040588748 0.045666773 -0.0003258829 0.029512158 -0.0034913463
-0.0053819306 0.052768346 -0.01314664 -0.077620186 -0.034810495 0.012169987 -0.0069245533 -0.013208284
-0.004918281 0.0034397894 -0.020869121 0.007870444 0.041639775 -0.032692272 0.0188503 0.0001595588
0.0224742 -0.009664149 0.017627686 0.025495011 0.010429832 -0.03607463 0.018697107 0.012868897
0.023649918 -0.008665472 0.025774697 -0.011086878 0.027551508 -0.0025793076 -0.0113368975 0.012199572
0.04306551 -0.016398132 0.010083947 0.008301791 -0.016048227 0.029379802 -0.0139309205 0.0138537595
-0.025936391 0.029459586 0.03652776 0.014103089 0.0043244846 0.010602069 0.007934578 0.022762459
0.029739494 0.016960165 0.056234945 -0.0051316516 0.0187111 0.041488707 -0.008884799 -0.032834426
-0.003969796 -0.01934701 0.014333417 -0.0031463655 0.021091675 0.03635302 0.010211167 0.000769583
-0.022309233 -0.010940896 0.015980573 -0.032115027 0.03817647 0.028623559 0.030715816 -0.013530128
-0.0076990435 0.009580994 0.047194608 0.017424902 -0.006564001 0.018152233 -0.041687664 0.020710764
-0.0051221317 -0.0013197968 -0.03766196 -0.030693343 0.015658041 0.0054317657 0.030099096 0.026025187
-0.0276631 -0.012680313 0.03372712 0.030442176 -0.006731175 -0.013477603 0.0006773849 -0.014734493
0.027970798 -0.013329308 0.009292078 0.026036462 -0.02359021 0.01565501 0.008014643 0.028677145
-0.027093751 0.013966941 -0.0068731494 0.030748438 -0.015032466 0.032346725 0.0296892 0.021442251
0.016124174 0.0078932345 0.023503795 0.05351613 -0.020191723 -0.026652047 0.017831415 -0.00944517
0.0006630379 0.023252754 0.019455973 0.01677723 0.040917464 0.03741774 -0.022614004 0.038301654
0.0024082458 -0.0072890846 0.00071279414 0.0026240465 -0.012323551 0.03966805 -0.0115605155 0.016420672
0.057770416 0.038148373 -0.006275856 0.04271334 0.018780377 0.020113882 0.008636419 -0.026853917
0.010534503 0.008507591 -0.011342657 -0.03503385 0.05581703 0.0014839341 0.015822861 0.017163053
0.06378404 -0.017217401 0.0067709866 -0.0013456806 -0.017564587 -0.053260405 -0.08050203 0.007911739
0.033406455 0.0012884991 -0.008797592 0.0014437481 -0.004044634 0.029104512 -0.00068432203 -0.0022315255
0.021107946 0.041959435 0.06506727 -0.023145279 -0.021129344 0.009635627 0.022357449 0.0028997213
0.011620274 0.003504506 0.028121041 -0.00926089 -0.021546707 -0.013203401 -0.03591892 0.00561276
-0.021314329 -0.014823834 0.008834475 0.00984638 0.032401815 0.043936018 0.00017209387 0.0041639865
-0.0021486634 -0.024462052 0.03055449 0.016894495 -0.020051777 0.038895432 0.043615907 -0.0024865249
-0.017682014 -0.019024897 0.033464063 0.006646539 -0.004307817 0.032255717 0.014351511 -0.012509872
-0.0029425817 -0.013662934 -0.030050984 -0.014355141 -0.024115868 -0.006936246 0.028865417 -0.0033822
-0.00085786625 0.015348223 -0.024406036 0.0016466635 0.020491512 0.012510458 0.015814539 0.012859675
0.0127934925 0.0010234548 -0.009930338 0.014228923 0.0004150208 0.015259318 0.027334152 0.014705389

encoder.8.bias f4 [64]
00000000: 302f 833d ab82 7a3d 87c4 503c 7641 a13d
00000010: dfeb 1e3d 5b3e db3c 1638 db3c 9e99 223d
00000020: d48f 9e3d 9ae4 9a3d 0516 183d bd19 fe3c
00000030: fb28 8b3d e3c7 983c 7d6e 173d 542f aa3c
00000040: 66ea 6f3d 915d d33c 3c0d 5b3d e8fc 913d
00000050: 454f 2f3d 2454 ac3b df3b fe3c d119 b33c
00000060: 2ed4 703d 669d 223c 891a 02bb ca24 103c
00000070: 7254 d13c d742 9d3d 5440 983d d0af 6c3c
00000080: 0b53 943d 21e4 973d 0c41 0f3d fcee ae3d
00000090: e097 373d f3e4 fd3c 8603 0e3c d92b a03d
000000a0: f619 9e3d a4fb 893c dd09 37bb 9fda de3b
000000b0: 2abd a83c be93 a33d afc2 713d 532d 2d3d
000000c0: 1ef3 743d 73b3 853d 7ee6 6d3c ec92 d9bb
000000d0: dbb8 c6bb e918 1d3c 1dcd 353d 029c 8f3c
000000e0: 246c 293d dc19 933d 65b2 883d d94c 713c
000000f0: 936c ad3c e6f5 253c ec0f 793d 9e07 0c3d
0.06405485 0.06115977 0.012742168 0.07873814 0.038799163 0.026763132 0.026760142 0.039697282
0.07742277 0.075631335 0.037130374 0.031018132 0.06794926 0.01865 0.036970604 0.020774521
0.05857315 0.025801452 0.05347942 0.07128316 0.042800207 0.005259054 0.031034408 0.021862896
0.0587961 0.009925222 -0.0019852242 0.008797834 0.025552962 0.07678764 0.074341446 0.014446214
0.07242402 0.07416559 0.034974143 0.085416764 0.044822574 0.03099296 0.008667832 0.07820863
0.077197954 0.016843624 -0.0027929463 0.006800964 0.020598013 0.07987164 0.059023555 0.042279553
0.059802167 0.06528368 0.014520286 -0.006639829 -0.006064517 0.009588459 0.044385064 0.017530445
0.041362897 0.07182667 0.06674651 0.014727795 0.021169936 0.010129428 0.0608062 0.03418695

decoder.0.weight f4 [64, 64, 3, 3]
00000000: af16 a33d bbcb 973d fe5d 843d 3270 b13d
00000010: e9ff 073e ad09 dd3d f74e 623d 7383 fb3d
00000020: 2114 b23d 479d 6cbd 97e0 a7bd c8fe 1bbd
00000030: 266a a1bd 9324 d2bd 6edc 8fbd f975 7cbd
00000040: 0269 dbbd 44cc 59bd e724 833d 6e13 c13d
00000050: 84ff 753d 90d6 c23d 051f 073e f673 dd3d
00000060: ab5e 4e3d 178e d83d a155 bc3d 1dbf 74bd
00000070: ee6b 7cbd e946 16bd 2798 41bd a671 9dbd
00000080: da36 23bd 1830 0abd 0c97 78bd 08d1 58bc
00000090: 2769 823d 3bf1 913d 05bf 553d 1110 413c
000000a0: 70be db3d b8ac b23d ea78 6c3d 62a6 be3d
000000b0: 236a 6f3d 69a8 60bd ce7f 52bd 8554 d4bc
000000c0: c016 88bd 8e46 b7bd 9752 2dbd df64 37bd
000000d0: de70 8fbd bd0e 15bd c92d ecbc 4ced 49bd
000000e0: b7f3 d8bc e06b 3fbd 6512 a6bd 43a9 4dbd
000000f0: 4e2c c9bc bd3f 6cbd 560f 3cbd 8572 6a3d
00000100: 5753 873d 3b05 ab3c 0dbf ac3d d5da e03d
00000110: d72a 933d 66e7 463d d877 c03d 37be 663d
00000120: 6ccb 813d 1d33 9c3d 933c d93c 6a8a cd3d
00000130: 37bc fb3d 0ee0 a93d 9c78 493d a3e2 e23d
00000140: bba7 ac3d 917b 23bd 09aa 61bd 427a 05bd
00000150: 0d97 39bd 33d8 babd 6c50 7bbd 2e68 e2bc
00000160: ba87 79bd fc6a 35bd f7e9 9fbc d396 23bc
00000170: 804c d43c 6546 e43d 46f1 093e ca9f 16ba
00000180: 1489 8e3d 906b 043e 3831 eb3d 1b8c 713d
00000190: 873b e13d a681 c83d 067f b23d c97d 0a3e
000001a0: e82b 073e faf2 993d 04bd f73d 4204 693d
000001b0: 511b 9b3d 84db 943d de64 273d 733b a03d
000001c0: fe0b cd3d 3f65 563d de8c 823d f743 b13d
000001d0: 150d ff3c a6ef b53d 56fb b63d 74ef 623d
000001e0: 01c9 b63d 9d29 0e3e 8458 b33d bbca 5b3d
000001f0: 967c 923c 75d2 a23d 47da 35bd 1628 e5bc
00000200: 4b9a 64bc 69a8 35bd 3bd9 83bd 37ec a5bb
00000210: ab74 27bd 3819 fabc 18ce 1a3c 2ba7 81bc
00000220: 5436 62bd ce78 23bd b4ff e6bb d8f8 83bd
00000230: a764 6abd 1e59 b6b9 cc2a d7bc 35e3 28bc
00000240: 542e 433c c409 e23d 1247 bc3d c40a e53d
00000250: 3b1d ed3d 19cf 3dbc fac5 873c 30ee 283b
00000260: 7963 ad3d a223 8bbc 5220 e93d eef6 f73c
00000270: be7d d13d e769 f63d 4d44 4abc a9fe 883d
00000280: f30e 72ba 4a34 0c3e 32ea b63d 225c b03b
00000290: 4115 f53b 9755 b33d af4c c63d f41b b0bc
000002a0: cd1c 833d 6210 043e c806 9e3b 8b96 8fbd
000002b0: b3af bdbd 76d7 3bbd 32a9 0000 a4f6 f1bd
000002c0: 0089 0000 e9e7 35bd c412 ccbd dfc2 77bd
000002d0: 93f5 003e cabe 033e 8966 433d 3d33 b63d
000002e0: 1372 063e 94e9 c13d a01c 6c3d 5648 e63d
000002f0: 5bff b03d b311 d93d 4382 c83d f7bf 443d
00000300: 5f68 903d bc19 033e 76f2 b03d a490 d23c
00000310: 36ba d83d 9408 f33d 891a 233d 3b5f 633d
00000320: 2af8 1b3d cff8 0b3d 91b3 363d 158d 713d
00000330: 2edb df3c 5e56 343d a7b9 d63c 43e8 fa3d
00000340: b26f 143c a7f1 7a3c 0a0a 0b3e 17e8 1e3e
00000350: bb5f 74bc 0ab7 953c 680e 2c3e ca6b b83d
00000360: 0958 fc3c cf4b 5d39 9c07 dcbc ca95 3f3d
00000370: 5bd1 0f3d fc3f dcbc e073 733d 915f cc3c
00000380: 5de8 03bd b4ce 1fbc 1beb 67bc 5c40 9abc
00000390: 628e 913b c8dd afbb c981 9fbb 7505 f73c
000003a0: a988 fc3b 0592 ac3a 9f85 54bd 158b 0080
000003b0: 0444 20bd 8a89 0080 e988 0080 d389 0080
000003c0: a5f4 17bd a489 0080 ec5a 6ebd 49b2 63bc
000003d0: d835 56bd 2984 c5bc b39a 5bbd 200c 9dbd
000003e0: 0175 efbc 9e4a 20bd f667 7abd fecc ef3b
000003f0: 395d 90bb eca4 be3b 2e09 0b3e 8466 7c3c
0.07963311 0.074119054 0.0646324 0.08663978 0.13281216 0.10792861 0.055251088 0.12280931
0.086952455 -0.05776718 -0.08197134 -0.038084775 -0.07881574 -0.10260882 -0.070244655 -0.061635945
-0.10713388 -0.05317332 0.06403523 0.09427534 0.06005813 0.09513581 0.13195427 0.108131334
0.05038325 0.105739765 0.0919602 -0.059752572 -0.061626367 -0.03668872 -0.047264244 -0.07687692
-0.039847232 -0.033737272 -0.060690925 -0.013233431 0.063677125 0.07126089 0.052184124 0.011783616
0.107296824 0.0872435 0.0577325 0.09309079 0.05845083 -0.05484811 -0.051391415 -0.025919208
-0.06644964 -0.08949004 -0.042315092 -0.044773933 -0.070039496 -0.03639101 -0.028830426 -0.04929857
-0.0264834 -0.046733737 -0.08108977 -0.05021025 -0.024557259 -0.057677973 -0.045913063 0.05723812
0.06607693 0.020876518 0.084348775 0.10979239 0.071859054 0.048560522 0.093978584 0.056333747
0.06337628 0.076269366 0.026518142 0.10036166 0.122917585 0.08294688 0.049187288 0.11078384
0.084304295 -0.039912764 -0.0550938 -0.032587297 -0.04531007 -0.09123268 -0.061355993 -0.027637567
-0.060920455 -0.04429148 -0.019520743 -0.00998469 0.025915384 0.11146239 0.13470945 -0.00057458563
0.06959739 0.12931657 0.11483997 0.058971506 0.10997682 0.097903535 0.08715634 0.13524546
0.13200343 0.07517047 0.12096599 0.056888826 0.075735696 0.07268432 0.04086768 0.07823839
0.10012053 0.05234265 0.063745245 0.086555414 0.031134168 0.088836 0.08934657 0.05540414
0.08925057 0.13883062 0.087571174 0.053660136 0.017881673 0.07950298 -0.04439762 -0.027973216
-0.013952802 -0.04435006 -0.06437918 -0.0050635594 -0.040882748 -0.030529603 0.009448551 -0.015826782
-0.055227593 -0.03991013 -0.007049525 -0.064439476 -0.057224896 -0.00034780143 -0.026265524 -0.010308077
0.011912901 0.11037019 0.09193243 0.11183694 0.11577841 -0.01158502 0.016573895 0.0025776736
0.084662385 -0.016984764 0.11383118 0.030269112 0.102290615 0.12031918 -0.012345386 0.066891976
-0.0009233795 0.13691822 0.08931388 0.005382077 0.0074793403 0.08756559 0.09682595 -0.021497704
0.06401978 0.12896875 0.0048225857 -0.07011136 -0.092620276 -0.045859776 6.0696e-41 -0.11814621
4.9146e-41 -0.04441062 -0.09964517 -0.060488578 0.12593679 0.12865749 0.047705207 0.08896492
0.13129453 0.094683796 0.057644486 0.11244266 0.08642455 0.10599079 0.097904705 0.048034634
0.07051157 0.12802786 0.08639996 0.025703736 0.10582392 0.118668705 0.039820228 0.05551074
0.038078465 0.03417283 0.04460484 0.058972437 0.027326193 0.04402768 0.026211573 0.12251332
0.009059833 0.0153164035 0.13578048 0.15518223 -0.014915402 0.018275756 0.1680237 0.09004934
0.030803697 0.00021104443 -0.026859097 0.04677371 0.035111766 -0.026885979 0.05943668 0.024947913
-0.03220402 -0.009753872 -0.014155175 -0.018829517 0.004442022 -0.0053670146 -0.0048677665 0.03015397
0.007706721 0.0013166076 -0.051885244 -4.9893e-41 -0.039127365 -4.934e-41 -4.9114e-41 -4.9442e-41
-0.037098546 -4.9376e-41 -0.05819218 -0.013897487 -0.052297443 -0.02411087 -0.05361433 -0.07668328
-0.029230596 -0.03913366 -0.0611343 0.007318138 -0.0044056443 0.005818 0.1357772 0.015405301

decoder.0.bias f4 [64]
00000000: 793d a93d 23d1 9b3c da8f 3b3d 9faf 7b3d
00000010: f486 6d3d ee74 723d 0406 d63d 943a 4c3d
00000020: 2523 673d a495 163d d8b5 c93d 07cb 5b3d
00000030: e6cf 1a3d 4690 913d 6a42 a23d 31b8 693d
00000040: c33d b33d 42e1 9e3d 1d49 a53d 55a2 0abd
00000050: 937e c83d db82 8e3d 2ba8 873d 9013 143d
00000060: 9f5b a73d 64a7 c83d 25bf e7bd 4a32 843d
00000070: 7f36 9f3d 3e9e 903d 64e8 803d 3de4 a63d
00000080: bf65 7e3d 1c4b d33c a7ac c53d 0deb 113d
00000090: 1c1c ee3c 3467 833d 3ade b43d e47d b93d
000000a0: 24ac 823d ea34 993d 4d60 a03d ce63 bb3d
000000b0: e7fa ce3d 924b f13c 95a3 a93d f34c c43d
000000c0: b5b1 943d 998d 403d f2d9 8f3d c3f3 7c3d
000000d0: d35a 6f3c e212 9c3d 32df e43d ec85 933d
000000e0: 5b28 403d 1b75 733d 7e71 5cbd a0dc a03d
000000f0: 68d7 c33d 5ad1 813d 732c 053d 1dff d83d
0.08263678 0.019020623 0.045791484 0.061446782 0.05799003 0.059193544 0.10450366 0.049860552
0.05643 0.036763802 0.09849137 0.05366042 0.037795924 0.07107596 0.07922824 0.057060424
0.087520145 0.07757808 0.08070586 -0.03384622 0.09789767 0.069585524 0.06623872 0.03615147
0.08171772 0.09797552 -0.11315755 0.064549044 0.07774066 0.07061432 0.06294325 0.08149002
0.06210875 0.02579265 0.096520714 0.035624553 0.029066138 0.06416169 0.08831449 0.09057215
0.063804895 0.07480796 0.07830868 0.091498956 0.101064496 0.02945498 0.08283154 0.095849894
0.072604574 0.047010038 0.07023992 0.061755907 0.0146090565 0.07620789 0.111753836 0.07203278
0.046913486 0.059437852 -0.053819172 0.07854581 0.0956257 0.06338759 0.032513093 0.10595534

decoder.2.weight f4 [64, 32, 2, 2]
00000000: e319 eebc 36df 3cbd 237c 79bd d64a febc
00000010: eaaa 3a3d 0452 513d 551e bf3d 5958 583d
00000020: 0ba9 b23d f7cc 6b3d 00ee 953d 8622 c43d
00000030: 7a7c f73d 0eb1 f93d 3556 ef3d 58b0 d83d
00000040: 99ec c0bd 0867 c9bd 85fa f2bd ec16 e4bd
00000050: 2afd e33c 426c 643d db06 b53d ffc7 b33d
00000060: a1f6 3b3d d312 3b3d 2c1b 3f3d 1cb7 883d
00000070: d030 e43c e608 823d e660 823d 612a 7d3d
00000080: 871c 113d 7863 c23d 4061 0e3d 9f1f c63d
00000090: 5dbc f13d a3fd 7d3d 458b b03d 5ed5 893d
000000a0: f380 8fbd d8c3 06bd 45bb 0ebd a06f 32bd
000000b0: f73a d13d ab00 123e 0ae3 193e 796a 0a3e
000000c0: bacb 5fbd 71b1 15bd ab7c 2fbd c226 e5bc
000000d0: c304 463d a98f 8a3d e4e3 343d a3fa 803d
000000e0: 4fa2 793d cf89 0000 2f8a 0080 ef88 0080
000000f0: 3a5d 153c 9e7d 703c 9a03 103c 16f8 7c3c
00000100: 4e89 0000 e456 89bc 1be6 9ebc ba97 0000
00000110: 0e66 8ebd 60db 46bd ffa9 c4bd 8d89 0000
00000120: e5b7 0a3e 71ed 5a3d ff73 e03d 90f8 c43d
00000130: 356e c03d 2939 a23d f1c8 ad3d 92d2 b43d
00000140: 2332 64bd e51f 07bd 8668 61bd 0e4b 1abd
00000150: 4a54 adbd d777 dfbd 4f2a 44bd 5f92 5bbd
00000160: d70e 973d 88c5 343d 7835 883d 3d89 c33d
00000170: 3987 263d d726 643d 9ead f83c 075d 6f3d
00000180: 01f5 d6bc 9d56 3ebd 8f2d acbb 1638 9ebb
00000190: c863 713c 3b26 ec3c 16b6 0f3c 5e28 1c3d
000001a0: 4a21 a03d 8412 bc3d c87c 9b3d 5294 c73d
000001b0: 9587 5d3c b0d7 e93c acc0 fc3c dd41 f03c
000001c0: f951 82bd f368 77bd a511 b1bd 7507 91bd
000001d0: bbde c93d 1072 8a3d 5b10 e43d bdab 693d
000001e0: eabe 6c3d de4c 9b3d 0f6f be3d f208 da3d
000001f0: f777 4bbc 2fa8 243c eab6 32bc c41c 113c
00000200: dfd4 e23c ca1c 7d3d a7eb 623d 34ae 253d
00000210: 7644 a6bd 9965 91bd eda1 b3bd 1c69 97bd
00000220: cf87 83bc fee4 42bb 9113 d8bc ce05 06bc
00000230: c039 33bd d114 4abd 6ccb 2fbd 434c 35bd
00000240: ff7d 353d 219a 993d 639a 483d 6c40 9c3d
00000250: dab8 09bd 3a4d b2bd 0768 c1bd 3fba babd
00000260: 9c91 7dbd fafc afbd aedd 7ebd 5484 92bd
00000270: e8d6 6bbd 7960 69bd fd7a 89bd 8e86 aabd
00000280: f831 82bd 3dd7 bcbd df58 9bbd 379c b8bd
00000290: 9bcc 9cbd 121b f8bd eb9d 56bd 89e8 dabd
000002a0: 2791 10bd a777 0dbd 227c 41bd ac4f 21bd
000002b0: 0f20 8cbd 852e b9bd 3ce9 3fbd 64ce 82bd
000002c0: 2f22 9a3d 9520 c33d 9cc4 af3d b056 e03d
000002d0: 562a cebc ac44 fcbc b9ab a2bc d804 fdbc
000002e0: 6842 04bd 4789 0080 8189 0000 3a89 0080
000002f0: b1df 8cbb 7c32 0e3b 2968 9e3b f836 ab3c
00000300: de89 0000 a3fd 763d 073e 843d 9f89 0080
00000310: a1e3 9d3d fd13 903d 7787 993d df89 0000
00000320: 2d61 afbd 3321 c3bd d0ab 95bd 46fb b4bd
00000330: 563e b6bd 4cb7 a7bd ccf4 b8bd 03ea bdbd
00000340: 7af3 773d 3e10 8d3d 222c 4e3d f988 453d
00000350: d57c ca3d 33f1 e93d 491b 553d a2ae d33d
00000360: 6a0a b9bd b28f a9bd 6eab b3bd 7eb1 95bd
00000370: 60cf 75bd c6c5 61bd 547b 33bd 14e2 4ebd
00000380: 8c90 293d f1ec 783d 6bd8 483c e84e 203d
00000390: fbee 1ebd 1f79 05bd d6c9 f7bc a86c 26bd
000003a0: 69f5 083d c383 143d c4b0 bb3c 34cf e63c
000003b0: c8cb 15bd 4db9 41bd 83b5 42bd 48ea 46bd
000003c0: 2d81 ac3d 3871 bc3d 6dc5 ac3d edfb c13d
000003d0: 4a8e c6bd e84d d0bd 88c2 7dbd cdda 5ebd
000003e0: 64e6 a7bd 4e85 b8bd 411f 89bd 37b5 b0bd
000003f0: 0b6a a43d 6cfe a23d 3d9b a73d 2abb b43d
-0.029065078 -0.046111308 -0.0609094 -0.031041544 0.045573153 0.051103607 0.09331957 0.05281863
0.08723649 0.057568517 0.073207855 0.09576897 0.12084289 0.121919736 0.116863646 0.1058051
-0.094201274 -0.09834105 -0.11864189 -0.111371845 0.027830679 0.055767305 0.08839198 0.087783806
0.0458895 0.04567225 0.046656772 0.0667555 0.027855307 0.063493535 0.06366138 0.061807994
0.035427596 0.094916284 0.034760714 0.09674 0.118035056 0.062009465 0.086203136 0.0673015
-0.07007017 -0.032901615 -0.034846563 -0.043563485 0.10216325 0.14258067 0.15028015 0.13517179
-0.05463765 -0.036546174 -0.042843502 -0.027972583 0.048344385 0.06765682 0.044162646 0.06297805
0.060945805 4.9436e-41 -4.9571e-41 -4.9123e-41 0.009116465 0.014678387 0.008789921 0.015440008
4.9256e-41 -0.016765065 -0.019396832 5.4429e-41 -0.06953059 -0.048549056 -0.09602737 4.9344e-41
0.13546713 0.053449098 0.109596245 0.09617722 0.0939602 0.07921059 0.08485592 0.088292256
-0.055711877 -0.0329894 -0.055031322 -0.037669234 -0.084633425 -0.109115295 -0.04789191 -0.053606387
0.07375877 0.044133693 0.06650823 0.095476605 0.040656302 0.055701103 0.030356225 0.058438327
-0.026239874 -0.04646932 -0.0052544544 -0.0048284633 0.014733262 0.028826823 0.00877144 0.038124435
0.078188494 0.09183219 0.075921595 0.09745087 0.013521095 0.02854523 0.030853592 0.029328281
-0.06363291 -0.06040282 -0.086459436 -0.070815004 0.098569356 0.06760037 0.11135932 0.057048548
0.057799257 0.07583021 0.092985265 0.106462374 -0.012418739 0.010049864 -0.010907868 0.008856956
0.027689395 0.061795034 0.055400517 0.040449336 -0.08118527 -0.07099456 -0.08771119 -0.07393095
-0.01605597 -0.002973854 -0.026376517 -0.008180095 -0.043756247 -0.04933626 -0.042918608 -0.044262182
0.044309612 0.07500101 0.04897536 0.07629475 -0.033623554 -0.08706136 -0.0944367 -0.09117555
-0.061906442 -0.08593173 -0.06222313 -0.07154146 -0.057577997 -0.05697677 -0.06712911 -0.083264455
-0.06357187 -0.09220741 -0.0758531 -0.090141706 -0.07656213 -0.12114538 -0.052396696 -0.10688884
-0.035294678 -0.034537937 -0.047237523 -0.03938262 -0.06842052 -0.09042076 -0.04685329 -0.06387022
0.07526051 0.09527699 0.08582422 0.10954034 -0.025166672 -0.030794464 -0.019857274 -0.030886099
-0.032289892 -4.9246e-41 4.9327e-41 -4.9228e-41 -0.004299127 0.0021697572 0.004834194 0.020900235
4.9457e-41 0.06030048 0.06457143 -4.9369e-41 0.077094324 0.070350625 0.07496541 4.9459e-41
-0.08563457 -0.095278166 -0.07308161 -0.08836989 -0.088986084 -0.08189258 -0.09031066 -0.0927315
0.06053493 0.068878636 0.050335057 0.04822633 0.09887091 0.11422958 0.052027974 0.10336043
-0.090351894 -0.08279361 -0.08772932 -0.073092446 -0.06001222 -0.055120252 -0.043818787 -0.050508574
0.041397616 0.06077284 0.012258629 0.03913775 -0.03880213 -0.032586213 -0.03024761 -0.040630966
0.033437166 0.03625847 0.022911437 0.028174974 -0.036571294 -0.047295857 -0.047536384 -0.04856327
0.08423076 0.09201282 0.084360935 0.09471879 -0.09695108 -0.101711094 -0.061953098 -0.054407883
-0.081982404 -0.09009801 -0.06695414 -0.08628314 0.080280386 0.07958683 0.08183906 0.08824761

decoder.2.bias f4 [32]
00000000: 2e3d 813c 1c7a 913d 7eb8 003e c180 493d
00000010: 2070 903d 0dfa cb3b 1bdd de3d 6ea9 0d3d
00000020: c1b9 923d 6842 e13d a8da 563d 55bb d53d
00000030: 57f5 af3d e4c2 e13c c8cb 0cbc ef71 333d
00000040: 5fac 75bc 89ce 29bd c465 973c 550e 493d
00000050: c02b 2dbb f2d3 e73c f0e9 ff3c 6c1a c73d
00000060: 7d6f a53d c5a5 423d a98c 243d d8d0 b23b
00000070: 2521 9f3d c280 303d 7d42 943d b248 d23c
0.015776243 0.07103369 0.12570378 0.049195055 0.07052636 0.0062248767 0.10882016 0.03458541
0.07164336 0.10998994 0.05245462 0.104361214 0.08591717 0.027558751 -0.008593507 0.043809827
-0.01499471 -0.041456733 0.018481143 0.049085934 -0.0026423782 0.028299306 0.03123948 0.097218364
0.08077905 0.04752137 0.040173206 0.005457025 0.07769994 0.043091543 0.07239244 0.02566943

decoder.4.weight f4 [32, 3, 2, 2]
00000000: f577 a83d a684 943e 653e de3d 47c7 873e
00000010: cf87 b53d ddf1 a0bb f20a 303e 0da8 bd3d
00000020: 1684 cf3d c2db 253e 6ce7 be3d bd74 bd3c
00000030: 7215 05be 304d c6be 10c6 62be f447 a83d
00000040: 609a b1be 4591 41be 4860 a93d 0acd 7ebe
00000050: 824c 6fbd 5a60 9bbe ce2b b4be 82cb a5bc
00000060: 61a0 f43b a827 4fbe f2a2 683e 0d25 37be
00000070: fbc8 423e 7d2e 92bd 5151 f5bd 3291 b4be
00000080: 6162 1cbe 1150 b6be a761 01be ff19 7bbe
00000090: bc7d 8abd ad1b 09be af78 8fbe 97e2 ccbe
000000a0: 3a7c eebc 47fe 8fbe c844 663c c5d0 fcbc
000000b0: ef79 5ebe 4af7 9ebe 7ab0 cabe c94e 34be
000000c0: 420a 003f debb c23e 06bb de3e 0be6 f63c
000000d0: 6de0 49bd 58db d9bd de6c 223e dec2 e9bd
000000e0: 66ef 0e3e 7fe0 d03d 29ad 343e ceb9 463e
000000f0: 5b4c 45be 2f8b c2be 6e3d 49be f379 93be
00000100: 3b63 b5be 4afa d3be d2f5 f3bd 7e60 2fbe
00000110: d06c a9be c5c4 c5be c6b5 a4bd 7043 2bbe
00000120: 150d bbbe 8891 11bd a6eb 98be 52ff b33c
00000130: 9c82 72be 5124 56be b8d4 b0be 49ca 333d
00000140: c34e 01be 4740 9cbd f39b 8dbe 91e8 95be
00000150: 9d64 cebc 56f0 24be 66b6 15be 758c 07bd
00000160: 85bf 60be 3c16 9bbe 0fa1 643c 4dca a1be
00000170: 6108 5abe 5123 97be 007e 0fbd 9609 65be
00000180: eaff 36be 807f b3be fc1c 043d 23ff 6ebe
00000190: e38f 8dbe a115 82be 6274 9abe c180 37bd
000001a0: d62a 6abc 4f12 c5be 10e5 f6bd d568 7fbe
000001b0: 4f45 a0be 643a c4bd cb60 b4be e505 e8be
000001c0: 1fb8 aabe ca41 93be ddfb 16be ac30 8abe
000001d0: 94e7 a0be 1552 eabd 2ede babe f154 dabe
000001e0: 146b 04be 3da1 303e 7aff 283e 7c38 973e
000001f0: 3a29 f1bd d615 9cbe 981b a7be 0c67 c1bd
00000200: 3e60 55be db9f a53d 641b a33c 8995 1bbe
00000210: 00ce acbe e72c acbe 4253 acbe cd3b bebe
00000220: e114 6cbe 4469 4f3d eab9 a8be 9721 9fbd
00000230: 47f4 a2be 7edb babd 1849 63be 5134 94be
00000240: 2881 603e 6a0d cf3e c8ee 993e 673a 2d3e
00000250: 03cd 373e a1c1 983e 522f 313e 763b 923e
00000260: c5a2 0c3e 6190 523c 3e48 0fbe e83e e83c
00000270: ef63 38bd 204d 073e 6d5a 82be 565e 7fbd
00000280: f73c 1bbe 0a6e 31bb 22f1 6cbe 31e4 cc3c
00000290: 6cf1 f6bd c2b5 64be 66d9 0ebe 98ec 95be
000002a0: 57ad 903d 5e0e 6dbe 8187 2cbe c1f6 22bd
000002b0: 2186 2fbe 36f1 8fbd b0af 83bd b89b 163d
000002c0: 25a6 a2bd 22bf a9bd 118c 8abd d6fd 07be
000002d0: bcbe 5e3e 297d 773e 9772 10be 7734 963c
000002e0: 751a 113e 722c 60be 9043 e5bc f414 32be
000002f0: 36d7 d0bd fe21 e7bd 7189 89be 04a2 09bc
00000300: 5791 283e 8a52 6c3e 7103 18bd 9f2e d53d
00000310: bc4f 733e b97b 213e 2bef 653c 5c7e 68bc
00000320: e752 e13d 8793 303e 3270 453d 17aa 383d
00000330: af90 9b3b f9c2 c13e 6daf 9f3e 5d84 e13e
00000340: 42a5 2a3d 18a1 ff3d fc70 9bbd 3d39 9b3e
00000350: b6d9 49bd 8e6c 9f3e 0f67 56bd 463e 8c3e
00000360: 12c7 cbbe 5b8a 9fbe a66f b2be fa3e b0be
00000370: 8e53 89bd 9504 dcbe 6e2a 14bd e6df e3be
00000380: 40ce a7be 8a60 22be 5e85 89be 5a87 d5be
00000390: 8f33 c2be 5509 bdbd eacc fcbd 289e efbe
000003a0: c3a2 2ebe 028e afbe 5a8c 32be f8b7 c8be
000003b0: 6658 b1be 2bce aabe 4b96 08be 5ecc 80be
000003c0: d32e 283e 109c 053d 8c05 c63e 0673 983e
000003d0: bcaf 563d 2f97 953d 2c5d 753e 8e58 793d
000003e0: a471 ed3c bb45 04be e153 303e d76b 18bb
000003f0: 070e c93e 0196 b13e 1e3d c23e d688 cf3e
0.08226005 0.29007453 0.108517446 0.26519224 0.08863794 -0.004911645 0.17191675 0.09260569
0.10132615 0.16197112 0.09321484 0.023126954 -0.12996462 -0.38730764 -0.22145867 0.08216849
-0.3468809 -0.18903072 0.08270317 -0.24882904 -0.058422573 -0.30346948 -0.3518967 -0.020238642
0.0074654077 -0.20229971 0.22718409 -0.17885228 0.1902198 -0.07137773 -0.119784005 -0.35267025
-0.15271904 -0.3560796 -0.12634908 -0.24521635 -0.06762263 -0.13389464 -0.28021762 -0.40016624
-0.02911197 -0.28123686 0.014054485 -0.030861268 -0.21726201 -0.31048042 -0.39587766 -0.17608179
0.5001565 0.38033956 0.43502063 0.03013899 -0.049286295 -0.106375396 0.15861842 -0.11414121
0.13958511 0.10199069 0.1764418 0.19406816 -0.19267409 -0.37996814 -0.1965234 -0.28803977
-0.3542727 -0.41401893 -0.11912121 -0.17126653 -0.3309083 -0.38626686 -0.08042483 -0.16724944
-0.36533418 -0.03553918 -0.29867285 0.021972332 -0.23682636 -0.20912291 -0.34537292 0.043894086
-0.12627701 -0.076294474 -0.27658042 -0.29278997 -0.02519446 -0.16107306 -0.1462036 -0.033092935
-0.21948059 -0.302904 0.013954415 -0.31599656 -0.21292259 -0.29519132 -0.035032272 -0.22366938
-0.17871061 -0.35058212 0.032254204 -0.23339514 -0.2764884 -0.25407127 -0.30166918 -0.044800524
-0.014292439 -0.3849053 -0.12055409 -0.24942334 -0.31302878 -0.0958145 -0.35230097 -0.45316997
-0.33343598 -0.2876113 -0.14744516 -0.2699026 -0.3142668 -0.11441437 -0.36497635 -0.4264293
-0.12931472 0.17249008 0.16503707 0.29535282 -0.117754415 -0.3048541 -0.3263824 -0.09443483
-0.20837495 0.08087131 0.019910522 -0.15193762 -0.33750916 -0.33628008 -0.3365727 -0.37155
-0.2305484 0.0506375 -0.3295434 -0.07770079 -0.31826994 -0.09123896 -0.22195852 -0.28946164
0.21924269 0.40439922 0.30064988 0.1691681 0.179493 0.29835227 0.17303208 0.2856099
0.13733967 0.012851805 -0.13992402 0.028350309 -0.04501718 0.13213015 -0.25459614 -0.062345825
-0.15159975 -0.0027073645 -0.2313886 0.025011154 -0.12057766 -0.2233496 -0.13950118 -0.2928207
0.07064312 -0.23150012 -0.16848566 -0.039786104 -0.1714101 -0.07028429 -0.06429994 0.0367696
-0.07941846 -0.08288409 -0.06764997 -0.13280424 0.21752447 0.24168839 -0.14106213 0.018335564
0.14170249 -0.21891955 -0.027986318 -0.17390805 -0.10197298 -0.1128578 -0.26862672 -0.008400444
0.16461693 0.23078361 -0.037112657 0.10409283 0.23760885 0.15769853 0.014034073 -0.014190283
0.110021405 0.17243777 0.0482027 0.045084085 0.0047474722 0.37844065 0.31188527 0.44046298
0.04166151 0.12481898 -0.075899094 0.30317107 -0.04927989 0.31137508 -0.052344378 0.2739126
-0.39800316 -0.31160244 -0.34850806 -0.34423047 -0.0670539 -0.42972246 -0.036173277 -0.44506758
-0.32774544 -0.15857139 -0.26859564 -0.41704828 -0.3792996 -0.092302956 -0.12343772 -0.4680035
-0.17054276 -0.3428803 -0.17436352 -0.39202857 -0.34637755 -0.3336042 -0.13338582 -0.2515592
0.16424112 0.032619536 0.38676107 0.29775256 0.052413687 0.073042266 0.23961323 0.060875468
0.028984852 -0.12917225 0.17219497 -0.0023257637 0.39268515 0.34684756 0.37937254 0.40534085

decoder.4.bias f4 [3]
00000000: 91e4 89be 0905 67bc e6bc 753c
-0.26932195 -0.014100322 0.01499865
